outputs/depth_lora/checkpoints/epoch_5/adapter_model.safetensors (safetensors, 895304 bytes, 72 tensors)

base_model.model.backbone.encoder.layer.0.attention.attention.key.lora_A.weight f4 [8, 384]
00000000: 195d 173d 5254 bcbc e4ea 103d cae3 bdbc
00000010: 831a b2bc e449 943c 0a45 a0bb 9c33 e93c
00000020: b935 503d 5c18 5d3d 5918 61bd ece2 59bd
00000030: 3c66 ddbc 0809 f83c d9f4 933c f46c 633b
00000040: 9a0f c0bb d449 9f3c 758a e8bc 564d 483d
00000050: 2217 09bd a4ad 9c3c eeef 2a3d 1588 3ebd
00000060: e933 97bc a30e 2e3d 5777 433d fa85 0d3c
00000070: 2a2c a3bb 0315 123d b24e 55bd bd58 fdbb
00000080: 1472 2f3d 2909 363d eae9 733c 9c9e 1d3d
00000090: d1e0 40bd 9df2 fa3c 899e 1e3c 46d6 78b9
000000a0: 19f0 4d3b a9d7 033b 7cfe 563c 038b 18bd
000000b0: 07b3 3abc 5d02 6d39 9813 a4bc b35a 393d
000000c0: f54c 143d ef18 f13c 424f c83b 3838 3abb
000000d0: 563a edbc b367 a13c 4de8 68bc ef0a 5b3d
000000e0: d2db 8fbb 9e29 393d ba9a 8d3c 17a1 213d
000000f0: 6df0 1fbd b3b5 f6bc 04c3 e33c d578 5d3c
00000100: 8aac 153d 2eba 973c 166e c53c 4d53 59bc
00000110: d9a8 993b f957 f1bc 83be bf3b 5b52 00bd
00000120: 2ace 1e3c d126 04bc 199c 35bc 17f8 943a
00000130: b9f3 fdbc d2a7 6e3c b020 953c dbd8 42bd
00000140: 4977 a3bc 0531 3dbd 8f98 acbc 4aa5 7eb9
00000150: 9b61 4b3d 01d6 de3c 8200 cd3c fa1f 3e3d
00000160: 1f7d e6bc 639f 52ba 7e6c 4ebd e88b b0bb
00000170: 9441 ae3c a57b 50bc faaa 9c3c 0474 e4bc
00000180: 8639 43bd a09b b2bb 007c ec3c cbbd 2e3d
00000190: b9ac 293d b1da 3dbc a1ed 3cbc 8b3e 2b3d
000001a0: 24da 183b 9fbb a93c b3ef 353d d6f0 c1bb
000001b0: 55c8 ee3c d506 dcbc 1ec9 80bc f6ba 143d
000001c0: 2f67 5b3d fc6b 30bb 95d7 47bc 6178 3f3d
000001d0: b569 abbc fa16 b8bb 846a eabc d754 bb3c
000001e0: e396 aabc ace5 72bc 096e 1e3d ea2a 66bb
000001f0: c613 d73c ff94 e1bc 6b6c 223d 1cdc f63c
00000200: 79c6 253c 01ca e8bc 6bbc 4bbd 8230 f93c
00000210: b44d da3c 4716 bebc 5967 9dbc c3d6 fdbb
00000220: a6a8 c9bc 19bf 99bc 8233 e2bc a97a 523b
00000230: 3bd0 0e3d 616b a2bc ecfe 1f3c d2b5 273b
00000240: fc07 e63c edbd 29bd 5430 61bd 79f0 abbc
00000250: b675 a1bb da2e 5fbd 73ca a5bb 7621 06bd
00000260: 7d5b b73c ff5b 80bc 23a8 00bd a92c d23b
00000270: 56d4 22bc 3e84 383d 1c3d 9fbc 7d32 303d
00000280: c235 8d3c 1009 0ebc efb3 24bc 183c 2f3d
00000290: 4556 9d3c f969 bc3c fe53 31bd 7a7b 9a3c
000002a0: e50f ff3c e6f0 48bd 7e5c 3ebc 0c1d e2bc
000002b0: 9c00 b0bc 881e 1b3d a2e7 f03a bcd0 153d
000002c0: dc65 453d a211 09bd 0eb9 0bbd 58bd 223d
000002d0: b0e2 3b3d 9c0e 813c 2811 7b3c 00ce ed3c
000002e0: 8121 6e3c 829a 423d 477d 2c3d 4d8d 3bbd
000002f0: f2ca 363a ed04 d93c b422 babc aaa3 67bb
00000300: b643 e23c 95d0 293d 87fe 0a3d 6598 a1bc
00000310: 4bf5 1fbd 5524 66bd ddfa 15bd a05a a43b
00000320: fcc1 c5bc e196 253d 03ff d03c f6b0 1f3c
00000330: fd91 39bd 874f d3bc 3a99 96bc e288 09bc
00000340: bb2f 7c3c 0034 48bc 450f e5bb 2d9f 12bd
00000350: d221 53bd df13 9abc e179 c9bc 1bb8 e9bc
00000360: 148d 38bd 2d7a 05bd a5b7 07bd 1708 3bbd
00000370: 096b 603d 560d da3b 2577 c93c 9312 523d
00000380: d190 7fbc c6ae bc3c 9e91 fd3c 7635 9a3c
00000390: fc9c 34bd 8629 ae3c c1f7 013d 1e8a ffbc
000003a0: e6e6 0f3d 22dd c63c cda0 c43c 3399 af3c
000003b0: b379 2e3d df9c d5bc 45a2 373d 1b91 afbc
000003c0: 804f 1abd f6a0 c9ba a1cf 2dbd 330d 23bc
000003d0: f286 293a aa8e f6bc b7d0 1d3d bf15 91bc
000003e0: 6272 513b f2aa 2ebd 4683 bd3b b666 bd3c
000003f0: e2c6 be3c 2804 20bd 1eea 3dbd 158d fabc
0.03695402 -0.022989426 0.03538026 -0.023179907 -0.021741157 0.01810164 -0.0048910426 0.028466992
0.050832484 0.05397831 -0.05495486 -0.053194925 -0.027026288 0.030277744 0.018061088 0.0034702392
-0.005861235 0.019444384 -0.028386334 0.04890188 -0.033469327 0.019125767 0.04173272 -0.046516497
-0.01845737 0.042494427 0.047721233 0.0086378995 -0.00497963 0.03566457 -0.052077003 -0.0077315257
0.042833403 0.04444233 0.014887312 0.03848134 -0.0470894 0.030633265 0.009681352 -0.00023730946
0.0031423627 0.0020117557 0.013122197 -0.037241947 -0.0113952225 0.00022602962 -0.020028874 0.045252513
0.036206204 0.029430835 0.006112964 -0.0028414857 -0.02895848 0.019702768 -0.014215541 0.053477224
-0.0043902183 0.045205705 0.017285693 0.039460268 -0.039047647 -0.030115938 0.027802952 0.013517578
0.0365415 0.018521395 0.024100345 -0.013264489 0.0046893177 -0.029460894 0.005851568 -0.03132854
0.009692708 -0.008065895 -0.01108458 0.001136544 -0.031000005 0.014566379 0.018204063 -0.04757009
-0.01995434 -0.046189327 -0.02106884 -0.00024284903 0.04965363 0.027201654 0.025024656 0.046417214
-0.028135834 -0.0008034615 -0.050396435 -0.005387772 0.021271504 -0.012724792 0.019124497 -0.027887352
-0.04766228 -0.005450681 0.028867722 0.04266147 0.041424487 -0.011587785 -0.0115312645 0.041807692
0.0023323381 0.020719348 0.044418048 -0.0059186025 0.02914826 -0.026858727 -0.0157209 0.036311112
0.0535652 -0.0026919832 -0.012197395 0.04674566 -0.020924428 -0.0056179734 -0.028615244 0.022867603
-0.020823902 -0.014825266 0.038679156 -0.0035120794 0.026254546 -0.027536867 0.039654177 0.030134253
0.01011812 -0.028416635 -0.049740236 0.030418638 0.02664838 -0.023203982 -0.019214319 -0.007746549
-0.02461655 -0.01876788 -0.027612451 0.0032116568 0.034866553 -0.019826593 0.009765368 0.002559055
0.02807998 -0.041440893 -0.05497773 -0.02098869 -0.0049273623 -0.05448804 -0.005059534 -0.032746755
0.022382492 -0.015668867 -0.031410348 0.0064140153 -0.00993832 0.04504799 -0.019438319 0.0430169
0.017237548 -0.008669153 -0.010052665 0.04278192 0.019206176 0.02299975 -0.04329299 0.018857706
0.031135509 -0.049057864 -0.011618732 -0.027601741 -0.021484666 0.037870914 0.0018379579 0.036576018
0.048192844 -0.03346408 -0.03411203 0.039731354 0.045870483 0.015754037 0.015323915 0.029028893
0.014534355 0.04751063 0.04211166 -0.04578905 0.000697299 0.026491607 -0.022721626 -0.0035345354
0.027620178 0.041458685 0.033934142 -0.019725988 -0.03905229 -0.056186993 -0.036616195 0.005015686
-0.02414035 0.040427092 0.025512224 0.009746781 -0.04530524 -0.025794758 -0.018383611 -0.008394452
0.015392239 -0.012219429 -0.0069903457 -0.035796333 -0.051545925 -0.018808303 -0.02459425 -0.028530171
-0.045056418 -0.03258722 -0.03313412 -0.045662012 0.054789577 0.006654422 0.024592945 0.051287245
-0.015598492 0.023032557 0.030953225 0.01882432 -0.044095024 0.021260034 0.031730417 -0.03119379
0.03513231 0.024275366 0.024002457 0.021435356 0.04259653 -0.026075779 0.044832487 -0.021431496
-0.037673473 -0.0015383053 -0.04243434 -0.009951877 0.0006466947 -0.030097324 0.038529124 -0.017710565
0.0031959047 -0.042643495 0.0057834713 0.023120265 0.023288194 -0.039066464 -0.04636585 -0.030584851

base_model.model.backbone.encoder.layer.0.attention.attention.key.lora_B.weight f4 [384, 8]
00000000: 93e1 1cbb 4dfb 663b 3c8c afbb ee24 06bb
00000010: b19b e53a 9067 1cbb 8360 10bb 2846 05bb
00000020: 1375 72bb 6e8e 8c3b f6b6 eebb 22c2 63bb
00000030: df32 6a3b c6e7 6fbb 67e5 40bb ff51 61bb
00000040: 7f08 413b bae3 93bb c3dd d83b df76 3e3b
00000050: 6c68 47bb 4ebc 523b cf2e 3b3b c2ce 3c3b
00000060: 4d17 f23b 5997 9fbb 37bd ea3b 451d d03b
00000070: 291b 8cbb d5a0 ab3b 2425 b33b d4a2 a73b
00000080: d312 093c 87e0 e9bb 821c 313c 6fbf 093c
00000090: 9abb f6bb b6be e03b cf15 e13b 2dd5 f33b
000000a0: 3d5c 4ebb 85cd 933b 1102 e1bb e402 4dbb
000000b0: 045f 553b 989f 5dbb a4a0 40bb e357 4abb
000000c0: 84fb 04bc 77b1 9a3b 3372 abbb e3cc e0bb
000000d0: 44e1 793b c3a4 b5bb 0a96 c3bb 0f83 c8bb
000000e0: 0b2f a03b c85a a7bb 57f1 983b e8df 843b
000000f0: f334 babb c57f ae3a 138f 123b 8d8f cf3a
00000100: df94 cfba e971 323b 6932 69bb 0fd6 cfba
00000110: ce19 3b3b b4ab 1838 1b6d 3d39 fe30 a7b9
00000120: b4be 283b 8d21 91bb 6475 f83b d675 833b
00000130: 567b b2bb 40a7 043b d8f7 093b f4e6 163b
00000140: f6a0 ef3a fe4b 8eba bd42 583b 8295 1f3b
00000150: fa80 48bb 02ca 2c3b 815f cf3a 8607 413b
00000160: b62e 193b b7f6 4cbb 4018 fa3a 82ce 833b
00000170: cc38 97bb a898 793b 4dc9 563b ed92 913b
00000180: e0b0 cc3a 24fb 83bb 35ba d53b f475 1c3b
00000190: 38e7 94bb 142f 953a cab7 9c3a ce41 953a
000001a0: ba63 343a ef13 2ebb b642 b13b e0a0 e63a
000001b0: b875 03bb f561 163b e196 cd3a 11f9 053b
000001c0: 8833 36bb 4c8c 8e3b dfdd cfbb c687 2ebb
000001d0: 73db 2d3b 66be 50bb f962 33bb dcbc 35bb
000001e0: 5d35 64bb 4ab0 943b e33a fbbb acb9 6ebb
000001f0: 45f0 803b ebba 36bb ce0f 24bb fe36 40bb
00000200: 018d b63b 8c84 a7bb a917 e23b 301c b33b
00000210: f164 afbb ed5c 7c3b 3ca4 853b d4b6 7c3b
00000220: 6418 b43a d91c 88bb 39bc 893b 665f c83a
00000230: daca 7bbb f774 843b 0a11 253b d457 513b
00000240: 0d2e 4cbb 9f5b 913b 97f5 dcbb 62c8 48bb
00000250: 3b51 4c3b a6fa 5bbb 751b 3ebb bedf 47bb
00000260: a9e3 c13a 4d8c c7ba b916 863b 4e33 eb3a
00000270: 0fd9 49bb 81f6 ac3a d0f9 8439 8f3a 773a
00000280: bf48 b53b e7f5 dfbb 4601 1a3c 62a6 e43b
00000290: ee96 c9bb 67e5 ee3b 507b ed3b 62f7 fb3b
000002a0: 7024 38bb afb5 3e3b e7f0 8ebb 2eab 05bb
000002b0: 4e36 7f3a f6c5 23bb 8801 10bb aaf3 18bb
000002c0: 4ba4 843a e710 2c3b d6a1 8abb b647 63ba
000002d0: 1b2b 4c3b 452a d1ba 92a2 40ba 27b2 97ba
000002e0: f2ba 30bb 8a2c 813b 2c72 bcbb 077e 1abb
000002f0: 94fb 0c3b a4b0 33bb df88 23bb 43af 1bbb
00000300: d427 4dbb 39ca 913b 7a76 dcbb 0f9c 48bb
00000310: 2b78 4a3b 11f8 5ebb f28e 3fbb 9fb2 49bb
00000320: 231b b2bb 5af2 a53b 2d9d f3bb 0029 82bb
00000330: 90af 4b3b c774 22bb 5422 2abb 01d5 01bb
00000340: 753d 60bb 1819 103b 24c3 543a 4945 00bb
00000350: 6d09 963a 261e eeba cadd 35bb 0f92 05bb
00000360: 0bd4 52bb 94c8 943b 0940 e3bb 9339 51bb
00000370: 11e2 583b 858c 62bb a0bb 43bb 7245 4fbb
00000380: 8040 feba e80d 3f3b 804e aabb ebe9 0bbb
00000390: db4f 353b b123 003a 6886 c7b8 19b7 1539
000003a0: a866 bfba 4cf3 493b 2634 babb b9da 28bb
000003b0: 1338 173b c17f 17ba b18f 25ba d2c3 9aba
000003c0: a7a4 623b 9fa3 9abb b809 ee3b d655 613b
000003d0: 26fc 68bb 2796 743b 5a63 523b 9e08 613b
000003e0: 0baa d53a 07f9 25ba ad30 de39 9d18 ed39
000003f0: 25c3 b43a 10a7 5f3a 4430 c13a 6ce8 1f3a
-0.0023938164 0.0035245002 -0.0053572934 -0.002046879 0.0017517713 -0.002386544 -0.0022030182 -0.0020336006
-0.0036996051 0.00428944 -0.0072849942 -0.0034753163 0.0035735888 -0.0036606654 -0.002943361 -0.003438115
0.0029454527 -0.004513231 0.006618233 0.0029062552 -0.003042723 0.0032155695 0.0028561836 0.002880976
0.0073880316 -0.004870337 0.0071636694 0.0063511455 -0.0042756987 0.0052376785 0.005467074 0.005115846
0.008366304 -0.0071373614 0.010810019 0.008407458 -0.007529688 0.006858672 0.006869055 0.007441184
-0.0031488084 0.004510584 -0.0068667014 -0.003128224 0.0032557854 -0.003381705 -0.0029392624 -0.0030875138
-0.008116607 0.0047208625 -0.0052321195 -0.006860362 0.0038128654 -0.005543323 -0.005968814 -0.006119139
0.0048884205 -0.0051072575 0.004667442 0.004055012 -0.0056825816 0.0013313225 0.002236311 0.0015835628
-0.0015837214 0.002722854 -0.0035583025 -0.0015856641 0.0028549316 3.6399535e-05 0.0001806509 -0.00031889224
0.0025748434 -0.0044290484 0.0075823534 0.00401185 -0.0054468317 0.002024129 0.0021052267 0.0023025842
0.0018282223 -0.0010856388 0.0032998763 0.0024350588 -0.0030594454 0.0026365523 0.0015821309 0.0029453947
0.002337379 -0.0031274983 0.0019080713 0.0040224204 -0.004614925 0.0038085375 0.0032773793 0.0044425637
0.0015616678 -0.004027741 0.0065224417 0.0023874016 -0.004544165 0.0011381828 0.0011956629 0.0011387409
0.00068813155 -0.0026562174 0.005409564 0.0017595552 -0.002005918 0.002294657 0.0015685224 0.0020442645
-0.002780171 0.004350221 -0.006343588 -0.002663122 0.0026528507 -0.0031851768 -0.0027372225 -0.0027730977
-0.0034821846 0.004537617 -0.007666932 -0.0036426587 0.0039348924 -0.0027882408 -0.0025033834 -0.0029329653
0.005571008 -0.0051122364 0.006899793 0.0054660067 -0.0053526093 0.0038507537 0.004078416 0.0038561122
0.0013740179 -0.0041538295 0.004203346 0.001528722 -0.003842047 0.0040422636 0.0025187158 0.0031943219
-0.0031155378 0.004435971 -0.006743144 -0.0030637016 0.0031176347 -0.0033566146 -0.0029008065 -0.003049835
0.001479258 -0.0015224308 0.004092064 0.0017944367 -0.0030799543 0.0013196022 0.00025363127 0.0009431028
0.0055323537 -0.0068347338 0.009399718 0.006977842 -0.0061520254 0.0072905305 0.007247366 0.0076894024
-0.002809789 0.002909999 -0.004362214 -0.002039622 0.000973557 -0.002498982 -0.002197357 -0.0023338594
0.0010119764 0.0026255192 -0.004230718 -0.00086700486 0.0031153623 -0.0015958032 -0.00073484436 -0.0011573479
-0.0026966897 0.003942077 -0.005750915 -0.0023573653 0.0021512257 -0.0027418518 -0.0024953408 -0.0023755587
-0.0031304257 0.0044491556 -0.0067279907 -0.0030610596 0.003089438 -0.003402237 -0.002922949 -0.0030776632
-0.005435364 0.005064291 -0.0074345083 -0.0039721727 0.0031079985 -0.0024788843 -0.0025960403 -0.0019810798
-0.0034216319 0.0021987613 0.00081162364 -0.0019572547 0.0011446901 -0.0018166944 -0.0027750605 -0.0020381247
-0.0032169844 0.0045405123 -0.006935124 -0.0031925186 0.003309373 -0.003456862 -0.0029866472 -0.0031627086
-0.0019397885 0.0029152576 -0.005197346 -0.0021349143 0.0027666006 0.0004888131 -9.5140946e-05 0.00014277957
-0.0014602738 0.0030815182 -0.005682486 -0.0025765134 0.0023074194 -0.00057792297 -0.0006315662 -0.0011807627
0.0034583004 -0.004719212 0.007264342 0.0034383438 -0.0035550683 0.0037320943 0.0032102675 0.0034337412
0.0016301287 -0.00063313585 0.00042379406 0.000452225 0.0013791068 0.0008531669 0.0014739116 0.0006100002

base_model.model.backbone.encoder.layer.0.attention.attention.query.lora_A.weight f4 [8, 384]
00000000: e11f 82bb 33a4 05bd e2f5 593c 7068 9dba
00000010: e827 a6bb 2572 103d 28a2 3cbd b7c4 b1bb
00000020: 2641 0e3d f69a cfbc 0323 c9bc 378e c93c
00000030: 037f 933c 28a5 833c a48c 0d3d e27d 04bd
00000040: 61f4 943c 5825 a5bc 7eac 81bc 4d26 183d
00000050: b8ba 2d3d c8e7 28bd 2d1b 4a3d 9c33 39bd
00000060: a58e 3fbb 5a68 22bb 4fc5 0d3d bab7 e3bb
00000070: 9499 2ebd cfd6 da3b b76b f23c b799 32bc
00000080: 0aab 45bc 65a4 17bd 8cd2 aabc 1510 f0bc
00000090: 0cb8 293d e494 10bd 4387 ff3b d341 073d
000000a0: 18e6 013d 54cb 423c 5d5d f53c 3b12 2e3d
000000b0: 3b3b 39bd f333 153b d831 fcbc b8f9 3b3d
000000c0: 7c85 b6bc 9434 1e3d d1c3 acbb 22fc 103b
000000d0: 1640 24bd ea49 febb 589d 05bd 1148 2cbd
000000e0: 2b5e 3e3d 158a b63c a79f 25bd 285c bcbc
000000f0: e414 213c bdbc 3d3d bf94 d03b 62a0 29bb
00000100: 80e0 2cbd e948 62bb affb 79bc ab5d 96bc
00000110: 83f9 b9bc a938 3fbd f34b 143d e8da 913c
00000120: 0da0 213c cc9e dd3c 2837 f33c 4266 463d
00000130: 8d68 adba f610 063d caa4 0fbc cb6d 79bc
00000140: 6704 2ebd 2b5b a4bc ebd7 80bb e283 af3c
00000150: c31e 723b 5d16 803c 6a11 4fbd d670 0abc
00000160: c67d 233d cad6 e7bc 8219 d8bc a79e c83c
00000170: c87f 2c3d 1f1a f5bc 193c a33c 32f4 5dbd
00000180: 473b 053d be8b c73b 8412 9abc 7109 12bd
00000190: 97f4 573c 9d34 603d 156a c33c 04e3 fcbc
000001a0: 4379 aa3c dd7e 883c 89ca 043d 16a0 aa3c
000001b0: fcde 573c 0afe c93c 4f63 9e3c c9c1 363c
000001c0: 38e1 96bc 2330 913c cfb3 efbc 7d50 933c
000001d0: 8f66 e73c 994a 893b 1a09 febc ae21 bebc
000001e0: f908 053d e0ec 333c 8c83 2d3d 6fb5 e2ba
000001f0: 380e 163b 4f8c 3dbd d52b 643d b41f f9bc
00000200: 7555 0c3d 34a9 c1bc 172d 1f3c 5f36 ef3b
00000210: a5f0 2fbd c6bd 2abd 40fb 4d3d c1e3 46bd
00000220: 2f8d b03c d1c9 353d 6035 4e3d d355 b3bb
00000230: 5e76 f13c c003 24bd 787a 833c 79fc 883c
00000240: ff80 073c 7af0 f5bc acc6 43bd 660f 01bd
00000250: 1ae2 253d 097e b7bc de76 383c 5dbf ccbb
00000260: 2a92 3fba dd3a 59bd 5a2c 08bd 0def 613c
00000270: fafc d7bb 1ecb bd3c aeca 19bd bcdc 203d
00000280: b95e 893c c8a9 983c 1018 91bc 5964 103c
00000290: ca87 bc3c fbd7 03bd 5754 06bd d4bd 2a3d
000002a0: 36e6 ecbc 5949 ba3b 0b25 de3b 3d97 a0bc
000002b0: 55e6 483d 65ac 54bd 666d 62bd f2ce 983c
000002c0: 2a23 d63c 9a24 303d 0b3d 3dbb 6332 363c
000002d0: 70f2 da3b cd7a 053d b641 bc3c 4b6b cb3c
000002e0: 6fc8 11bd 8c9f 2b3d 6782 3c3d 2fac 48bd
000002f0: 0a80 05bd 9049 bd3b 6016 51bd 7a73 26bd
00000300: 3c8a 503d ad78 403d 2a54 31bc fb99 51bb
00000310: 7929 143d 64a1 dfbc 1667 313d 7777 07bd
00000320: 22de 3d3d a5a7 033c 4f4b d93c 24bd 963b
00000330: 912d f2bc ec93 1ebd 3984 423d c1cd 44bb
00000340: 520e f43c fe7c 213d cdf4 dcbc c964 babc
00000350: 2ec8 d83c 4bcd 563d 58e8 593c 85b5 1e3d
00000360: d5f3 093d e4c1 353c df88 48bc 2307 e8bb
00000370: a32f 0f3d 2033 003c 5027 e13c b888 4abd
00000380: 470d f6bc 50b7 1cbc 11aa 02bd 7bf8 b8bc
00000390: 65e3 35bd 11a3 353d 6f04 91bb 5dc9 2fbd
000003a0: a76d ffbc 562b 033c 235c c43c 5995 4b3d
000003b0: 2978 d8bb 6dd6 cbbb 2485 3e3d 50d2 e53c
000003c0: 1cc8 a73c 6af8 27bd 2797 6e3c 777b f03c
000003d0: ed78 013d 271b 773a 63d2 83bc 20bb 493a
000003e0: 0b8a 1ebd 2c5d 73bc d300 b8bc 47f9 f43b
000003f0: b743 d33c da87 613d 9924 d63c 028d d83c
-0.0039710854 -0.032627296 0.013303252 -0.0012009274 -0.005070675 0.035265107 -0.04605308 -0.0054250616
0.0347301 -0.025342446 -0.024552828 0.024603946 0.0180049 0.016069964 0.034557953 -0.032346614
0.018182935 -0.020159408 -0.015829321 0.0371459 0.042414397 -0.04123667 0.049342323 -0.045215234
-0.002922931 -0.0024781437 0.034611996 -0.006949392 -0.042626932 0.006678439 0.029592378 -0.010900906
-0.012064705 -0.037022013 -0.02085235 -0.029304544 0.041435286 -0.035298243 0.007798107 0.03302176
0.031713575 0.0118892975 0.029951746 0.042497855 -0.045222502 0.002276656 -0.030785486 0.045892447
-0.022280447 0.03862436 -0.0052723666 0.002212294 -0.04010018 -0.007760276 -0.032620758 -0.042060915
0.046476524 0.02228264 -0.04043546 -0.022993162 0.009831641 0.046322573 0.006365388 -0.002588295
-0.042206287 -0.003452832 -0.01525776 -0.018355211 -0.022701984 -0.046684895 0.036205243 0.017804578
0.009864819 0.02705326 0.029689386 0.048437364 -0.0013230011 0.03273102 -0.008767316 -0.015223931
-0.042484667 -0.020063004 -0.0039319894 0.021425191 0.0036944605 0.015635664 -0.050553717 -0.008449754
0.03991487 -0.028300662 -0.02637935 0.024489714 0.04211405 -0.029919682 0.019926118 -0.05418796
0.032527234 0.0060896566 -0.018807657 -0.035653535 0.013180873 0.054737676 0.023854295 -0.030869968
0.020809775 0.016662056 0.032419715 0.020828288 0.013175722 0.024657268 0.019334463 0.0111546
-0.01841794 0.017723149 -0.029260544 0.017982716 0.028247146 0.004189801 -0.0310102 -0.02320942
0.03247926 0.010981768 0.04236178 -0.0017296503 0.0022896659 -0.046276387 0.055705864 -0.030410625
0.034261186 -0.023640253 0.00971534 0.0073001827 -0.042954106 -0.04168489 0.05028844 -0.048557047
0.021551697 0.04438192 0.05034387 -0.0054728775 0.029475387 -0.04004264 0.016049609 0.01672195
0.008270501 -0.030021895 -0.04779689 -0.031508826 0.04049883 -0.022398965 0.011258809 -0.006248398
-0.0007307852 -0.053034652 -0.033245422 0.013789904 -0.0065914365 0.023168143 -0.037546806 0.03927301
0.0167688 0.018635646 -0.01771167 0.008812987 0.023013968 -0.032188397 -0.032795276 0.04168494
-0.028918367 0.0056850133 0.006779318 -0.019603366 0.049047787 -0.05192222 -0.05528011 0.018653367
0.026139814 0.043003656 -0.0028875496 0.011120412 0.006681733 0.032587815 0.022980552 0.024831435
-0.03559154 0.041900203 0.0460228 -0.048992332 -0.03259281 0.0057765916 -0.05104673 -0.04063747
0.05091308 0.046990085 -0.010823289 -0.0031982649 0.036172364 -0.027298637 0.0433112 -0.033072915
0.04635442 0.008035575 0.026525168 0.004600184 -0.029562743 -0.038715288 0.04748938 -0.0030029865
0.029791985 0.039425842 -0.026972199 -0.022753136 0.02646264 0.052441876 0.013300024 0.03874733
0.033679802 0.01109359 -0.012239664 -0.007080929 0.03495754 0.007824689 0.027484566 -0.04944679
-0.030035628 -0.0095651895 -0.03190047 -0.022579422 -0.044406313 0.044344965 -0.0044255774 -0.042916644
-0.031180216 0.008005938 0.023969715 0.049702976 -0.006606121 -0.00622063 0.04651369 0.028054386
0.020481162 -0.04100839 0.014562405 0.029355748 0.031609464 0.0009426348 -0.016091531 0.00076954253
-0.038705867 -0.014853757 -0.02246133 0.0074760052 0.025789125 0.0550612 0.026140498 0.026434425

base_model.model.backbone.encoder.layer.0.attention.attention.query.lora_B.weight f4 [384, 8]
00000000: d5ad 79bb 68cd afbb 706f 1dbb cf56 e5b9
00000010: 748c 993b 5b7e 1b3b bd84 1cbb da19 ab38
00000020: f762 603a 5963 893b bbc4 503b 4df6 2e3b
00000030: 14ee eeb9 3a7b 193b f275 1ebb 15d6 8dba
00000040: 7820 5d3b c1cf c63b da7a 1a3b 377c 1a3b
00000050: b32a 59bb 9ada a9ba 4d12 0d3a f1a6 b139
00000060: a8fd f4ba 757d 86bb 507c 8ebb 92eb 733b
00000070: b9bd aa3b 78ae c03a 2399 d7ba 073d 233b
00000080: 5d66 a9bb c8a9 8bba d3b4 29ba 9cc9 053c
00000090: 2d8e c63b d88e bc3b 1367 92bb 368e 963b
000000a0: 9c84 58bb a31d cebb e620 05bb eac8 33bb
000000b0: 0012 4b3b afcc a13a 241b 50b9 7b90 71b9
000000c0: 3c81 503b 2d00 923b bccf 653b 3da4 bdbb
000000d0: 16c7 c0bb 2fb3 1fbb 752b b63a cdcc 96bb
000000e0: 4f98 e03a d0ca dd3b 2477 b23a df3e 953b
000000f0: 782b c5b9 7ede 7a3a dbe3 49bb de7c ba3a
00000100: 6ba1 673b 83f8 b73b 1051 553b 3518 6e3b
00000110: c8ee b1ba 4713 053a 7aed feba e996 473a
00000120: 2008 253b b090 463b 14fe a43b 196b 36bb
00000130: 5d99 7abb c175 383a 94c5 4b38 7b6f 9bba
00000140: 8b6f 1cbb cd42 27bb 154e 7cbb 0e38 3c3b
00000150: df90 943b e48f 103b b0c7 82bb 2821 a5ba
00000160: 399a 70bb 78c0 c9ba 208b 9d3a 8b27 f33b
00000170: 9a05 d53b 6627 e03b 10d2 efbb d767 c83a
00000180: 8c43 6c3b 8c74 e53b 1092 1f3b 7b79 a039
00000190: d1c1 9dbb 7f6a fcba 16c8 803a 380b 60b9
000001a0: 5f84 41ba 7adb cdbb 2dab bbba 0e29 a5bb
000001b0: 07bc dcb9 f3e3 85ba fa0e 333b 91b8 0abb
000001c0: 0752 70bb c26c 96bb d5cb 4ebb d3ba f6b9
000001d0: b686 833b 17be fa3a e769 11bb 3119 a6b9
000001e0: b5b0 223b 859b ba3b 2653 123b 5c1f 9f3b
000001f0: a0c0 8eb9 4f77 783a 43a9 1ebb cc07 133a
00000200: d0fc 7dbb d95d 48bb 9e4c 6cbb b9dc e93b
00000210: f07a f23b 6392 563b a191 3abb c363 b13b
00000220: b6f6 33bb 4a59 babb ff36 76bb 72fb 29bb
00000230: b8b5 fb3a a163 5cba 1803 ff3a 525c d239
00000240: 2a00 5cbb 005a cbbb 4999 00bb 980e 30bb
00000250: 6c2d 513b bcbb b53a 6031 d7b9 4d73 5cb9
00000260: ebbf bd39 e2e5 453b 2908 a9bb 54cb be3a
00000270: 2c54 053a e339 4bba e43a 47bb 8166 8eba
00000280: 63f3 c0bb 6fed 27bc 4051 103b 6b37 533b
00000290: ab7c b83b c312 003c 6b2b 46bb f68d 6639
000002a0: 7337 7139 5c5b da3b 639a 263a 6ce1 7e3b
000002b0: b2b2 edb9 1a08 9e3a 08ce 8dbb 3731 25ba
000002c0: d9a0 12bb 39b9 eeba 6bae dcba 2411 3b3b
000002d0: 09f8 453a 2424 863a 7fce 08bb 6b50 71bb
000002e0: 25c7 6cbb 98ac bcbb 959b 18bb e8ab e5ba
000002f0: f40d 7e3b 6681 f13a e38b b5ba 8883 4db9
00000300: 083e 5cbb 6160 c7bb d232 06bb a539 31bb
00000310: 3123 4e3b 823f b73a 8070 06ba 44d4 a7b9
00000320: 19b0 18ba f5a9 063b bfa7 fc3a c9d3 d63b
00000330: 2f17 6a3b a108 ac3b 61df b7bb c724 65ba
00000340: 3c50 b238 1728 98bb 9a4c ffba a6a1 d4bb
00000350: b042 dfba 4e97 4dbb e4dd 5f3b c664 fdba
00000360: f8ac 56bb b259 cebb b2f4 01bb 1897 39bb
00000370: c238 463b 796d 9e3a a206 06b9 c7ae 72b9
00000380: 4374 3d3a 7f49 353a b22b 9c3a e9da 003c
00000390: 4352 413b 0bad 8f3b 5715 b6bb d9d8 89ba
000003a0: bb26 df3a 6fd3 353b ad28 3bbb 98bf f33b
000003b0: 80be cd3a 7193 d639 19af caba 96cb 8e3a
000003c0: 351c 4c3b 8064 cd3b fb44 033b 1c9b 493b
000003d0: ba85 2ebb 4233 71ba 6608 9bb9 db16 7e39
000003e0: 26ee d839 65de d8bb 651e 4a3a 4250 61bb
000003f0: 8aaf 9738 9f0c 9cba a4e9 913b 74c2 b83a
-0.0038097997 -0.0053650625 -0.002402272 -0.0004374296 0.004685933 0.0023726437 -0.002388283 8.1587306e-05
0.0008559669 0.0041927514 0.0031855542 0.00266971 -0.0004557228 0.0023419396 -0.0024179188 -0.0010821248
0.0033741277 0.0060672467 0.002357176 0.0023572573 -0.0033137023 -0.0012958825 0.000538145 0.00033884452
-0.0018691318 -0.004104311 -0.0043483153 0.0037219268 0.005210605 0.0014700433 -0.0016448837 0.0024908201
-0.0051696734 -0.0010655457 -0.0006473783 0.008165743 0.006059429 0.005754333 -0.004467854 0.0045945896
-0.0033038026 -0.006290154 -0.0020313798 -0.0027432987 0.003098607 0.0012344326 -0.00019846536 -0.00023037374
0.003181531 0.0044555874 0.0035066446 -0.005787401 -0.005883108 -0.0024368276 0.0013898449 -0.004602051
0.0017135235 0.006768562 0.0013615829 0.004554614 -0.00037607155 0.0009569897 -0.0030805978 0.0014227887
0.0035344015 0.0056143417 0.0032549538 0.0036330346 -0.0013575191 0.000507642 -0.0019449436 0.0007613735
0.0025181845 0.0030298643 0.0050351713 -0.0027834831 -0.0038238384 0.00070365897 4.858298e-05 -0.0011858785
-0.0023870196 -0.0025521994 -0.003849869 0.0028719935 0.0045338715 0.0022058422 -0.0039910898 -0.0012598382
-0.0036713018 -0.0015392443 0.0012019612 0.0074204854 0.006500912 0.006840634 -0.0073187426 0.0015289736
0.0036051003 0.007002419 0.0024348535 0.00030608088 -0.0048143645 -0.0019257813 0.0009825255 -0.00021366484
-0.00073820906 -0.006282267 -0.0014317982 -0.0050402945 -0.0004210176 -0.0010215029 0.002732216 -0.002116714
-0.0036669986 -0.0045906017 -0.0031554599 -0.0004705997 0.0040138615 0.0019130138 -0.0022188367 -0.00031680756
0.0024824564 0.005694809 0.0022327392 0.0048560333 -0.00027227867 0.00094782276 -0.0024209775 0.0005608767
-0.0038755424 -0.0030573516 -0.003605641 0.007136908 0.007399909 0.0032741062 -0.002846815 0.005413504
-0.0027460284 -0.0056869136 -0.0037569401 -0.0025937227 0.0019203937 -0.000840718 0.0019455878 0.00040123105
-0.0033569434 -0.006205797 -0.0019622615 -0.0026864167 0.0031917943 0.0013865153 -0.00041044783 -0.00021023788
0.0003619188 0.0030196835 -0.0051584435 0.0014556446 0.000508609 -0.0007752461 -0.0030400092 -0.0010864289
-0.005888389 -0.01024948 0.0022021085 0.0032229077 0.005630096 0.007816973 -0.0030238281 0.00021987394
0.00023004207 0.006663723 0.0006355403 0.0038891686 -0.000453373 0.0012056858 -0.0043275394 -0.0006301584
-0.0022373705 -0.001821316 -0.0016836649 0.0028544152 0.0007551914 0.0010234159 -0.0020875034 -0.0036821614
-0.0036129442 -0.0057578795 -0.0023286093 -0.0017522546 0.003876564 0.0018425405 -0.0013850894 -0.00019599323
-0.003360631 -0.0060844873 -0.0020477069 -0.0027042415 0.0031454081 0.0013980719 -0.0005128458 -0.00032010872
-0.00058245804 0.002054808 0.0019276066 0.0065560085 0.0035719385 0.005250052 -0.0056113456 -0.0008741137
8.502646e-05 -0.004643451 -0.0019477785 -0.0064889966 -0.0017033424 -0.0031370702 0.0034159357 -0.0019332401
-0.0032756906 -0.0062973136 -0.0019829688 -0.0028318819 0.0030246233 0.0012087069 -0.00012781707 -0.00023144028
0.0007227102 0.0006915554 0.0011914878 0.007864692 0.0029498495 0.004384642 -0.005556743 -0.0010516896
0.0017025092 0.0027744432 -0.002855818 0.0074386112 0.0015697032 0.00040927113 -0.001546356 0.0010894414
0.0031144742 0.006268084 0.002003013 0.0030762618 -0.002663 -0.00092010584 -0.0002957016 0.00024231842
0.00041376165 -0.0066183084 0.00077102176 -0.0034380113 7.232938e-05 -0.0011905617 0.004452901 0.0014096037

base_model.model.backbone.encoder.layer.0.attention.attention.value.lora_A.weight f4 [8, 384]
00000000: d31f a1bc d1f3 273c 816d 853c 25b5 bdbc
00000010: ba17 36bd d31c 11bd 6edb fe3c 51e4 823c
00000020: 40ef 75bc 6604 02bc 387e e0bc ea28 8cbb
00000030: 8e6e 08bc c4e4 4e39 e469 2ebd 691e a93c
00000040: 953f f0bc a735 45bd 7954 4b3d ccfd 07bd
00000050: ceca 323d 97cd 063c 5a39 dcbb a7f9 42bd
00000060: 5794 5bbd b270 55bc f61f 6f3c a957 df3c
00000070: 2bc3 403d ecd7 323d cb1f 403c c6b2 10bd
00000080: cd58 d5bc 9f5b 39bd 9043 693c 66aa dfbc
00000090: 5441 043b b137 b8bc 6d37 05bc b937 883c
000000a0: 2439 5b3c 82b6 843c 80bb 26bd c958 f53c
000000b0: b9f7 04bd e07a 27ba 92f0 223d 9dab d9bc
000000c0: d1b2 5e3c f0d8 29bc 5bd9 a63b 3b5d b7bc
000000d0: 7730 203d efa5 873b 3e10 35bd 7ec9 253d
000000e0: 3b1d 05bd 19c1 1b3d 0117 333c d7b4 33bc
000000f0: 2cb8 32bd 0319 e1bc 4315 123c bb90 b8bc
00000100: 9b83 d43c 1dd5 aebc 6c00 603c 7c42 45bd
00000110: 43b0 1c3d 4ade d73b 1237 47bc c875 b53b
00000120: 69d8 35bd b39f a9bc 42b6 db3c b129 a93c
00000130: 490e dc3c 357e 2b3c f4ab 8cbc 41f7 e63a
00000140: 3d3b 943c 8c0b e23b 274b 2dba 6eed 0b3d
00000150: 2046 863c 244c 3dbd 1f64 0abd f406 31bd
00000160: 648d 6e3c 3fa9 bc3c b0a7 36bb 7a31 97bc
00000170: 81ad f63c cb77 fe3c 311a ac3b 25b7 4fbc
00000180: cc9b 3fbd 2590 85bc ddcf 8b3a f281 273d
00000190: 01ac 1c3d ae87 f03c a18c 3cbd 613b 12bd
000001a0: 3f48 42bd 6e8d a83c 40c9 55bc 10ad 2ebd
000001b0: d287 a23c 0348 86bc c847 50bc 1e10 593c
000001c0: 3d5c 60bc c73f 3c3d e648 2d3b 8674 abbb
000001d0: d75b 5dbc 4036 03bd f4ad 6dbc 2b5c 293d
000001e0: 263b 563d 3386 123d ef52 b2bc 3fcc 4bbd
000001f0: c9f1 523c d892 053b 2818 aebc 8799 2cbd
00000200: 51eb 0f3d 2ec5 0ebd 570a 37bd 281e 03bd
00000210: c131 b3bc 9cb2 153d 3a15 debc 2bf5 03bd
00000220: 3e24 8bbc a95d 1ebd 0648 8abc 16ce 283d
00000230: aa85 98bc 4007 2cbd 68fe db3b 8e6f 3c3c
00000240: ab83 003d 6c4a 2abd bd0d 20bb e1b1 14bd
00000250: 1ecd 4ebb 8bfb ccbb 61b0 36bb b150 a6bc
00000260: 34a3 a5bc c2e3 3e3d 52c5 ab3c 6cfe bbbc
00000270: 7836 cb3c 78fc 2d3c 2446 013d a410 fb3c
00000280: 558e debc f1ec cb3c 7eaa 03bd 20d9 45bd
00000290: a4ec 2dbc 5b66 1b3d bc8d d7bc c743 273d
000002a0: 9b11 7e3b 666d 9dbb d1d9 4dbc 21b9 87bc
000002b0: 2eee 8cbc 0ea7 44bd cbbd 26bd 7caa 863c
000002c0: 15d2 703c 1e42 1ebd 43af 993b 6ebe f33c
000002d0: 0213 c73c 2c99 33bd c4e3 0e3c ff6e 2ebd
000002e0: 0ca3 11bd 234b 51bd d883 dbbc 9a47 1a3d
000002f0: 8af1 f93c 82d4 1ebd e5df b6bc 54c3 f8bc
00000300: 0999 a4bb 88c2 f53c 1e93 ffbc da9e 40bd
00000310: a30f dcbc c4d7 0bbd d52f b43c 9ec6 4a3c
00000320: 35f5 f33c f43e a7bc 6b4d 09bd d033 debc
00000330: 4c3f 38bd 9ef1 17bd 22b6 35bd d842 9f3c
00000340: b0a3 193d f127 603c 449c 8ebc 3441 41bd
00000350: bc35 32bd 8bce f83c 6da0 6ebd 2204 cebc
00000360: 230d 523c 19e5 afbc 22be 643c e5a1 fe3c
00000370: 96fd 3dbd 51e3 e4bc 44f1 093d 0713 47bd
00000380: 8fcc 38bd 8d3f 1f3c cf74 b43c b561 883c
00000390: 75bf d2bb 1d4a 0e3c e988 3e3c 47c3 48bc
000003a0: efad f7bc 4f9a 373d bea7 43bd 5a4a 573d
000003b0: cc54 973b b54f d93c 1197 0f3c e2f2 41bd
000003c0: 203f a13c 8882 1e3d 2dad 6e3c da24 0abd
000003d0: 1931 623b 1795 473d e88e c0bc 2a49 9bbc
000003e0: 5140 e93c 93ea 29bd 4cc2 debc 1519 d4bc
000003f0: 44c5 e23b b8e2 dcbc db5e 813c e654 333d
-0.019668495 0.010251001 0.016287567 -0.023157666 -0.04445622 -0.03542788 0.031110492 0.01597801
-0.015010655 -0.007935619 -0.027403936 -0.0042773383 -0.00832714 0.00019730913 -0.042581454 0.020644384
-0.029327193 -0.04814687 0.049641106 -0.033201024 0.04365044 0.008227727 -0.006720704 -0.04760137
-0.053608265 -0.013027357 0.014595022 0.02726348 0.047061127 0.04366295 0.01172633 -0.03532674
-0.02604332 -0.045253392 0.0142373 -0.027302932 0.002018054 -0.022487493 -0.00813089 0.016628133
0.013380323 0.016200308 -0.040706158 0.029949563 -0.03246281 -0.0006388854 0.039780207 -0.02657109
0.013592438 -0.010366663 0.0050918288 -0.022383323 0.03910872 0.004139654 -0.044204943 0.04047536
-0.03249858 0.03802595 0.0109307775 -0.010968409 -0.04363267 -0.027477747 0.008916202 -0.02252995
0.02594166 -0.021341855 0.013671976 -0.048159108 0.038254034 0.006587778 -0.012159126 0.0055377223
-0.044395838 -0.020706033 0.026820306 0.020649763 0.02686228 0.010467102 -0.017171837 0.0017621295
0.018094653 0.006898349 -0.0006610625 0.034161977 0.01639086 -0.04621519 -0.03378689 -0.04321952
0.014560077 0.023029922 -0.0027870946 -0.01845621 0.03011203 0.031062981 0.0052521457 -0.012677942
-0.04677944 -0.016304085 0.0010666806 0.04089541 0.038249973 0.029361572 -0.04603255 -0.03570116
-0.04743218 0.020575251 -0.01304847 -0.042645514 0.019840155 -0.01639176 -0.0127124265 0.013248472
-0.013693866 0.04595926 0.0026441156 -0.0052323965 -0.013510666 -0.03203416 -0.014506806 0.041347664
0.052302502 0.035772514 -0.021768061 -0.04975533 0.012875029 0.0020381715 -0.021251753 -0.042138603
0.035136525 -0.034856014 -0.044687595 -0.03201118 -0.02187431 0.03654729 -0.027109731 -0.032216232
-0.016985055 -0.03866354 -0.016880047 0.041212164 -0.018618423 -0.0419991 0.006713677 0.011501206
0.03137557 -0.04157488 -0.002442225 -0.03630245 -0.0031555365 -0.006255572 -0.0027876126 -0.020302149
-0.020219423 0.046603926 0.020968113 -0.022948466 0.024806246 0.010619275 0.031561032 0.030647583
-0.027167479 0.024893256 -0.032145016 -0.04830277 -0.010615502 0.03793941 -0.026312701 0.040836122
0.0038767818 -0.004804301 -0.0125641385 -0.016567769 -0.017203417 -0.04801088 -0.040708344 0.016438715
0.014698525 -0.038637273 0.0046900823 0.02975389 0.024301056 -0.043847248 0.008721296 -0.042586323
-0.035555884 -0.051097047 -0.026796266 0.03766594 0.030510683 -0.038776882 -0.022323558 -0.030366577
-0.005023126 0.029999986 -0.03119808 -0.047026493 -0.026862925 -0.034141317 0.021995464 0.012376456
0.02978001 -0.02041576 -0.033521097 -0.027124316 -0.04498224 -0.03709566 -0.04436315 0.019441053
0.03750962 0.013681398 -0.017408498 -0.047181323 -0.043508276 0.030371925 -0.058258463 -0.025148455
0.012820515 -0.021471547 0.013961347 0.031083057 -0.046384417 -0.027940424 0.033677354 -0.04860213
-0.045116957 0.0097197415 0.022028355 0.016648153 -0.006431515 0.008684662 0.011629322 -0.012253589
-0.030234305 0.044824895 -0.047767393 0.05256114 0.004618263 0.026527265 0.008764044 -0.04735077
0.01968342 0.038698703 0.0145676555 -0.03372655 0.0034514128 0.048726168 -0.023505643 -0.018955786
0.028473051 -0.041483473 -0.027192257 -0.025890866 0.0069204886 -0.026963577 0.0157923 0.043782137

base_model.model.backbone.encoder.layer.0.attention.attention.value.lora_B.weight f4 [384, 8]
00000000: 40c2 72ba 7854 c0ba 0580 b3ba 28da b63a
00000010: 5635 43bb 80f7 0d3b 89ce f33a cf2e 133a
00000020: dbbc 0d3c eff1 f23b d9ff 093c 09b9 0bbc
00000030: b6f9 143c 647e 04bc 48a7 04bc 9b9e 06bc
00000040: a0a3 bb3a 7ec8 553a eaae bc39 0f7d 5bba
00000050: 2d54 483b 4e0f eeb9 b0ad 1eba 1900 bbba
00000060: 687f 49ba 601e bf3a 131a cf3a 8661 25ba
00000070: 888f 42bb 318d dbba 7be4 10bb 4e4c a63a
00000080: b633 10ba f326 45bb 0254 00bb c2e6 df3a
00000090: 5f94 34ba ac9e fd3a 43ce 163b ce4a 1f3a
000000a0: 5903 8abb a29e 2ebb a23c 71bb b315 7b3b
000000b0: bb7d 64bb c3e7 623b 55eb 5e3b adb6 813b
000000c0: 5fa6 c6ba bb00 fe39 7521 caba 1583 e43a
000000d0: a65a 27ba c8d5 bd3a 161c da3a 37db 0d3a
000000e0: 138c 803b 2ba0 88ba 95a6 4a3b 3e13 34bb
000000f0: 5694 693a 8755 d2ba cc92 e8ba dd56 51bb
00000100: ccac 113b c9fc 703a ddb3 d53a 6a52 b7ba
00000110: 6069 2d3a 29e6 0aba eaf2 64ba 30c8 1fbb
00000120: 3d2b edb7 e701 1f3a da26 133a 957e 4fb9
00000130: 2e49 153a 629f 2c38 16b1 feb9 25b7 45ba
00000140: ecba 1a3a dc3a 423b a61e a739 8769 9b39
00000150: 7496 223b e3ac 01b9 e4b9 d338 4175 eeba
00000160: 0df0 e33b b9e1 113c a699 f73b 023c d4bb
00000170: df33 f03b a8bd ebbb fc50 d9bb 7a56 eebb
00000180: f098 ccbb 63f5 82bb 446c 9cbb f455 b93b
00000190: ca4a 12bc f449 a33b 0656 913b 39a1 d13b
000001a0: 4413 d6bb ec34 32ba d59a 89bb e07a b43b
000001b0: 5aab 01bc 413d 793b 2b67 5f3b cde2 ca3b
000001c0: 894d 5439 9d54 02bb db07 77b9 de40 0c39
000001d0: c7e9 14ba e5ba 97b9 5983 9139 1bfa 793a
000001e0: b63e ccbb cccb 77bb b469 8dbb ec6d 953b
000001f0: 70a7 e2bb 3f98 7a3b b235 653b bb7f d63b
00000200: 4b37 e0b9 e6ff a439 519e e139 43df fb39
00000210: 1352 1dbb dc50 283a 27f1 d039 336f 6ab9
00000220: a791 cbba fcd0 eeba ba8f d8ba e1ea f33a
00000230: 9465 2dbb 892c a93a f7cf 013b c177 0c3b
00000240: 0525 7f3b 221f 303b fc56 673b 3d66 68bb
00000250: a98b d13a bb38 72bb 22ae 7cbb 4be2 61bb
00000260: 4da7 1cbb ff51 8dbb 1109 68bb 6c33 463b
00000270: 4ef8 37bb fd66 663b 9956 783b 1514 213b
00000280: e2f4 5b38 ac53 033a c58b abb9 11d8 c339
00000290: 5d96 4a3b 0daf b039 f144 cb39 88a5 adb9
000002a0: 84d6 033b 104f 533a acb3 913a 53a3 a8ba
000002b0: b711 3e3b f0f6 32ba 6cf4 34ba 17b4 5bbb
000002c0: 8e33 c8bb 767c 81bb 4bb5 9abb 99cf ba3b
000002d0: b708 f5bb 905e b73b c1dc 983b 183e a23b
000002e0: 30ce f53a b6a4 123b dbc1 303b 0fe1 10bb
000002f0: cf55 533b 4125 eeba 5b95 01bb 596f 44bb
00000300: a0c7 72b8 73df 06bb 9df8 6137 a3b2 cb39
00000310: 1278 6239 227d 2539 a753 fcb8 4efc 02b9
00000320: 49e3 02bc 624f ecbb beef f7bb 2a17 043c
00000330: e1fc 0abc 6684 0b3c 77c2 fc3b 93ac e63b
00000340: 4197 95ba 1d92 b3ba 0116 9cba 705d e73a
00000350: 31aa a239 17bd d03a 00ed e83a 1624 8238
00000360: a2c6 d3b9 c5e3 12ba 85a1 0cbb 4a7c be3a
00000370: 8d08 363b c291 c83a a248 f93a 12fc 9039
00000380: 50f1 24bb f0cc 2aba e10f 83ba 09b5 013b
00000390: 733d 17ba e6d3 b73a 9398 853a 7326 bf3a
000003a0: a99a 3839 b945 97ba 8344 c6b9 fcc1 40b9
000003b0: 7cc3 a3ba 4816 8739 a925 273a 849c 823a
000003c0: 6588 f83b b530 d23b 1eb6 d43b 1eec dabb
000003d0: ba79 233c 25df d8bb f576 cabb dbde 05bc
000003e0: c884 6ebb 563a 8739 dc44 08bb cbd2 623b
000003f0: b12a 9abb ae34 9b3a f9f2 7b3a 3b2f 713b
-0.0009260513 -0.0014673611 -0.0013694769 0.0013950514 -0.002978643 0.0021662414 0.0018600981 0.000561458
0.008650984 0.0074140946 0.008422815 -0.008528003 0.009092739 -0.0080867745 -0.008096524 -0.008216525
0.0014315732 0.0008155181 0.00035988475 -0.0008372822 0.003056775 -0.000454063 -0.0006053103 -0.0014266997
-0.00076865265 0.0014581196 0.0015800617 -0.00063087826 -0.0029687602 -0.0016750452 -0.0022108841 0.0012687535
-0.00055008696 -0.003008303 -0.0019581323 0.0017082321 -0.0006888564 0.0019349656 0.0023011125 0.00060765154
-0.004211825 -0.0026644845 -0.0036809822 0.0038312494 -0.003486498 0.0034623004 0.003401478 0.003958544
-0.0015155784 0.000484472 -0.0015421348 0.0017434085 -0.0006384052 0.0014483267 0.001664045 0.00054113887
0.003922948 -0.001042371 0.0030922045 -0.002747729 0.00089103484 -0.0016047218 -0.0017743944 -0.0031942644
0.002222824 0.00091929414 0.0016304214 -0.0013986353 0.00066151284 -0.0005298579 -0.0008733707 -0.0024380796
-2.8272736e-05 0.0006065652 0.00056133943 -0.00019788214 0.00056948035 4.1156432e-05 -0.00048578595 -0.0007542244
0.00059024873 0.0029637134 0.00031875557 0.00029642528 0.0024808915 -0.00012366804 0.00010095889 -0.0018192903
0.0069561065 0.008903914 0.007556158 -0.00647688 0.0073304023 -0.0071942396 -0.0066319685 -0.0072734924
-0.0062438175 -0.0039965375 -0.0047736485 0.0056559984 -0.008928964 0.004983181 0.0044353036 0.006397393
-0.0065330584 -0.0006798047 -0.0041993656 0.005507812 -0.007914389 0.0038030895 0.0034088593 0.0061915875
0.0002024678 -0.001988686 -0.00023558682 0.00013375605 -0.00056805875 -0.00028940212 0.00027754417 0.0009535865
-0.0062330617 -0.0037810681 -0.0043155793 0.004560223 -0.0069169328 0.0038237718 0.0034974632 0.0065459884
-0.00042765806 0.00031471177 0.000430333 0.00048040794 -0.002400522 0.00064207404 0.00039852524 -0.00022357404
-0.0015531079 -0.0018220241 -0.0016522326 0.0018609428 -0.002645825 0.0012906949 0.0019807795 0.0021433684
0.0038931977 0.0026874025 0.003529965 -0.003546133 0.0015987057 -0.0036960084 -0.003855594 -0.0034467157
-0.002390343 -0.004312753 -0.0035405795 0.0030243052 -0.0028071585 0.00351566 0.0037893413 0.002457862
5.2441734e-05 0.00050097215 -0.00032719798 0.0003735428 0.0030912377 0.0003369976 0.00038770543 -0.00033120462
0.0020116875 0.00080607925 0.0011116168 -0.0012866057 0.0029002258 -0.00068269577 -0.0006902877 -0.003352409
-0.0061096614 -0.0039516045 -0.004721319 0.005701017 -0.0074778455 0.0055959895 0.004664988 0.00495125
0.0018753465 0.0022376007 0.0026971016 -0.0022106802 0.003224719 -0.0018169062 -0.001977286 -0.0029973595
-5.788321e-05 -0.0020579963 1.346893e-05 0.00038852272 0.00021597769 0.00015782242 -0.00012031878 -0.00012491757
-0.007988759 -0.0072116116 -0.0075664213 0.008062163 -0.008483143 0.008515453 0.0077136117 0.0070396154
-0.0011412875 -0.0013700161 -0.0011908413 0.0017651748 0.0003102585 0.0015925494 0.0017770827 6.2056046e-05
-0.0004039305 -0.00056033983 -0.0021458578 0.0014532891 0.0027776093 0.0015302228 0.0019018839 0.00027653627
-0.0025168248 -0.00065155234 -0.0009999239 0.0019791743 -0.00057693495 0.0014024943 0.0010192565 0.0014583602
0.00017605223 -0.0011541165 -0.00037816548 -0.00018382812 -0.0012494172 0.00025765807 0.0006376156 0.0009964858
0.007584619 0.0064144977 0.0064914366 -0.0066809794 0.009977752 -0.006618398 -0.0061787316 -0.008170809
-0.0036395062 0.0002579267 -0.0020792997 0.0034610506 -0.0047047962 0.0011841261 0.0009611096 0.0036801833

base_model.model.backbone.encoder.layer.1.attention.attention.key.lora_A.weight f4 [8, 384]
00000000: 6bbe 303c f20e e23c 6fe3 cabc b844 28bc
00000010: b2d4 353d d926 e83c 7ed9 a0bc 0cd4 b7bc
00000020: ebb5 a1bb 1a04 3b3d 3e31 39bd bad8 913c
00000030: 1a42 88bc 711d 2dbc f3d0 a1bb 0f11 1abd
00000040: 04b7 4a3c b976 edb9 1f3f 7ebb 87de 60bc
00000050: 8cf5 29bc 2245 7ebc 40fe 30bd e190 9c3b
00000060: ce95 6bbc b0ba 523d b6b8 2039 61ad a83c
00000070: 269f 59bd 18ff 173c 5817 0dbd 8443 50bd
00000080: db2a 173c 77df 16bd 40f8 25bd 40b5 c1bb
00000090: f70f 83bc 63ca a5bb e396 423d a7bc c8bc
000000a0: 83e4 ddbb 1413 6cbc 03c7 153d 5c9a eebc
000000b0: 3f18 5d3d 858a 64bd ae3d 2cbd 9dab c7bc
000000c0: 5629 bcbb f689 41bd 7912 67bb 3020 3f3d
000000d0: 2e6e 5a3d ee54 65bb a5d8 01bd e972 663c
000000e0: 0c72 113d 6705 29bd 966f a83c ad4e d13c
000000f0: 5789 043d 01f8 2d3d c486 fb3b 21bb fdba
00000100: 83b0 ebbc 294b cbbc 5eac 29bd 0595 32bd
00000110: c3cf 063d b060 19bd 2c59 603d 95e7 cb3b
00000120: 719f 80bd aeb1 30bd aeaf 213d 8a3f 0f3d
00000130: bb39 573c 3871 49bd 0020 e63c 8cce e1bc
00000140: 8982 1a3d 31fd aabc 2f2a bc3b ce0c 183d
00000150: d534 d1bb 8550 0f3d 16d7 84bc f0ea 2dbd
00000160: f1a4 28bd 53f4 19bd 267e abbc 1b5f b73c
00000170: 2ce0 4bbd 809d 283d e7d2 033c 0c86 393d
00000180: d381 c83c 8454 0b3c b293 c83c 8498 1c3d
00000190: dc27 053d c15a de3c 79ab 01bd 8e95 0abd
000001a0: 6348 453c 6dcc f9bc 21ae 22bd 6123 9a3c
000001b0: 226b 5f3d af56 adbc 2294 7f3c 2516 1ebd
000001c0: 7608 3f3b 32b9 12bd 0c3b 5f3d b55d cebc
000001d0: a60b df3c dd3e b03c de98 e73c 2c1a 463d
000001e0: dace a73c 87e2 83bb b627 6ebd 5780 0f3d
000001f0: 8153 babc bb9c 93bc fc0d 24bd 8ab1 0d3d
00000200: 98b6 d8bc 66b5 423b d434 d73c 08ea e6bc
00000210: 3705 e1bc 1230 a4bc e16d 3b3d 890d d8bc
00000220: 629b 2abd 7565 a2bb 9426 3d3d 060f 0fbd
00000230: de90 26bc 2af0 283d 55cf 013c fb24 193d
00000240: 250e f3bc 8302 aebb 6a07 773c ec54 293d
00000250: b2c5 173c 6a7e 563c be86 0bbd 8553 74bd
00000260: 3d1d c9bc ad6b 14bd 5d3b f13a b26e 513c
00000270: ac87 d73c b2f8 143c 6d63 773d ab92 90bc
00000280: b62e e3bc ed6a 76bd 06dd 50bd 9314 053d
00000290: 4f8c 0dbd 005a 473d 365b 15bc 943c 653d
000002a0: ba96 a03c d8cb 2dbc 5cab 013d e239 053d
000002b0: b9ad a5b8 030b 29bb 93f2 fd3a 5c20 90bc
000002c0: 8817 5a3d 76f3 ccb9 fab7 e6bb 284e ddbb
000002d0: 14b7 b63c 6559 2dbb 8da6 2cbd 44fe 15bb
000002e0: 0ca2 cc3c 4bc4 6c3c b4a5 12bd 8f8c 8439
000002f0: 1bd4 21bc 6ae8 4d3d 1dbe 253d 829d dcbb
00000300: 7986 933c 1049 483b 9afb 1dbb 12f3 073d
00000310: 8d62 4fbd 706d 0a3c 2cd3 233d 9f2f 22bd
00000320: f494 363d 6f8e 66bc 2ff4 3dbd 60ef 2bbc
00000330: 9613 4bbc 01ad 0f3d b19b 47bc 97dd 52bd
00000340: 44eb 55bd 161a 7dbc ddbb 063d 102e eabc
00000350: 1d7f f33c 46fc 4fbc b4a5 3d3b 6f51 183d
00000360: 8e03 a63c 9214 4d3d 6dd8 fd3c 9af2 eb3b
00000370: adeb 2a3b 5ba8 61bc 8e88 d6bc d913 1cbd
00000380: 4f72 c3bc 9fa6 423b 1207 eabc c099 b53c
00000390: d014 2e3d 1695 3abb 7ea0 18bd fa50 d2bb
000003a0: e83f 39bc 5564 08bb ac8c 843c 8663 4a3c
000003b0: 2e0f 9abb 617d 45bd 3559 3c3d da1a 04bd
000003c0: f979 f33c 8d6d 0e3d 82df 023d 0f64 53bd
000003d0: 43df 493a ef00 a0bc d850 be3b fa5d 2cbd
000003e0: 81d3 f23c b10c 23bd b03d e03c 51ad 3cbd
000003f0: fbb6 333d f4ea 39bd 3dd0 60ba 5e1f 4c3d
0.010787587 0.027595017 -0.024766652 -0.01027029 0.044392295 0.028338837 -0.019634958 -0.022439979
-0.0049350164 0.04565821 -0.045212977 0.017803539 -0.016633082 -0.010566101 -0.0049382388 -0.037613925
0.012372736 -0.00045292618 -0.0038794947 -0.01372493 -0.010373484 -0.015519412 -0.04321122 0.004778013
-0.014378978 0.05144757 0.00015327599 0.020590486 -0.05313029 0.009277128 -0.03444609 -0.050845638
0.009226526 -0.036834206 -0.040519953 -0.0059114993 -0.015998824 -0.005059527 0.047507178 -0.024504019
-0.0067716255 -0.014408845 0.036566745 -0.029126339 0.0539782 -0.055796165 -0.04205101 -0.024373824
-0.0057422323 -0.04725071 -0.0035258813 0.046661556 0.05332773 -0.003499325 -0.03170075 0.014065483
0.035509154 -0.041264918 0.02056102 0.02555021 0.03235754 0.042472843 0.0076759774 -0.0019358137
-0.02877069 -0.024816113 -0.041424148 -0.043599147 0.03291298 -0.037445724 0.05477254 0.006222675
-0.06280411 -0.0431382 0.03947418 0.034972705 0.013136323 -0.04918024 0.02809143 -0.02756431
0.037722144 -0.020872684 0.0057423334 0.037121587 -0.006384472 0.0349889 -0.016215842 -0.042460382
-0.041172925 -0.03758652 -0.020934176 0.022384217 -0.049774334 0.04116583 0.0080458885 0.045293853
0.024475968 0.008504037 0.02448449 0.038231388 0.032508716 0.027142884 -0.03165767 -0.033834033
0.012041184 -0.030492986 -0.039716844 0.018815698 0.05454553 -0.021159498 0.015599282 -0.038595337
0.002914933 -0.035821147 0.05449967 -0.025191167 0.027227234 0.02151435 0.028271135 0.048364803
0.020484377 -0.004024807 -0.05814334 0.035034504 -0.022744896 -0.01801907 -0.0400524 0.034593143
-0.026454255 0.0029710173 0.026270308 -0.028187767 -0.027468307 -0.020042453 0.045759086 -0.026373642
-0.04165209 -0.0049559423 0.04617937 -0.034926437 -0.010166375 0.041244663 0.007922967 0.037388783
-0.02966983 -0.005310358 0.015077451 0.041340753 0.009263443 0.013091663 -0.034064047 -0.059649963
-0.024550075 -0.0362355 0.0018404532 0.0127827395 0.02630981 0.009092497 0.060397554 -0.017648062
-0.027732234 -0.060160566 -0.050992034 0.032490324 -0.034557637 0.048669815 -0.009115985 0.055965975
0.019603122 -0.010607682 0.03165756 0.032525904 -7.9001715e-05 -0.0025793917 0.0019374661 -0.017593555
0.053245097 -0.00039091305 -0.0070409747 -0.0067537017 0.022304095 -0.0026450988 -0.042151023 -0.002288715
0.024979614 0.014451097 -0.035802558 0.00025281726 -0.00987723 0.050270475 0.04046451 -0.0067326436
0.018008457 0.0030561127 -0.0024106265 0.033190794 -0.050631095 0.0084489435 0.03999631 -0.039596196
0.044575647 -0.014072045 -0.04637545 -0.010494083 -0.012394806 0.0350771 -0.012183116 -0.051480856
-0.05222632 -0.015448114 0.032894004 -0.028586417 0.029723698 -0.012694424 0.0028937878 0.037187036
0.020265367 0.050068446 0.030986989 0.007200551 0.0026080415 -0.013773049 -0.026188161 -0.038104866
-0.023858218 0.0029701365 -0.028567825 0.02216804 0.042500317 -0.002847021 -0.037262432 -0.0064183446
-0.01130674 -0.0020811756 0.016180359 0.01235283 -0.0047015166 -0.048215274 0.045983512 -0.03225217
0.029721247 0.034772445 0.031951435 -0.051609095 0.000770081 -0.019531695 0.005807977 -0.04208181
0.029641869 -0.039807025 0.027373165 -0.046063725 0.043875676 -0.045390084 -0.0008575952 0.0498346
