outputs/depth_lora/checkpoints/epoch_15/adapter_model.safetensors (safetensors, 895304 bytes, 72 tensors)

base_model.model.backbone.encoder.layer.0.attention.attention.key.lora_A.weight f4 [8, 384]
00000000: 0d67 183d fd20 ccbc 58c7 103d 3356 b1bc
00000010: ce8a a3bc d7a0 9f3c ef1b 56bb ade2 df3c
00000020: 964f 553d 0808 5e3d 6c49 55bd bc75 5cbd
00000030: 3678 debc ad41 013d 23be 733c 625a 5d3b
00000040: e359 a1bb cd67 cb3c 53af e1bc d0af 4a3d
00000050: d7c8 07bd e080 963c 162c 253d c82d 2fbd
00000060: b723 98bc e0d2 323d 370c 413d c341 0e3c
00000070: ac1c 46bb 77dc 0c3d 1ff0 51bd fecd 17bc
00000080: a760 323d 137a 353d b6ee 7f3c 9ff1 153d
00000090: 3862 3ebd 0dd0 fe3c ab65 253c bcc9 4a3b
000000a0: 5ef3 623b 3037 4e3b d66f 2f3c 8959 11bd
000000b0: 5f58 40bc 5028 b1b9 c047 98bc d715 3d3d
000000c0: 9789 163d 4f7f f33c 1f5a dc3b 3f9e a83a
000000d0: 4c29 e7bc 824b 913c 96ce 67bc 8f71 573d
000000e0: 6ab9 bfbb 4165 323d 9651 8f3c baaa 223d
000000f0: bd58 20bd 20ef 0ebd 6482 bc3c 33f8 513c
00000100: 774e 093d ee78 9e3c 84b9 ed3c cdc0 53bc
00000110: ea00 943b aa93 06bd 29b0 a63b c64d e5bc
00000120: 71cb 143c 4021 d9bb 936e 33bc 4354 823a
00000130: e9e4 01bd 48e2 363c 2ca7 7b3c 21bb 3ebd
00000140: ef34 96bc 27fd 41bd 4959 bfbc af91 28bb
00000150: e0fe 473d 0d7c ea3c a328 d53c 6954 483d
00000160: b5ca dabc 3f33 b0ba e212 51bd 4a2f c6bb
00000170: c1be ab3c 59e2 95bc a984 993c 51f2 e9bc
00000180: e5ce 39bd 1f83 f7bb d784 f33c 0eb3 383d
00000190: 28a3 2c3d 284b 66bc 4250 66bc 0bae 0a3d
000001a0: 4456 213a e54b ad3c 5552 333d 96f7 15bc
000001b0: 2083 073d ef9d cebc ef05 5bbc 313a 233d
000001c0: 7cde 5a3d da4d 04bb 5e46 81bc e3a9 2c3d
000001d0: bdc6 acbc cc5a 0bbc edea ebbc a02f e63c
000001e0: b39b babc 8192 7abc 0199 183d 0859 bbbb
000001f0: 50e3 d43c abeb cebc feb9 223d 1faf fb3c
00000200: e43a 173c e9d1 e7bc fde4 4cbd 0000 053d
00000210: 06cd e13c 56bc c0bc 2cd0 98bc fd51 cabb
00000220: f0aa c4bc 3a0b 8ebc f451 d8bc e00a b83b
00000230: 4912 073d e3e3 7cbc 6ceb 4b3c 8b18 b8ba
00000240: b1b1 ee3c 8baf 28bd f6e4 69bd 664f a5bc
00000250: b8d8 4ebc d928 5abd ba51 a2bb 865c 0abd
00000260: 7d7f a03c dacd 50bc b4e7 02bd 8df3 a73b
00000270: 6351 13bc 8013 3b3d dbf4 9dbc 07bf 2f3d
00000280: 5610 993c a150 2abc ac79 0cbc 0a3e 393d
00000290: d65e a23c 95c4 ac3c 7b16 2dbd 9e65 9f3c
000002a0: 571d f23c fed7 42bd 247f 2fbc d5fe efbc
000002b0: bff9 a0bc 25b3 1c3d 9a05 2f3b dca9 243d
000002c0: 7a6e 463d a938 f5bc 7c86 01bd 0b73 183d
000002d0: 032c 4c3d 37e2 773c 1aac 853c 442a 003d
000002e0: 29b3 433c fc80 473d 78aa 373d c96a 3ebd
000002f0: 7802 8939 1692 ea3c 24a4 9abc 3050 3abb
00000300: ecb5 ee3c a56f 1b3d 3b5a 0e3d 8b0b acbc
00000310: 5847 1ebd 6dda 59bd 1b05 16bd e2ab af3b
00000320: 5149 c9bc 670a 2b3d 511a dd3c 7648 4f3c
00000330: 6266 34bd d0e9 dabc 722b 97bc a670 13bc
00000340: 3d97 683c e1be 4fbc c760 2fbc c7a0 0dbd
00000350: 6288 59bd fbbf 93bc d2fe c6bc 5fe9 efbc
00000360: f733 29bd 4d5e 02bd 37fe 0ebd 7704 35bd
00000370: 31c2 5b3d cb78 403c dd94 d13c 9e18 583d
00000380: 2b38 5cbc 6cb2 ae3c a53a 1c3d 0198 a53c
00000390: d997 3cbd ea06 9f3c 242b 013d 205a 09bd
000003a0: 96e4 103d 1d0c ea3c 4a93 fb3c 6d7c ad3c
000003b0: 7e44 2d3d 69f8 debc 9490 393d ffff 9ebc
000003c0: 9dc9 15bd 28a6 453a d721 2bbd 7d85 3cbc
000003d0: c351 113b fdb7 0abd 922d 163d 9d5e 9abc
000003e0: 5bbf 9f3b 0914 31bd 60a6 7c3b 02b6 9b3c
000003f0: d65f d43c 33e1 1ebd be64 3ebd f0ca 04bd
0.037207652 -0.024918074 0.03534636 -0.021647548 -0.019963648 0.019485874 -0.0032670458 0.027329767
0.052077852 0.054206878 -0.052071974 -0.053823218 -0.02715693 0.031556774 0.014876875 0.0033775796
-0.0049240454 0.02482977 -0.027549421 0.049484074 -0.03315052 0.018372 0.040325247 -0.04276827
-0.018571718 0.043658137 0.04713079 0.008682671 -0.0030229492 0.03438994 -0.051254388 -0.009265421
0.043549206 0.044305872 0.015620878 0.03660738 -0.046480387 0.031105066 0.01009504 0.0030942997
0.0034629921 0.0031466 0.010707816 -0.035485778 -0.011739819 -0.00033790106 -0.0185889 0.046163406
0.03675231 0.029723791 0.0067246105 0.0012864544 -0.028217934 0.0177362 -0.014148375 0.052598532
-0.0058509605 0.043553594 0.017494958 0.0397136 -0.039147127 -0.034896016 0.023011394 0.012815523
0.033522096 0.019344773 0.029019125 -0.012924385 0.0045167105 -0.032855667 0.005086918 -0.027991187
0.009081707 -0.006626278 -0.010951656 0.0009943325 -0.031712446 0.011162348 0.015359681 -0.04656518
-0.018335788 -0.047360566 -0.023358004 -0.00257216 0.048827052 0.028623605 0.026020354 0.048908625
-0.026707986 -0.0013443007 -0.0510434 -0.0060481178 0.020964982 -0.018296408 0.018740015 -0.028557928
-0.045363326 -0.0075534726 0.029726429 0.045092635 0.042147785 -0.014056005 -0.014057221 0.033857387
0.0006154517 0.021154353 0.04377969 -0.009153267 0.033084035 -0.025221793 -0.013368114 0.039850418
0.053434834 -0.0020188005 -0.015780624 0.042154204 -0.02109086 -0.008505534 -0.028798545 0.028098881
-0.022779321 -0.015293718 0.03725529 -0.0057174005 0.025987297 -0.02525886 0.039728157 0.030723153
0.009230349 -0.028298335 -0.050023068 0.032470703 0.027563583 -0.023527306 -0.018653952 -0.0061743245
-0.02400729 -0.017339338 -0.026406266 0.005616531 0.032976422 -0.015435192 0.012446266 -0.00140454
0.029137464 -0.041183036 -0.05710312 -0.020179462 -0.012624912 -0.05326161 -0.00495359 -0.033779643
0.019592041 -0.012744391 -0.03195925 0.005125469 -0.008991572 0.045672894 -0.019281795 0.042906787
0.018684547 -0.0103952 -0.008573931 0.04522518 0.019820612 0.021089831 -0.042257767 0.019457635
0.029555006 -0.047569267 -0.010711465 -0.029296318 -0.019650338 0.038256783 0.002670622 0.040201053
0.048445202 -0.029934244 -0.031622395 0.03721909 0.04984666 0.015129617 0.016317416 0.031290308
0.011944571 0.048706993 0.044840306 -0.046488557 0.00026132516 0.028634112 -0.018877096 -0.0028429143
0.029139481 0.03794827 0.03475402 -0.021001598 -0.038642257 -0.053186823 -0.036625963 0.005361066
-0.024571093 0.041757967 0.026990088 0.012651553 -0.044042952 -0.026722819 -0.018453334 -0.008999025
0.014196214 -0.012679786 -0.010704226 -0.034577157 -0.05310858 -0.01803588 -0.02429143 -0.029286085
-0.041309323 -0.031828213 -0.034910407 -0.04419371 0.053651992 0.011747549 0.025583679 0.05275785
-0.013441126 0.021325313 0.038141865 0.020214083 -0.04604325 0.019412477 0.031535283 -0.033533216
0.035374247 0.02857023 0.030709881 0.021177495 0.042301647 -0.02721806 0.045303896 -0.019409178
-0.036569227 0.0007539713 -0.04178032 -0.011506435 0.0022173978 -0.03386687 0.036664553 -0.018843943
0.0048751063 -0.043231998 0.0038551316 0.019007687 0.025924604 -0.038788985 -0.046482794 -0.0324201

base_model.model.backbone.encoder.layer.0.attention.attention.key.lora_B.weight f4 [384, 8]
00000000: e8cf a2bb 8dbe e33b 86ec 1dbc b0bb a1bb
00000010: 0e39 8d3b 9176 9fbb 3779 a8bb 8cc6 a6bb
00000020: f9bc 4abb 6a73 9d3b 0d1f 07bc da51 50bb
00000030: 3cb1 833b cf69 8dbb 56bf 4cbb 12b8 73bb
00000040: c063 c23b a089 07bc fd47 343c a607 c73b
00000050: 3b12 c6bb 89e4 d13b a532 cf3b 91da d33b
00000060: 8488 2a3c 074b 0abc 6753 393c 84a4 d63b
00000070: a933 9fbb 8d38 ed3b b275 0c3c 5320 c33b
00000080: d6de 383c 803e 20bc af81 653c 11fe 3f3c
00000090: d28b 18bc b1ae 083c 5fff 0f3c e9ee 183c
000000a0: 084a d2bb 7324 0c3c c4f7 3cbc 68e5 d5bb
000000b0: f7ba d33b ff79 e0bb 14ee d8bb b84d e0bb
000000c0: ad6a 10bc e6c0 9e3b c489 cebb 1c8a e4bb
000000d0: 1e37 3b3b a200 b9bb 66a1 c0bb 33bf c1bb
000000e0: 5cb3 da3b 7f73 a8bb 374a 9d3b aca3 293b
000000f0: e7d4 c6bb e594 863b 7986 343b 87d1 493b
00000100: 1364 7cba ba60 793b 501a 99bb 6d5f 0abb
00000110: 33bc 863b 079f 47ba 8bd4 f739 88be 9aba
00000120: f037 a83b a82e d0bb 1fbb 063c 40b8 c33b
00000130: 22b6 ecbb e066 7f3b 638d 813b 4f71 9d3b
00000140: 370d d83b fea9 a9bb 0828 133c 9c79 cb3b
00000150: d5a1 f5bb abf5 e73b 5fb2 c13b dbd5 d83b
00000160: 8ca9 3c3b 6ff2 4cbb eaad 043a 8b98 a03b
00000170: f93d 9cbb ec02 813b bdeb 5f3b a275 843b
00000180: 05c3 953a 0058 aebb 6358 e83b 99b2 143b
00000190: f94f a8bb fe22 0c3b 396a ad3a 38ce ce3a
000001a0: 9c9a fb3a a236 bcbb 5b10 0f3c f8da 883b
000001b0: 22eb 96bb d7e1 843b 4b13 7c3b da6d 873b
000001c0: b60a acbb e20a f93b d4aa 26bc 0c79 afbb
000001d0: 7f1c ab3b a568 bcbb 745b b8bb a2ae bebb
000001e0: 31de 96bb e484 d43b 5b80 1cbc 568c a8bb
000001f0: 60b5 ab3b 77a2 7fbb c665 70bb 96f6 8ebb
00000200: 0f7d c33b d7bf c0bb 9fb9 f13b 000b 973b
00000210: 97d0 74bb 5a90 703b 647a 853b 90e0 343b
00000220: bd3a 0cbb d4ee cabb 76c3 d73b a129 ad37
00000230: caf0 cbbb ab5e ed3b 1460 543b 3fd1 8b3b
00000240: c284 d1bb 772b 0b3c 4cca 3bbc 33a0 d4bb
00000250: 1341 cf3b 38c1 debb 4e0d d7bb f3c1 debb
00000260: 2ca0 893b 93b6 88bb 954a fb3b ce24 313b
00000270: 0a01 a8bb 8191 8f3b 6520 f73a 696e 133b
00000280: edce c53b e414 1ebc 575a 423c 926c 293c
00000290: e816 0cbc 9002 073c 83b0 1d3c 3958 1a3c
000002a0: 23c2 8dbb 7bbd ad3b 2920 fbbb c65c 8ebb
000002b0: a1d7 3e3b c97c 76bb 40e3 84bb 9a3e 92bb
000002c0: 7209 7a3b 2bd2 743b 3ae9 9fbb dad7 51b9
000002d0: 2b7f 5c3b 1ec0 f5ba 5909 69ba f37c 22ba
000002e0: d08d b8bb b858 f93b 4dbf 27bc a78e b3bb
000002f0: 1273 a33b e004 b9bb 7c22 bebb 33e7 bebb
00000300: 8cd4 d2bb 292e 0b3c 8c95 3bbc eddf d4bb
00000310: de99 ce3b 0f92 e0bb d517 d8bb 2aa7 e0bb
00000320: e598 ebbb 0646 f93b 76bd 09bc 0911 98bb
00000330: 3bf4 bf3a a749 3dbb 9a01 3ebb d464 17bb
00000340: 5f3c dcbb 1fa5 4b3b 6ac2 15b8 e713 7ebb
00000350: 87a5 db3a 73f0 59bb 239d 99bb 3525 82bb
00000360: b8db d6bb a09c 0d3c 63f8 3ebc a5f9 d9bb
00000370: e9f3 d63b 0fa9 e4bb a9df dbbb b611 e4bb
00000380: 5eed b03a 6d85 8c3a 3864 2abb 7bc4 3d3a
00000390: 8e81 2fba a560 563b 7d08 4a3b 5472 493b
000003a0: 68ce 80bb a224 b13b 066d e9bb 7b81 adbb
000003b0: 43d2 503b 7323 f2ba 9906 47bb 9e36 78bb
000003c0: 2313 e93b 8d6e 14bc 7704 473c 4699 e93b
000003d0: ee14 e3bb bc51 f43b 2b60 ea3b 42a9 f23b
000003e0: 3097 57ba c014 9d3a 5b29 11bb 2937 a8ba
000003f0: 291c 823b 826b 29bb 18d7 e3b9 c658 e4ba
-0.004968632 0.0069502057 -0.009638911 -0.004935704 0.00430978 -0.004866429 -0.005141403 -0.0050895866
-0.003093539 0.004805018 -0.008247149 -0.0031787069 0.0040189307 -0.004315592 -0.0031241975 -0.0037188572
0.0059323013 -0.008272558 0.0110034915 0.00607391 -0.0060446537 0.0064054173 0.006323176 0.006465264
0.010408524 -0.0084407395 0.011311389 0.0065503735 -0.0048584533 0.0072394074 0.008572983 0.005954781
0.011283597 -0.009780526 0.01400797 0.011718289 -0.0093106795 0.008342431 0.008788913 0.009334304
-0.0064175166 0.008553612 -0.011533681 -0.0065275915 0.006461497 -0.0068504806 -0.006620178 -0.0068452023
-0.008814496 0.0048447726 -0.006303044 -0.0069744717 0.0028566788 -0.0056458274 -0.005878615 -0.0059126853
0.0066742133 -0.0051407213 0.004800107 0.002588491 -0.0060678604 0.004107105 0.0027545972 0.0030795054
-0.00096279493 0.0038052038 -0.004672326 -0.0021114007 0.0041117906 -0.00076149445 0.00047269868 -0.001180605
0.0051336214 -0.006353218 0.008223324 0.005972892 -0.0072238604 0.003897123 0.003953622 0.004804767
0.006593372 -0.0051777354 0.008981712 0.0062095653 -0.0074960985 0.0070788465 0.005911156 0.0066172904
0.0028787581 -0.0031272431 0.00050613156 0.004900997 -0.00476813 0.003937116 0.003416761 0.0040423432
0.0011425918 -0.005320549 0.0070906146 0.002268946 -0.0051364866 0.0021383162 0.0013230509 0.0015778011
0.0019195857 -0.0057438174 0.008731927 0.0041764937 -0.0046056667 0.0040552425 0.0038463648 0.0041329684
-0.0052503003 0.0076001743 -0.010172565 -0.005355006 0.005221903 -0.0057497793 -0.0056261364 -0.0058191577
-0.004604124 0.0064855684 -0.009552087 -0.0051436825 0.0052401274 -0.0039006749 -0.0036681755 -0.0043628914
0.005965836 -0.005882244 0.007376864 0.0046094656 -0.0037355775 0.0036707134 0.004073428 0.002759967
-0.0021397315 -0.0061930213 0.00658458 2.0642592e-05 -0.0062237727 0.0072439513 0.00324059 0.0042668874
-0.006394 0.00849425 -0.011461806 -0.006488824 0.006324896 -0.006797936 -0.0065628653 -0.006798023
0.004200002 -0.004172155 0.007668803 0.0027029994 -0.005127077 0.004381359 0.0018854259 0.002249623
0.0060366304 -0.009648535 0.011862359 0.010340827 -0.008550383 0.008240357 0.009624603 0.009420448
-0.0043261214 0.005302129 -0.007663746 -0.0043445555 0.0029120224 -0.0037611 -0.0040554106 -0.004463029
0.0038152603 0.0037356715 -0.0048800977 -0.00020012204 0.0033645134 -0.0018749272 -0.00088896375 -0.00061984285
-0.0056321397 0.007609453 -0.010238481 -0.005479652 0.0049880827 -0.005646333 -0.0058024507 -0.005825901
-0.006434029 0.008494892 -0.011449229 -0.0064964206 0.0063049635 -0.006853349 -0.006594638 -0.006855865
-0.0071898573 0.0076072244 -0.008406987 -0.0046407026 0.001464493 -0.0028883012 -0.0028992654 -0.002310087
-0.006721064 0.0031073762 -3.570543e-05 -0.0038769187 0.0016757705 -0.0033254891 -0.0046879216 -0.0039717206
-0.0065569542 0.008643299 -0.0116559 -0.0066520744 0.006559838 -0.006978161 -0.006710012 -0.006960119
0.0013498475 0.0010720916 -0.0025999676 0.00072390557 -0.00066950254 0.0032711413 0.0030827813 0.003073831
-0.0039308555 0.0054059783 -0.0071235923 -0.0052949763 0.0031863607 -0.00184737 -0.0030368923 -0.0037874351
0.007112877 -0.0090595605 0.012147061 0.0071288673 -0.0069299852 0.0074560326 0.0071525774 0.007405431
-0.0008224128 0.0011984333 -0.0022149894 -0.0012833822 0.003970642 -0.0025851433 -0.0004345707 -0.0017421476

base_model.model.backbone.encoder.layer.0.attention.attention.query.lora_A.weight f4 [8, 384]
00000000: 862a a9bb 2456 debc 03e8 4b3c 7387 d5ba
00000010: 6de0 33bc e44d e83c c7cb 3abd 6924 b8b9
00000020: 1d5a 0e3d fa18 a8bc 8c14 edbc 6eea b73c
00000030: 6a51 a13c c118 8e3c 0deb 203d af4f 01bd
00000040: c3db 643c 3ce0 8ebc 0158 9abc 1ff7 153d
00000050: ef94 1d3d a3d7 22bd ac80 553d bca2 39bd
00000060: 5e1d 87bb eb1c 933b 58d2 f33c 2428 1abc
00000070: 1220 33bd 3a4a 2eb9 fb46 a23c a043 4fbc
00000080: e14f 3ebc 27e7 3cbd 4499 d3bc a9c1 d5bc
00000090: 5d27 173d a44c 0ebd 6d5a 3b3c e3ea 063d
000000a0: c828 f23c 7fc9 4e3c 93da 073d c20d 2b3d
000000b0: 9ba5 4dbd cf60 4fbb d5ca ffbc 6837 4c3d
000000c0: 7351 bcbc 9c66 3a3d 98e5 e4bb 2da8 823b
000000d0: c134 2cbd 653e 5cbc 654e 10bd 7d5d 16bd
000000e0: c6f6 513d 2fbb aa3c 9c1a 02bd cef8 d9bc
000000f0: b542 1f3c 7760 443d 464b 663c 4899 a3bb
00000100: 4aeb 3fbd 30f5 c93a 95a3 7cbc f25c 88bc
00000110: 4827 c2bc 2ec4 24bd 5c11 083d d4db 893c
00000120: 49fb 833c 138e cb3c 0b32 003d d909 503d
00000130: 5d78 16bb 6645 0b3d 62b9 35bc c61e 93bc
00000140: c6cc 35bd 9a71 b8bc 52a4 6f3b f2fb c63c
00000150: e24e a63b 84a4 423c 4eff 47bd 79e3 d8bb
00000160: 6c76 0b3d e9d4 ddbc 15ab cbbc 1bf7 da3c
00000170: c03d 3c3d 7992 ecbc 8663 bd3c 36c1 5bbd
00000180: 051b 083d 5d93 f23b 3e99 96bc 7d3f 06bd
00000190: 3ce7 973c dc18 653d 38d4 f23c 8747 f2bc
000001a0: 16dc 823c ab16 403c 9079 d93c 7fae 453c
000001b0: 59a5 853c c7e5 e13c b1c7 b03c 9352 823c
000001c0: c92a 8ebc 7d34 863c e790 97bc fa83 af3c
000001d0: d229 0d3d cc2b cd3b da40 fabc a415 a9bc
000001e0: 1107 013d 7662 053c 4f8c 1f3d 9bc7 b038
000001f0: e5ce a63a 1ace 43bd 8090 553d 46f8 03bd
00000200: 5076 0e3d c86d b3bc 2119 183c 3c1d e23b
00000210: a59b 22bd d3a7 39bd e200 473d 171d 43bd
00000220: e62d 813c 8191 3e3d f362 523d 749d d23a
00000230: a79f 033d 1508 31bd 9eee a23c 6b4b a13c
00000240: 4d98 013c fbad d5bc dd0f 5bbd 2735 f2bc
00000250: c1f6 263d 2f02 43bc 48a2 343c 3fbc 4bbc
00000260: 8617 5a3b 68be 53bd 3b03 02bd 6eae 9d3c
00000270: 7990 11bc 5272 d43c 3d5c 0cbd e714 0c3d
00000280: 7d92 d63c ca7a 3a3c 0558 babc a2c4 123c
00000290: 4474 ab3c 326f 0bbd f652 0abd 084b 183d
000002a0: 9cb2 d2bc 964c b3ba 5d1c 083c 699a 6cbc
000002b0: 8f7e 513d 1d49 59bd ef98 5cbd 261f c73c
000002c0: d1e8 da3c 2747 343d af05 793a 68dd c83b
000002d0: 5120 ddba c26b ea3c 860a b83c 432f ee3c
000002e0: bb90 19bd acb9 533d 323e 3e3d 74cb 6fbd
000002f0: e9d5 ddbc 6139 223c 186f 57bd c035 ffbc
00000300: c2fe 4f3d 47cc 283d ebe2 0bbc 59cd c83a
00000310: 6ff1 f33c 7200 d4bc 6de8 383d 4342 01bd
00000320: 9431 293d 5a30 223c 24df a03c f579 3c3b
00000330: 1ef1 f1bc cab6 34bd c3b7 2b3d fd8c d8bb
00000340: a129 003d 830c 1a3d db08 cebc 412f bebc
00000350: 7287 c43c 2890 543d b31e 8f3c 807c 1c3d
00000360: d549 0e3d 8909 6e3c b73a 89bc 7986 56bc
00000370: 92d4 1a3d 0dfe 683b 58be cc3c 57de 49bd
00000380: 9fe6 e2bc 5cc3 2cbc 6cf7 26bd 3b0c afbc
00000390: 8896 2cbd 3a38 543d 23d2 c8bb a79b 1cbd
000003a0: 2cf8 05bd 27ab 3c3c e2e8 ed3c 51df 613d
000003b0: 0f20 45bb 8857 af37 c390 603d 413e fd3c
000003c0: aee4 673c c4e7 fdbc 1cb8 383c 8bfb c73c
000003d0: 7ceb 003d c3d0 50ba a2e6 30bc ebd9 69bb
000003e0: be79 14bd 1cdf 57bc cb66 ccbc 952e 183b
000003f0: 41cd cd3c a261 493d 8dd7 e83c 0d32 f93c
-0.00516254 -0.027140684 0.012445453 -0.0016290977 -0.0109788 0.028357454 -0.045604493 -0.00035122343
0.034753907 -0.020519722 -0.028940462 0.022450652 0.019692142 0.017345788 0.039286662 -0.031570133
0.013968411 -0.017440908 -0.018840792 0.036612626 0.038472112 -0.03975643 0.052124664 -0.04532121
-0.004123374 0.0044895313 0.029763386 -0.009408984 -0.043731757 -0.00016621585 0.019809237 -0.0126504
-0.011615724 -0.04611888 -0.025829919 -0.02609332 0.036902774 -0.03474106 0.011435133 0.03293885
0.029560462 0.012621283 0.033167433 0.041761167 -0.05020676 -0.0031643396 -0.031224648 0.049857527
-0.022988057 0.045508012 -0.0069853775 0.0039873333 -0.042042498 -0.01344261 -0.035231013 -0.03671025
0.051260732 0.02084121 -0.031763658 -0.026607897 0.009720494 0.04794356 0.0140560325 -0.004992638
-0.04685525 0.0015408155 -0.01541986 -0.016645882 -0.023700371 -0.040226154 0.03321968 0.016828455
0.016111033 0.02484802 0.031297725 0.05079064 -0.0022959926 0.03400173 -0.011091562 -0.01795901
-0.04438474 -0.022515107 0.0036566448 0.024290059 0.0050753215 0.011880044 -0.048827462 -0.0066189137
0.034048483 -0.027079063 -0.024861852 0.026729157 0.045957327 -0.028878437 0.023118746 -0.053651057
0.033228893 0.007402821 -0.018383618 -0.03277539 0.018542878 0.05593191 0.02964221 -0.029575123
0.015974086 0.011724154 0.026547223 0.012065529 0.016314195 0.027575387 0.021579595 0.015908515
-0.017354386 0.01638245 -0.018501712 0.021425236 0.03446371 0.0062613245 -0.030548502 -0.020640202
0.03150088 0.008141151 0.038952168 8.4295134e-05 0.0012726454 -0.047803976 0.05213976 -0.032219194
0.0347808 -0.021902934 0.009283335 0.0069004577 -0.039699215 -0.045326065 0.048584826 -0.047635164
0.015768956 0.046525482 0.051363897 0.0016068653 0.03213468 -0.0432206 0.019889172 0.019689282
0.0079098465 -0.026083937 -0.053481925 -0.02956636 0.040762667 -0.011902376 0.011025019 -0.012435018
0.0033278181 -0.051695257 -0.031741362 0.019248214 -0.008884543 0.025933418 -0.034267653 0.03419962
0.026192898 0.011381814 -0.02274705 0.008958014 0.020929463 -0.03404159 -0.033770524 0.03718093
-0.025719933 -0.0013679441 0.008307544 -0.014441111 0.051146086 -0.053048242 -0.053856786 0.024306845
0.026722344 0.04401317 0.0009499443 0.0061299093 -0.0016870593 0.028615836 0.022465955 0.02907527
-0.03749154 0.051690742 0.046446033 -0.058543637 -0.02707954 0.0099013755 -0.05259618 -0.03115356
0.050780065 0.04121044 -0.008537988 0.0015319987 0.02977821 -0.025879119 0.045143533 -0.031557333
0.041307047 0.009899223 0.019637652 0.0028759215 -0.029533919 -0.044119634 0.041923296 -0.006608604
0.0312897 0.03760959 -0.025150707 -0.023215892 0.023990367 0.05189529 0.017470693 0.03820467
0.03473838 0.014528641 -0.01675163 -0.013093584 0.03780038 0.0035551817 0.024993107 -0.049284305
-0.02769786 -0.010544624 -0.040763304 -0.021368137 -0.042135745 0.051811434 -0.006128566 -0.03823438
-0.03270738 0.011515415 0.029041711 0.05514461 -0.0030078923 2.0902386e-05 0.054825556 0.030913474
0.014153643 -0.030994304 0.011274364 0.024411937 0.031474575 -0.0007965678 -0.010797175 -0.0035682868
-0.036248915 -0.013175752 -0.02495136 0.0023221124 0.025122287 0.049165376 0.028423095 0.030419374

base_model.model.backbone.encoder.layer.0.attention.attention.query.lora_B.weight f4 [384, 8]
00000000: bfc3 10bc e664 14bc ab2c 0abb e71f 443a
00000010: 6b52 243c 8809 c43b 885b a8bb eb64 f7ba
00000020: fc1f a03b c625 933b da61 3b3b 051c 45ba
00000030: d9c8 00bc df86 3eba 1a0b 85bb 9f0f cfbb
00000040: 51eb 013c 61a4 153c ecd6 ad3a d17b e2b8
00000050: f19a 24bc b245 aebb b841 e83a 750c c836
00000060: 6086 0abc 8d63 fbbb 632d fcbb d392 963b
00000070: 0350 4a3c 9f28 b43b 82e9 48bb 809b ac3b
00000080: b95b 05bc f695 58bb 5a78 bfbb 062f d93b
00000090: f151 b83b 12d1 c13b e857 ebbb eff5 b03b
000000a0: e168 f5bb e3f9 18bc d13b 9fb9 1765 3939
000000b0: 6ef4 283c dec5 b53b f96c aaba fb54 2c3a
000000c0: ca44 093c 76cd e83b 2a6d 083c 5ef7 dcbb
000000d0: a101 41bc 3377 aabb a62d 433b 0247 18bc
000000e0: 67ad 943b c51b 0c3c 40bd 23bb 1945 aab9
000000f0: 2fa7 11bc aadb 09bb 7d16 67bb 108d 8ebb
00000100: c317 fa3b 713c f03b 6579 6b3b f47f f83a
00000110: 0e0d f8bb d0f1 0ebb 04c0 18bb 9591 29b9
00000120: 2baf ff3b b3a9 533b 3d26 2f3c 76cc 8fbb
00000130: 3da4 f0bb 0990 c43a 5c40 38ba 3094 88bb
00000140: 046a 19bc 9f6b cdbb 0bc8 dabb 0ebc 373b
00000150: ef8c 1a3c 8de0 ad3b ca6f b2bb 7846 a3bb
00000160: 6a72 e6bb c153 f2bb 611d 2639 9ad7 d93b
00000170: 58f1 cd3b f1f2 0a3c 5150 68bc 1219 0dbb
00000180: 42b8 193c 2ab8 2e3c 2431 3b3b 42ae 7ebb
00000190: c834 5dbc 8481 d8bb 1e08 2e3b 368e 68bb
000001a0: aa13 56bb a9a7 09bc f809 1a3b 7bc7 84ba
000001b0: 2726 083c 310d 733b ed78 8a3b 0acf ac39
000001c0: d9cc 09bc bc30 fbbb ee52 7dbb b9e1 1fba
000001d0: d4fb fa3b 347f 933b 2ea8 90bb ef45 4dbb
000001e0: 416d 903b 0fdd f13b 51ce 2439 f72d 503b
000001f0: 18cd dabb 9d7f 41bb 16c6 3dbb eebd 76ba
00000200: f281 c2bb 5e8f 6cbb ea38 f3bb 6972 d03b
00000210: a52e 1e3c 4312 853b 306b e9ba 0d00 e63b
00000220: 362b f4bb 4548 d6bb 3b0e afbb cbfa 823a
00000230: 2d12 133c cfb9 ef3a 5526 6b3b f3d4 7a3b
00000240: 3ee0 f5bb b07f 19bc 5cdc 88b8 a460 cfb5
00000250: 4a08 263c 1d49 b93b ed69 edba 8d8b 3e39
00000260: 931f 8ebb 1c21 ef3a bb83 1abc 8a3d 09bb
00000270: ceea 613a ed74 bf36 78e3 d2ba 25c1 e3bb
00000280: 2e6e 06bc bc0c 8cbc 906b 8b3b f4da dd3b
00000290: fca2 333c 8830 363c 0ca5 3cbc 3319 153b
000002a0: ad36 913a c4ac df3b 9151 eaba 011d 81ba
000002b0: 44f9 1dbc 1013 5dbb 9679 efbb 9fd9 05bc
000002c0: 3faa 18bc e45a dcbb d444 0dbc eb2b 1eba
000002d0: 9276 423b 9719 51ba dca6 f5bb 3423 fabb
000002e0: 1a59 07bc 97ba 15bc 7c2f b2ba 176e 35b8
000002f0: 58e9 1f3c 3bff b83b f000 5dbb 4a7d a8ba
00000300: 5df5 f4bb 9d68 17bc ccb1 53b9 53a8 bab9
00000310: b9dc 1e3c 6442 b43b 4bf3 04bb 7806 e0b9
00000320: b817 20bb ec58 daba 4373 da39 dbf5 cd3b
00000330: 85ef 053b 5319 ad3b 2215 2abc b516 b5bb
00000340: 33ca 833a a3f8 5cbb 3c33 183b f431 56bb
00000350: a259 703b ed6e ebb9 964e ec3b 8c27 523a
00000360: 6cf8 f1bb 69ca 18bc 4757 04b9 b12d d638
00000370: 0931 283c 15c3 b53b 4725 9eba 5898 2e3a
00000380: f211 bdbb 19b7 9bbb e2c7 e3b8 0484 2a3c
00000390: da1c 0a3c b8ec f43b 8974 27bc 0d27 17bb
000003a0: e31b 18bb d7c5 de3a 10d7 2cbc 807f e03b
000003b0: d826 233b d49c 5c3a 079a 19bb e761 213b
000003c0: 7d95 e93b f872 143c 423e f338 fb53 1c38
000003d0: 14ef 24bc 6292 abbb b4b5 b039 efca 7cba
000003e0: 6bcf 2d3a e497 dbbb c7c0 b83b f6d2 043b
000003f0: 0a18 053c 6c0b 363b 8027 8e3b 5731 333c
-0.008835732 -0.009057259 -0.0021083753 0.00074815605 0.010029416 0.0059825815 -0.0051378645 -0.001887468
0.0048866253 0.004490587 0.002859226 -0.0007519129 -0.007860386 -0.0007268022 -0.0040601613 -0.006319001
0.007929639 0.009133429 0.0013262904 -0.000107995824 -0.010046707 -0.005318367 0.0017719781 5.9619147e-06
-0.008454889 -0.0076717795 -0.00769584 0.0045951395 0.012348178 0.0054980065 -0.003065676 0.0052675605
-0.008139544 -0.0033048368 -0.0058432044 0.00662792 0.0056250026 0.0059148157 -0.00718211 0.0054004113
-0.007489309 -0.009336921 -0.0003037141 0.00017680634 0.010312183 0.0055472692 -0.0013002447 0.00065739424
0.008378217 0.007104571 0.008326808 -0.0067433557 -0.0117801735 -0.005202198 0.0029781847 -0.009294273
0.0045372727 0.008551543 -0.0024984628 -0.00032476409 -0.008889957 -0.002103547 -0.0035261207 -0.004350312
0.007632227 0.007331424 0.003593051 0.0018959031 -0.0075699156 -0.0021811612 -0.002330781 -0.0001617133
0.007802864 0.0032297194 0.010690269 -0.0043883873 -0.0073437975 0.0014996539 -0.0007028633 -0.004168056
-0.009363655 -0.006268933 -0.006676679 0.0028035673 0.009433015 0.0053063096 -0.005445455 -0.0049827658
-0.007032682 -0.007395238 0.00015841938 0.006648016 0.006284874 0.008480773 -0.014179305 -0.0021529836
0.009382309 0.010664025 0.0028563226 -0.003886119 -0.013501354 -0.0066072363 0.0026555131 -0.0035485155
-0.003266553 -0.00840179 0.0023504477 -0.0010130251 0.0083098775 0.003708672 0.0042258413 0.00032960653
-0.008410656 -0.0076657217 -0.0038654166 -0.0006099004 0.007659415 0.004501248 -0.00441458 -0.0031322201
0.0044075553 0.0073810886 0.00015717118 0.0031765678 -0.006677281 -0.0029525526 -0.002895718 -0.0009412457
-0.005935901 -0.0036096196 -0.007422556 0.006361295 0.009654676 0.004061015 -0.0017808434 0.007019049
-0.00745144 -0.006539377 -0.0053422726 0.0009992955 0.008976501 0.0018289628 0.0035881002 0.00382739
-0.0075035384 -0.009368822 -6.5260305e-05 -1.5450828e-06 0.010133812 0.0056544677 -0.0018113233 0.00018171799
-0.00433726 0.001824412 -0.009430821 -0.002094122 0.00086180575 5.7058555e-06 -0.001608952 -0.006950515
-0.00820498 -0.017095916 0.004254766 0.006770486 0.0109641515 0.011119969 -0.01151396 0.0022750616
0.0011078917 0.006826015 -0.0017877092 -0.0009850563 -0.009641949 -0.0033733286 -0.0073081953 -0.008169561
-0.009317934 -0.006724702 -0.008622367 -0.0006033766 0.0029672724 -0.00079765305 -0.007496698 -0.007633591
-0.00826099 -0.009138725 -0.0013594474 -4.3256292e-05 0.009760223 0.00564566 -0.0033722483 -0.0012854722
-0.0074755386 -0.00924125 -0.00020188763 -0.00035602096 0.009696179 0.0055010784 -0.0020286615 -0.0004272943
-0.00244282 -0.0016658581 0.00041666077 0.006285412 0.0020436954 0.00528256 -0.010381015 -0.0055263885
0.0010054767 -0.0033717535 0.0023223897 -0.0032683583 0.003667452 -0.0004490534 0.0072115166 0.0008016757
-0.0073843505 -0.009325602 -0.00012621014 0.00010212826 0.010265597 0.005546937 -0.0012065553 0.0006660274
-0.0057699615 -0.0047520516 -0.000108614346 0.010407452 0.00842973 0.007474508 -0.010220655 -0.0023064048
-0.002320998 0.0016996217 -0.010549322 0.0068511367 0.002489498 0.0008415703 -0.0023437755 0.0024625005
0.007128416 0.009060614 0.000115987394 3.727151e-05 -0.010066766 -0.005235956 0.00033704715 -0.00096432766
0.0006630334 -0.0067014564 0.005638215 0.0020267344 0.008123407 0.0027777804 0.004338205 0.0109370565

base_model.model.backbone.encoder.layer.0.attention.attention.value.lora_A.weight f4 [8, 384]
00000000: 0271 a4bc bbcf 4d3c e819 503c c05e 9ebc
00000010: 0755 3abd 70b0 ecbc 3158 e73c d0cf d13c
00000020: 220f bdbc 0df7 96bc 1406 b2bc b1dc 893a
00000030: 5eb8 04bc 1b81 ee3b e213 21bd 7e08 953c
00000040: d4da ffbc 88c7 57bd fd59 693d a1c4 1dbd
00000050: d554 513d d60f 653a d2ae d5bb afbf 6dbd
00000060: 3af3 84bd 70de b9bc 5c8d 6d3c 34b4 e83c
00000070: 6c3d 4e3d f90e 523d 49a6 733c 7fbe 19bd
00000080: 1a0a e7bc 6c9d 31bd 8a9e a63c 4c89 c5bc
00000090: 0189 493a 0e5f f4bc 1849 05bc ef3d 8b3c
000000a0: eaca d33c 1bf0 9c3c 68fe 2abd 1729 1c3d
000000b0: 237d 00bd 421d e73a 3281 3a3d e57b e4bc
000000c0: ab17 663c b059 aebc 2b37 863b 9d04 aabc
000000d0: 8224 f43c 7464 f53a db66 49bd 7423 0b3d
000000e0: 5689 12bd f234 113d 2c1e c83b e36e dbbb
000000f0: ecd4 45bd 2ce2 cebc 6f53 803b 5aaa 97bc
00000100: 0803 cf3c 5df4 73bc adbb dc3b 2137 74bd
00000110: 753a 1b3d 6bcb 333b c8b8 27bc f298 153b
00000120: 87b8 35bd 2578 cbbc 9633 f03c da5b 9f3c
00000130: d9d9 cf3c 545a 113c d89e 9ebc b82e f93b
00000140: 7435 483c d0c0 d13b 2349 0fbc 3439 fc3c
00000150: f17c 373c a82c 5bbd 13c1 07bd bb9c 4ebd
00000160: bbc5 693c ec94 833c b5df f63a e47d d6bc
00000170: 96fd ab3c 4ba6 e43c a692 1a3c 5306 86bc
00000180: 752d 55bd 8d9e 54bc f26d 0d3c 04fd 463d
00000190: 1242 273d fb77 d93c 8846 66bd 558e 13bd
000001a0: a129 50bd 4788 c73c 59e1 1fbc be2d 05bd
000001b0: d073 a43c 72e7 b7bc 11d1 b0bc 3fb2 8d3c
000001c0: d6c4 84bc d515 243d ddaa 403a 8d02 043b
000001d0: 4a16 80bc bfd5 07bd 5c51 84bc 313d 133d
000001e0: e43c 743d 87c0 0c3d 3d61 5abc 6c59 39bd
000001f0: 04ed a33c 4e7e 83b7 009f b0bc 3bfe 2fbd
00000200: 60f0 2a3d fd80 0abd abdc 3dbd 76a2 00bd
00000210: 40bf f5bc 63e4 173d 5163 07bd 4870 00bd
00000220: 093e 0ebc 6c5d 0fbd 0c88 0abc 2934 0e3d
00000230: 7a5f 76bc af2c 37bd 9145 c4b8 3690 d83b
00000240: 4e14 093d acfb 29bd fb6b c9bb 6a8a 2bbd
00000250: 6898 61ba 95e4 093a 31ea 293b e287 acbc
00000260: fbea 8abc aafe 503d ca02 c43c e205 76bc
00000270: 805d f33c a134 893a aaa4 d63c e402 043d
00000280: e8a1 01bd bab4 0e3d 1940 07bd 7080 2ebd
00000290: 5a83 5e3a 821e 163d 8625 fabc 52f0 223d
000002a0: ef17 cfbb 2df0 22bc caa5 8ebb b5e8 b1bc
000002b0: d682 adbc 772e 4abd 426f 4dbd 0cdc 063c
000002c0: 608f 2b3c 4826 1fbd 4cd6 cd3b a8df 0e3d
000002d0: 2fff ae3c b9f5 21bd 10e1 fbb8 0e6e 22bd
000002e0: 62bf 29bd ca07 5cbd 08b9 00bd 1830 383d
000002f0: ef60 f93c c9d4 35bd 44a3 cabc 5d7f e4bc
00000300: 5345 77bb 5052 df3c 2c14 eebc 1956 45bd
00000310: b837 c7bc 1111 18bd 7b35 963c a650 693c
00000320: 854a ee3c bb08 c0bc b94c 25bd 8003 0cbd
00000330: ca36 39bd 9eba 39bd a40f 2abd 803a 513c
00000340: 3c7c 0c3d 095c 9f3c 5da5 15bc fa8d 5dbd
00000350: 6938 0bbd 453f e63c 95d5 93bd cd80 c3bc
00000360: 9b39 303c ec73 0bbd 77ba e03c 810b 043d
00000370: a67e 3abd 4e0b 03bd 0c8a 2c3d bc4f 54bd
00000380: 068c 33bd 6118 533c 9b8b 8f3c b8b7 b53b
00000390: 6115 2fbb 50f2 743b 9075 373c 825a 36bc
000003a0: b175 d2bc f6af 2f3d 4d25 4ebd fa81 5d3d
000003b0: 59db cdb9 6742 d73c 9059 c73b 041d 4abd
000003c0: f2d6 c43c cd33 e53c 1a7c 133c 1e76 1abd
000003d0: 21c4 603c de06 533d b790 04bd a896 26bc
000003e0: 09ea a23c 82ce 2cbd a16d febc 3f6e 9ebc
000003f0: 983d 1f3c c74a a6bc fce5 173c 7cf6 433d
-0.020073418 0.012561734 0.012701489 -0.01933229 -0.045491245 -0.028892726 0.028240295 0.025611788
-0.023078505 -0.01842835 -0.021731414 0.0010518042 -0.008100597 0.007278574 -0.039325602 0.018192526
-0.031232275 -0.052680522 0.056970585 -0.038517598 0.051106293 0.00087380165 -0.0065210843 -0.05804413
-0.06491704 -0.022689074 0.014499035 0.02840624 0.050351545 0.05128381 0.014871188 -0.037535187
-0.028203059 -0.04336302 0.02033927 -0.02411332 0.00076879567 -0.029830482 -0.008135103 0.016997306
0.025853593 0.01915746 -0.041746527 0.038125124 -0.03136934 0.0017632621 0.045533367 -0.027891109
0.014043729 -0.021283 0.004095932 -0.020754153 0.029802565 0.0018721954 -0.049170356 0.033969358
-0.035775505 0.035450883 0.0061071124 -0.0066965683 -0.04829876 -0.025254332 0.003916196 -0.018513847
0.02527 -0.014889804 0.00673624 -0.059622888 0.037897546 0.002743448 -0.010236926 0.0022826758
-0.044365432 -0.024837563 0.029321473 0.019452978 0.025372433 0.008871634 -0.019362852 0.0076044463
0.0122197755 0.006401159 -0.0087454645 0.030788995 0.011199222 -0.053509384 -0.033143114 -0.05044244
0.014268334 0.016062222 0.001883498 -0.026183076 0.020994943 0.027911326 0.009434378 -0.016360437
-0.052045304 -0.012977255 0.00863217 0.04858114 0.040834494 0.026546469 -0.056219608 -0.03602441
-0.05082095 0.024356974 -0.009758317 -0.032514326 0.020074755 -0.022449229 -0.021584066 0.017296908
-0.01620714 0.040059883 0.00073496794 0.0020143122 -0.015635628 -0.03316283 -0.016152076 0.03594703
0.059628382 0.034363296 -0.0133288475 -0.045251295 0.020010479 -1.5675232e-05 -0.021560192 -0.042967062
0.041733146 -0.03381442 -0.046353023 -0.031404935 -0.029998422 0.03708304 -0.0330537 -0.03135708
-0.0086817825 -0.035001203 -0.008455288 0.034717713 -0.015037412 -0.044720348 -9.358966e-05 0.006608988
0.03346663 -0.04149978 -0.0061469055 -0.04188005 -0.0008605779 0.00052601966 0.0025926942 -0.021060888
-0.01695775 0.051024117 0.023927111 -0.015016051 0.02970767 0.0010467955 0.026201565 0.03222932
-0.031648546 0.034840323 -0.033020113 -0.042602956 0.0008488201 0.03665019 -0.03053547 0.03977997
-0.006319992 -0.009944958 -0.0043532597 -0.021717409 -0.021180551 -0.04936072 -0.05015493 0.008231174
0.010471195 -0.038854867 0.0062816497 0.034881264 0.021361915 -0.03954098 -0.00012010534 -0.039655738
-0.041442282 -0.053718366 -0.03142646 0.04496774 0.03044173 -0.04439238 -0.024736054 -0.027892763
-0.003773053 0.02726093 -0.029062353 -0.048177812 -0.024318561 -0.03712565 0.018336048 0.0142404195
0.029088268 -0.023441663 -0.04035637 -0.034183025 -0.045218267 -0.045343988 -0.041518822 0.012770295
0.034298167 0.019453065 -0.009133664 -0.054090478 -0.033989344 0.028106341 -0.07218472 -0.023865128
0.010755922 -0.0340461 0.027432663 0.032237533 -0.045530938 -0.031993203 0.04212384 -0.051833853
-0.04383471 0.01288423 0.017522624 0.0055455826 -0.0026715624 0.0037375875 0.011197463 -0.011129977
-0.025690885 0.04289242 -0.05032854 0.054079033 -0.00039264074 0.02627678 0.0060836747 -0.049344078
0.024028275 0.027978802 0.009001756 -0.0377103 0.013718636 0.05152022 -0.032364573 -0.010167755
0.019886987 -0.04218913 -0.031058135 -0.019339679 0.009719275 -0.020299328 0.009271141 0.047842488

base_model.model.backbone.encoder.layer.0.attention.attention.value.lora_B.weight f4 [384, 8]
00000000: 3602 d9ba e3f5 61ba fc9c b9ba 6563 113b
00000010: fffe 74bb 314b f93a 9225 ee3a 6afe ac3a
00000020: f10f 313c 7d26 293c be23 3c3c 1ac2 26bc
00000030: 64c8 323c bda0 30bc 00a5 39bc 4c7d 2dbc
00000040: 551f 863b 1efa 583b 1ce9 703b ca26 52bb
00000050: 1511 8d3b 25ed 37bb 62ce 83bb 5454 a0bb
00000060: 667a 16bb d30c 6a3b f274 ab39 b540 afb9
00000070: 0a19 4cbb 60e9 96ba ab0f cbba e597 233b
00000080: 33a9 05bb cd1a 75bb 546a 64bb 0a68 373b
00000090: ea2c e9ba 3e9a 593b d4b3 883b f945 003b
000000a0: 0b47 f9bb eac2 91bb 33a1 cbbb 0f0e ec3b
000000b0: 0c33 e0bb af5a c63b cc8d c23b 0bdb ca3b
000000c0: 3c03 38ba e426 de3a 338c fbb9 fabf 9d3a
000000d0: a278 d637 0cc8 efb8 b5f5 193a d63e 75b8
000000e0: 1405 2d3c 12c7 5d3b 8efa 203c 1e61 0abc
000000f0: 3112 d13b e6f0 ecbb 36a6 00bc b9f0 1fbc
00000100: f860 a03a 6636 cd3a ee34 893a d3ff 60b9
00000110: eaa0 bbb9 e722 c1b9 43a7 e1b9 9387 99ba
00000120: 64a1 95bb 4c95 bbba 8f7c 4bbb 6fab 603b
00000130: d3ba 29bb 77d7 7f3b 1c02 503b a557 113b
00000140: b99f 4eba bb50 133b 1eaa eab9 a27f e63a
00000150: 126f b63a 953d 433a 076c 0b3a 5842 70ba
00000160: d55c e93b 5079 323c 50d8 183c 1cbe e7bb
00000170: b77b e33b db5c fbbb 50f8 fcbb f25e 0abc
00000180: 6d44 17b8 07a2 083b 3aa9 473b db53 fbb9
00000190: 492c eaba f8f3 96ba 5d8c 11bb 467a 5fba
000001a0: ba31 34bc 245e 62bb d9c3 02bc 30e9 1f3c
000001b0: ac5e 46bc 9022 ff3b 6099 ea3b d781 203c
000001c0: 44d8 c93a 1db8 87ba 61f7 023a b3cf 5fba
000001d0: 8a88 df39 ce49 b6ba 421c 43ba 611b a7b8
000001e0: 14de e4bb 2581 81bb 16ba a7bb 7480 a33b
000001f0: e65e e4bb bf67 993b 1703 923b 1786 e53b
00000200: 51cf b43a 1a7f 413b 5dfe 2e3b 7547 ecba
00000210: 3ef4 c4ba 1add 17bb 3066 2fbb a57e ceba
00000220: fbe4 5abb da34 5abb cc49 40bb 969a 663b
00000230: 37e1 87bb 138a 463b 98e4 683b ce57 643b
00000240: d21f 063c 7d8b 973b 78ef eb3b fc4a ddbb
00000250: c484 993b 453a febb af95 f2bb 0b04 d5bb
00000260: e818 05bb 0b62 77bb 1ddf 5ebb a33c 253b
00000270: 27a4 3bbb 5317 403b d0ec 493b 6896 273b
00000280: 4c1a e8ba 9091 1ebb 286f 4abb 57e6 283b
00000290: 7084 0639 c21b 403b 14dd 3e3b 4da4 013b
000002a0: 2de6 8dbb 7cd7 00bb 60c4 81bb fe46 993b
000002b0: da75 6bbb fd28 873b da67 7d3b e159 353b
000002c0: bf91 b0bb 4ffd 27bb 1e13 4fbb f770 ad3b
000002d0: d8e5 d5bb 7f37 853b 4292 533b 8272 713b
000002e0: a836 4b3a cf25 d0b9 dee4 553a 73d6 66ba
000002f0: 189e ba3a 1ecf 41b9 e4c9 2039 8535 a4ba
00000300: 80b4 3fb9 9f9f 72bb b9ff 4eba e7dc d13a
00000310: cb6d 27ba 3f0f a03a 5a75 d33a b07e b637
00000320: 999f 49bc 2cb8 fcbb 08c5 24bc 2a94 543c
00000330: a2da 51bc 1678 3f3c 8655 243c 22ad 293c
00000340: 2358 68bb afcf 2aba 36d5 08bb 73f8 6d3b
00000350: a57e a5ba a070 3a3b 2945 5b3b a2e2 073b
00000360: 7d11 07bb 792f 48bb 0d18 99bb 8ba4 653b
00000370: 02b7 f539 3137 7f3b 994e 873b 6388 0b3b
00000380: eb4c 8bbb 1ac9 48ba a321 c0ba 68df 803b
00000390: fde9 14bb e605 423b 8bf1 013b 3e70 133b
000003a0: fb87 733b 1048 04bb c6c2 b93a 7b34 5bbb
000003b0: aa12 8c3a c07b 1cbb 6674 a7ba 4def 8aba
000003c0: e317 683c 2bd7 3d3c 24bd 513c 251a 52bc
000003d0: df51 823c 7edd 53bc 9131 52bc 12a7 66bc
000003e0: 28d4 ffba 52ae 4eba 30f7 8bba 500d c63a
000003f0: e897 41bb da0b 3339 f5ae 81b9 b6b4 ef3a
-0.0016556445 -0.0008619709 -0.0014161165 0.0022184488 -0.0037383435 0.0019019601 0.0018169156 0.001319838
0.010807023 0.010324118 0.011483131 -0.010178113 0.010912035 -0.0107805105 -0.011330843 -0.010588955
0.0040930905 0.0033108066 0.0036760038 -0.0032066577 0.004305015 -0.0028064933 -0.0040224055 -0.004892865
-0.0022961139 0.003571321 0.00032702793 -0.00033426812 -0.0031142854 -0.0011513643 -0.001549234 0.0024962362
-0.002039504 -0.0037400008 -0.0034853416 0.0027985596 -0.0017789875 0.0033203508 0.004171828 0.0019572957
-0.007607346 -0.0044482844 -0.006214285 0.0072038244 -0.0068420228 0.006053291 0.0059373137 0.0061906627
-0.0007019525 0.0016948846 -0.00047978907 0.0012035363 2.5566962e-05 -0.0001143367 0.00058731 -5.8471072e-05
0.010560293 0.003384058 0.009825362 -0.008446006 0.0063803424 -0.007230866 -0.007852128 -0.009761983
0.001223593 0.0015656471 0.0010468045 -0.00021457607 -0.0003578731 -0.00036837833 -0.00043039964 -0.0011713378
-0.0045663584 -0.0014311462 -0.0031049585 0.003428187 -0.002589871 0.003903834 0.0031739539 0.0022177484
-0.0007882077 0.002247854 -0.00044758705 0.0017585645 0.00139186 0.0007447836 0.00053185265 -0.00091651594
0.007121662 0.010893181 0.009328917 -0.0070722234 0.006942238 -0.0076709813 -0.007720031 -0.008445488
-3.6064932e-05 0.002084853 0.0030465857 -0.00047936928 -0.0017865981 -0.00115168 -0.0022208907 -0.0008524995
-0.010998184 -0.0034540975 -0.007981264 0.009760186 -0.0121075325 0.0077861026 0.007159397 0.009796581
0.0015399535 -0.0010354553 0.0004995969 -0.00085377245 0.00042635604 -0.0013907494 -0.00074428704 -7.96828e-05
-0.0069844816 -0.003952163 -0.0051186187 0.004989678 -0.0069693206 0.004681557 0.0044559347 0.00700451
0.0013794695 0.0029525221 0.0026701905 -0.0018026667 -0.0015026403 -0.0023172558 -0.002676379 -0.0015754296
-0.0033400643 -0.0033295662 -0.0029340861 0.0035187355 -0.0041467207 0.00302947 0.0035536643 0.0034842375
0.0081862975 0.0046247826 0.0072001778 -0.0067533236 0.0046850163 -0.007758411 -0.0074030976 -0.006500726
-0.0020309035 -0.0037747647 -0.0034007498 0.0025213144 -0.0028631778 0.0029310777 0.0030811317 0.0025571827
-0.0017708032 -0.0024195649 -0.0030889008 0.002577206 0.00012828573 0.002931342 0.0029123472 0.0019781769
-0.0043304176 -0.0019659689 -0.0039601773 0.0046776524 -0.00359284 0.004124759 0.0038666637 0.002767198
-0.005388468 -0.0025633161 -0.0031597088 0.0052930075 -0.0065276437 0.0040654535 0.0032283221 0.0036841934
0.000775198 -0.0003970102 0.0008159409 -0.0008805759 0.001423779 -0.00018483071 0.00015333999 -0.0012528157
-0.00018282421 -0.003702141 -0.0007896382 0.0016011269 -0.0006386905 0.0012211575 0.0016132996 2.1755084e-05
-0.012306117 -0.0077123847 -0.010056742 0.012974778 -0.012808474 0.011686346 0.010030156 0.0103562195
-0.0035452924 -0.00065159326 -0.0020879037 0.0036311417 -0.0012626244 0.0028448477 0.003345797 0.002073445
-0.002060979 -0.0030545874 -0.0046720565 0.0035040702 0.00046866393 0.0038942809 0.0041292426 0.002129101
-0.0042511127 -0.0007659361 -0.0014658462 0.003932882 -0.0022722476 0.0029605567 0.0019827809 0.0022497321
0.0037159908 -0.0020184554 0.0014172427 -0.003344803 0.0010686715 -0.0023877472 -0.0012775778 -0.0010599882
0.014165851 0.011586945 0.012801442 -0.012823616 0.01590818 -0.012931226 -0.0128292 -0.014077919
-0.0019518184 -0.0007884252 -0.0010678526 0.0015110169 -0.0029540006 0.00017075185 -0.0002473515 0.0018288109

base_model.model.backbone.encoder.layer.1.attention.attention.key.lora_A.weight f4 [8, 384]
00000000: 03b3 403c 8c6c e93c 9139 96bc 8884 37bc
00000010: 5e08 513d 5516 f33c 4b9e 93bc bb82 b0bc
00000020: dcfe 0ebc 5dcf 463d da37 42bd d008 9f3c
00000030: 9000 a5bc 378a 80bc fe95 24bc 240e 1dbd
00000040: 91f4 9a3c 75ec bfba 0cdd 84bb d242 74bc
00000050: 54be 0cbc 90ab 9dbc 8a58 41bd c5bd 013c
00000060: ec98 06bc 2390 4b3d 97e3 1f3b 7c07 943c
00000070: 12ea 69bd 3d08 5e3c 9f9c 0fbd ca8f 42bd
00000080: 9ffe 093c c3b8 15bd 6f66 1fbd ac7b 00bc
00000090: 2286 a7bc 3390 0bbc b809 353d d80b a7bc
000000a0: f68d d9bb 96af a2bb 67e7 033d dcd7 a7bc
000000b0: 193b 733d 75cf 70bd 8371 20bd 70c7 d5bc
000000c0: 4aed 25bc 5088 1dbd 850e 39ba 13a3 383d
000000d0: 14b1 533d 27d2 cebb 686f 0bbd 633b 823c
000000e0: 7b2a 1c3d b504 27bd 03ea c03c d147 c83c
000000f0: 67ce 0b3d 5429 2a3d 7a31 923b e118 babb
00000100: 8a62 c9bc fad4 8abc cac9 25bd dec5 41bd
00000110: 8d27 043d b99c 0abd 171c 693d c223 e93b
00000120: ca74 80bd 8156 31bd 8287 0f3d 29fc 113d
00000130: 1ff0 0e3c a3cd 66bd 622b f43c 3dcb dcbc
00000140: 2a5e 143d f9ed 9dbc 7bfb 3b3c 6e39 073d
00000150: 0512 ccbb 478f fe3c fca1 77bc 38c7 12bd
00000160: 6c86 2cbd 13e5 09bd 96bc edbc 1db4 a43c
00000170: 8b5f 5fbd ef4f 393d 059b f63b f7d7 493d
00000180: 9960 e53c c27e e23b e67f 923c a9a0 053d
00000190: 1716 023d 20e2 f13c 44a8 0dbd 5c3b 2cbd
000001a0: 9cab 183c ce3b 01bd d7fb 2cbd 21b1 a53c
000001b0: dae5 463d bff6 cbbc d05f a23c 9c41 4abd
000001c0: cf52 d63a 79b4 1fbd 34fd 473d 7425 02bd
000001d0: 0a1c ec3c c8a7 b23c 7440 e93c ea31 3c3d
000001e0: 8026 653c 213c c8b8 4c36 6fbd 6bd5 153d
000001f0: d199 b6bc d70b 94bc 8c10 37bd 5550 0c3d
00000200: 31cb f6bc 7344 453b ab3b cd3c ecaf f6bc
00000210: 7e89 c8bc 66a6 a2bc 633f 2f3d 8e2d d2bc
00000220: 2059 1fbd 8f66 3dbc bfa7 423d 2059 0ebd
00000230: 77d1 68bc 52db 4b3d e1db 313c 6078 0d3d
00000240: 22a8 edbc 500f 80bb 5c62 ba3c b7d0 203d
00000250: 52bb 3a3c c65b 223c ddf0 19bd fdab 77bd
00000260: f108 9bbc 8bac 0bbd 0fd7 5b3b c707 5d3c
00000270: 874b de3c cf10 dd3b e7db 803d 3485 b0bc
00000280: d041 e7bc 8bfc 80bd 7523 6dbd 0c15 1d3d
00000290: dca9 f3bc f90a 3c3d eb1b 0abc 41b2 6f3d
000002a0: 7321 be3c 9de7 23bc fc96 d33c 5e45 193d
000002b0: db11 f53b 58b0 55bb e230 a73b 788a 7fbc
000002c0: 01bd 5f3d ef2f 0a3a 3014 a9bb aa46 21bc
000002d0: fc7f ab3c 571f 33bb 0f2d 48bd 2fc1 13bb
000002e0: e64d dd3c 78a9 6d3c df24 30bd 0d15 84b9
000002f0: 8bee 0ebc 112d 5c3d 062c 263d dddc 90ba
00000300: 5604 be3c fa1c 0f3c 36dc 483b 0e0d 103d
00000310: 1890 4bbd 0589 373c 2a7d 163d 349e 1cbd
00000320: 8654 333d dbd1 b8bc 8151 4dbd 0db8 5cbc
00000330: 0e93 02bc 8baa 263d 839b ecbb 10ac 5dbd
00000340: 0f06 4dbd c314 8dbc dfdd e73c ff85 f6bc
00000350: 58aa 093d 93bd 28bc a1f5 d13b b70b 163d
00000360: 51a0 be3c 9e64 6a3d 2fb2 e33c fa79 9d3b
00000370: 54d6 bb3a fe37 3ebc 1de7 b5bc f4d0 27bd
00000380: 0d3d edbc 10d6 a4bb 877e e1bc 914a b33c
00000390: 976b 323d be8d 00bb dd70 14bd 8aae 86ba
000003a0: 4586 58bc facb 07bb 774d 963c 4139 673c
000003b0: 03f9 e7bb 2df8 54bd 2474 253d 6ed6 01bd
000003c0: f04b 043d dbd6 043d cd47 1a3d 5b11 55bd
000003d0: 6e84 e6bb 2b38 dbbc e443 213c b549 2cbd
000003e0: d2ab f03c 21dc 29bd 4592 ab3c b944 52bd
000003f0: d435 363d 888e 30bd 31e2 d0b8 5f48 593d
0.01176143 0.028494142 -0.018337997 -0.0112010315 0.05103337 0.029673735 -0.018019816 -0.021546712
-0.008727755 0.0485376 -0.047416545 0.019413382 -0.02014187 -0.015690906 -0.010045527 -0.038343564
0.018915446 -0.0014642613 -0.004054671 -0.014908509 -0.0085903 -0.019246846 -0.047203578 0.00791878
-0.00821517 0.049698006 0.0024397129 0.018069975 -0.057107992 0.013551769 -0.035061475 -0.04750041
0.008422523 -0.036553156 -0.038916048 -0.007841986 -0.020449702 -0.0085182665 0.04419872 -0.02039139
-0.0066392375 -0.004964779 0.032203104 -0.020488672 0.05938253 -0.058791596 -0.039170753 -0.026096076
-0.010127375 -0.038460076 -0.00070593535 0.045077395 0.051682547 -0.006311673 -0.034041792 0.015897458
0.03812645 -0.040775973 0.023549085 0.024448307 0.034132387 0.04154332 0.0044614645 -0.0056792353
-0.02458312 -0.016947258 -0.040475644 -0.04730784 0.03226428 -0.03384087 0.056911554 0.0071148584
-0.06272276 -0.043295387 0.03504134 0.03564087 0.0087242415 -0.056348454 0.029805843 -0.02695238
0.036222614 -0.019278513 0.011473532 0.033013754 -0.006227734 0.03107418 -0.015114304 -0.03583452
-0.042120382 -0.033665728 -0.029020589 0.020105416 -0.054534476 0.045242246 0.007525804 0.049278226
0.028000163 0.0069120834 0.017883252 0.03262392 0.031759348 0.02952677 -0.0345843 -0.042048797
0.009318259 -0.031551175 -0.04223236 0.020226063 0.048559047 -0.024897931 0.019821078 -0.049378976
0.0016351583 -0.03899047 0.048825458 -0.031774 0.028821964 0.02180852 0.028473116 0.04594604
0.01398623 -9.547943e-05 -0.05840139 0.036580484 -0.022290142 -0.018072052 -0.044693515 0.034256298
-0.030126186 0.0030100613 0.025052866 -0.030113183 -0.024479624 -0.019854736 0.04278506 -0.025656488
-0.038903356 -0.011560096 0.047523256 -0.034752965 -0.014210097 0.049769707 0.010855646 0.034538627
-0.029010836 -0.0039080754 0.02275198 0.039261546 0.0113972 0.009909576 -0.03758322 -0.060466755
-0.018925162 -0.034100097 0.0033544933 0.013490624 0.027135624 0.0067463885 0.06291943 -0.021547891
-0.028229624 -0.06298169 -0.057895143 0.03835015 -0.029744081 0.0459089 -0.008429508 0.058519606
0.02320931 -0.010003951 0.02582883 0.03741967 0.007478935 -0.003260633 0.005102263 -0.015596978
0.054623608 0.0005271425 -0.0051598772 -0.009843508 0.020935051 -0.0027331912 -0.048871096 -0.0022545566
0.027014684 0.0145057365 -0.043003913 -0.00025192686 -0.008723865 0.053753916 0.040569328 -0.001105215
0.023195427 0.008734936 0.0030648834 0.0351687 -0.049697965 0.011202102 0.03674046 -0.03823681
0.04378178 -0.022561004 -0.050126556 -0.0134716155 -0.007969631 0.040689986 -0.007220687 -0.05411917
-0.050054606 -0.017221814 0.028304039 -0.030093191 0.033609718 -0.010299104 0.006407455 0.036632266
0.023269804 0.057224862 0.027794925 0.0048058005 0.0014330843 -0.011610029 -0.02220493 -0.040970758
-0.028959775 -0.005030401 -0.027526153 0.021886142 0.043559637 -0.0019615735 -0.036240447 -0.0010275405
-0.013215606 -0.0020720945 0.018347485 0.0141127715 -0.007079245 -0.05199449 0.040393963 -0.031698637
0.032298982 0.032431465 0.03766613 -0.052018505 -0.00703483 -0.026760181 0.009842847 -0.04206248
0.029378805 -0.041469697 0.02094377 -0.05133507 0.04448493 -0.04310468 -9.960344e-05 0.053047534
