outputs/depth_lora/checkpoints/epoch_80/adapter_model.safetensors (safetensors, 895304 bytes, 72 tensors)

base_model.model.backbone.encoder.layer.0.attention.attention.key.lora_A.weight f4 [8, 384]
0.041652985 -0.02218365 0.029421583 -0.017336242 -0.020560697 0.025191471 -0.0033292188 0.026054692
0.054145873 0.05366737 -0.05205565 -0.053056065 -0.023253364 0.0285464 0.014425304 -0.0030916166
-0.0075726835 0.019276073 -0.027233772 0.042168554 -0.032416392 0.018619306 0.04664193 -0.041666925
-0.018178605 0.041897003 0.050081756 0.0070830793 -0.0012518225 0.034187004 -0.04724913 -0.005879494
0.04175982 0.043257702 0.014769137 0.037559796 -0.044814378 0.027406994 0.004910887 -0.0017119282
0.002866113 0.004110799 0.012224717 -0.037360143 -0.010137131 0.0010554597 -0.02170742 0.04847354
0.036662415 0.028772462 0.0072838757 -0.0047498913 -0.027434332 0.019586565 -0.014117647 0.05475572
-0.002940879 0.046462826 0.015042302 0.040998828 -0.03700802 -0.0366394 0.02599552 0.0145469215
0.03479992 0.017201567 0.018396808 -0.013003536 0.004752317 -0.034863148 0.008408314 -0.029886581
0.009725623 -0.010716799 -0.012859011 -0.00047185388 -0.03040259 0.019535776 0.02049647 -0.04743866
-0.017852545 -0.04254234 -0.019250976 -0.0007892743 0.046091877 0.026647404 0.025386332 0.041749876
-0.021741362 0.004357742 -0.049926516 -0.0058484734 0.020968337 -0.015449709 0.017863251 -0.02946216
-0.040732548 -0.009143174 0.030049141 0.042587623 0.039414577 -0.008819777 -0.010620212 0.04491756
0.0009410915 0.021320064 0.048051707 -0.008130504 0.032565285 -0.027396942 -0.017421164 0.0332968
0.054254375 -0.0038869614 -0.017905718 0.046230134 -0.02321884 -0.008271459 -0.02881493 0.020019982
-0.02026822 -0.011154164 0.037639465 -0.004256741 0.024637416 -0.028225392 0.045196798 0.02915657
0.010542133 -0.029082244 -0.04961413 0.036711466 0.026812762 -0.021715442 -0.01372442 -0.007482297
-0.026602019 -0.019647967 -0.028156864 0.004796409 0.034393653 -0.016884051 0.0023634753 -0.0044689323
0.030720305 -0.043114606 -0.050131615 -0.017863654 -0.005419348 -0.055103954 -0.004306946 -0.034856457
0.018606659 -0.01981647 -0.03362808 0.0054488224 -0.011736645 0.04879194 -0.015649492 0.043222364
0.015530069 -0.007609515 -0.0042568278 0.039247263 0.019276902 0.029531874 -0.043947168 0.017626733
0.030285109 -0.04729446 -0.010006828 -0.027564175 -0.023651393 0.03917075 0.004233165 0.040886074
0.04718753 -0.035007674 -0.0340689 0.04002605 0.043197364 0.014092135 0.017006015 0.024520183
0.011713309 0.047224887 0.039084014 -0.044751715 0.0030484088 0.029712884 -0.021349154 -0.0024677708
0.027780196 0.046793193 0.03635957 -0.026456691 -0.039280284 -0.05152404 -0.038732715 0.0045870068
-0.02242209 0.036765564 0.029862538 0.009024857 -0.043705054 -0.025220344 -0.021688787 -0.00811284
0.015366657 -0.0096701365 -0.008711921 -0.033994876 -0.052839402 -0.02164589 -0.023059461 -0.02859455
-0.050034575 -0.033606403 -0.033877354 -0.04832779 0.051696926 0.006040627 0.023802886 0.052711725
-0.019482877 0.023256438 0.0334782 0.019245744 -0.045089874 0.02042217 0.035562314 -0.03524963
0.03457681 0.028238237 0.030169563 0.021408696 0.04080193 -0.032305162 0.04343948 -0.020215658
-0.036656626 -0.00515246 -0.043836325 -0.017267002 -0.0009272557 -0.030529099 0.04036215 -0.017475324
0.0035292415 -0.042951696 0.0025861387 0.024651986 0.028211199 -0.03881728 -0.044893906 -0.030080473
00000000: 529c 2a3d 7cba b5bc 8805 f13c bc04 8ebc
00000010: e86e a8bc 585e ce3c 062f 5abb a670 d53c
00000020: 10c8 5d3d 51d2 5b3d 4e38 55bd 5151 59bd
00000030: d77d bebc 24da e93c 1c58 6c3c b89c 4abb
00000040: 4624 f8bb dbe8 9d3c 5c19 dfbc efb8 2c3d
00000050: 0dc7 04bd 8487 983c 9c0b 3f3d f0aa 2abd
00000060: 4ceb 94bc 319c 2b3d 8722 4d3d 2d19 e83b
00000070: 3114 a4ba ac07 0c3d 4e88 41bd c5a8 c0bb
00000080: 580c 2b3d fd2e 313d 40fa 713c 4dd8 193d
00000090: 488f 37bd a284 e03c 82eb a03b c762 e0ba
000000a0: 66d5 3b3b e2b3 863b 2e4a 483c f306 19bd
000000b0: 3616 26bc 5a57 8a3a c2d3 b1bc 318c 463d
000000c0: 542b 163d 3ab4 eb3c 94ad ee3b faa4 9bbb
000000d0: f7bd e0bc 0174 a03c b44d 67bc 8947 603d
000000e0: c3bb 40bb ce4f 3e3d fd73 763c 63ee 273d
000000f0: b995 17bd 3213 16bd 8ff4 d43c 3656 6e3c
00000100: 5c8a 0e3d 4dea 8c3c e7b4 963c c80c 55bc
00000110: 53b9 9b3b a9cc 0ebd 06c3 093c b4d4 f4bc
00000120: 3858 1f3c 8395 2fbc 9aae 52bc 2863 f7b9
00000130: da0e f9bc 7e09 a03c 37e8 a73c 0a4f 42bd
00000140: 803f 92bc e040 2ebd 39b4 9dbc 4de7 4eba
00000150: d6ca 3c3d a84b da3c fff6 cf3c eb01 2b3d
00000160: f11a b2bc 64cb 8e3b bf7f 4cbd 8da4 bfbb
00000170: cac5 ab3c c720 7dbc f455 923c a15a f1bc
00000180: 2cd7 26bd 40cd 15bc 9e29 f63c 5c70 2e3d
00000190: 2e71 213d d380 10bc 6600 2ebc 7afb 373d
000001a0: 95b3 763a 6aa7 ae3c ded1 443d ce35 05bc
000001b0: 2d63 053d 8d6f e0bc d4b6 8ebc 3a62 083d
000001c0: d639 5e3d 64bc 7ebb 03af 92bc cf5b 3d3d
000001d0: 7035 bebc 0385 07bc 4a0d ecbc f200 a43c
000001e0: 8a09 a6bc f4bf 36bc d72b 1a3d 227c 8bbb
000001f0: 68d4 c93c f038 e7bc 4720 393d c2d9 ee3c
00000200: e9b8 2c3c e33d eebc 3038 4bbd c35e 163d
00000210: 70a6 db3c 95e4 b1bc 64dc 60bc 0e2e f5bb
00000220: 7aec d9bc c6f4 a0bc 39a9 e6bc 322b 9d3b
00000230: 5ce0 0c3d 6c50 8abc 89e4 1a3b 1f70 92bb
00000240: 26a9 fb3c f198 30bd cf56 4dbd cc56 92bc
00000250: c994 b1bb afb4 61bd 4821 8dbb a5c5 0ebd
00000260: fe6c 983c 2656 a2bc 99bd 09bd 098c b23b
00000270: 0f4b 40bc 0fda 473d 5d33 80bc ef09 313d
00000280: d571 7e3c 3d59 f9bb dc7c 8bbb bdc1 203d
00000290: 98ea 9d3c d4ec f13c f201 34bd f065 903c
000002a0: 7a18 f83c d6b7 41bd aef3 23bc 44ce e1bc
000002b0: 91c0 c1bc 8271 203d 5db6 8a3b 2878 273d
000002c0: b647 413d 3564 0fbd d58b 0bbd 5bf2 233d
000002d0: b8ef 303d b3e2 663c 3350 8b3c 8dde c83c
000002e0: 2ee9 3f3c e26e 413d 8f16 203d 934d 37bd
000002f0: d0c7 473b 6f68 f33c 6ce4 aebc 53ba 21bb
00000300: 4b93 e33c 38aa 3f3d c6ed 143d b4bb d8bc
00000310: 5de4 20bd df0a 53bd 32a6 1ebd 9a4e 963b
00000320: 88ae b7bc 7d97 163d 48a2 f43c fedc 133c
00000330: 1204 33bd e59a cebc afac b1bc b8eb 04bc
00000340: 6ec4 7b3c 7e6f 1ebc 72bc 0ebc 363e 0bbd
00000350: 216e 58bd b952 b1bc 32e7 bcbc 1e3f eabc
00000360: 0ef1 4cbd dea6 09bd fbc2 0abd 5cf3 45bd
00000370: 28c0 533d 74f0 c53b 45fe c23c 40e8 573d
00000380: 8e9a 9fbc 4984 be3c 7020 093d 40a9 9d3c
00000390: 29b0 38bd 654c a73c caa9 113d eb61 10bd
000003a0: 6aa0 0d3d e053 e73c 2926 f73c 4a61 af3c
000003b0: ed1f 273d 6b52 04bd 99ed 313d 4f9b a5bc
000003c0: 4225 16bd f8d5 a8bb b88d 33bd 8773 8dbc
000003d0: 1413 73ba 2918 fabc c852 253d 6928 8fbc
000003e0: d94a 673b 1eee 2fbd 357c 293b f6f2 c93c
000003f0: 2c1b e73c defe 1ebd ace2 37bd 536b f6bc

base_model.model.backbone.encoder.layer.0.attention.attention.key.lora_B.weight f4 [384, 8]
-0.0048543992 0.006296735 -0.008520578 -0.006006124 0.0076192007 -0.004982919 -0.0049409326 -0.0051490413
-0.0075896275 0.00930753 -0.008366855 -0.0072218324 0.009615141 -0.009754247 -0.009156895 -0.009429647
0.005199685 -0.0067038154 0.0085037155 0.006205727 -0.007858232 0.0054775965 0.005538413 0.0056558205
0.005429007 -0.0057347734 0.0025241547 0.0023947414 -0.004501121 0.0073288246 0.007205141 0.0058548735
0.0065273987 -0.005611274 0.0025307355 0.005199452 -0.00575661 0.006869703 0.0067882272 0.0072142053
-0.005610118 0.0069594895 -0.008582833 -0.0065335957 0.00818594 -0.005968141 -0.0060608387 -0.0062122336
-0.004931535 0.0049315635 -0.00039253797 -0.0026578326 0.0033072394 -0.0072083916 -0.0071767806 -0.0064452575
0.00056656275 -0.0015215962 -0.0023443748 0.00042700357 0.00031847734 0.00052493246 -3.804256e-05 0.00075923145
-0.006408959 0.006831547 -0.006213735 -0.0075666136 0.0076485667 -0.006738151 -0.006078734 -0.0067772525
-0.0008648025 0.001072453 0.0012260935 0.0010014763 -0.0004437967 -0.0030064103 -0.0030100173 -0.0021917908
0.0030070266 -0.0018634069 -0.0021741586 0.0022993388 -0.0013760015 0.001880965 0.0026687572 0.0026106841
-0.0031998479 0.0048451107 -0.009143322 -0.0055569056 0.00625181 -0.0031137208 -0.002517951 -0.0030599083
0.0030401824 -0.0046887286 0.007014093 0.0046061315 -0.0055844663 0.0033094452 0.0029747284 0.0033488986
0.003673359 -0.004615114 0.00725971 0.004988043 -0.0060316958 0.0037062187 0.003755318 0.003989087
-0.0048514 0.006455327 -0.007917259 -0.005831963 0.0075930497 -0.0053583095 -0.005250765 -0.0054154578
-0.0058669336 0.0066880165 -0.00791691 -0.006464338 0.007979492 -0.006277152 -0.0060796915 -0.006497974
0.0019847972 -0.0014092242 -0.0010327685 -0.00071089785 -0.0016448748 0.0030868868 0.0028822066 0.002503075
0.005596822 -0.008952998 0.008021884 0.0076552546 -0.009375093 0.008924595 0.0076486534 0.008577014
-0.0056490023 0.0069712093 -0.00856527 -0.0065635485 0.008219273 -0.0060152854 -0.0060768155 -0.006254437
0.004815514 -0.004697657 0.0055637755 0.004995987 -0.0042356434 0.0041608578 0.004662917 0.0046448363
0.0015755325 -0.002193372 0.00080432947 0.0021872192 -0.0032966586 0.0034396187 0.0034227043 0.0033945686
-0.0041202963 0.0054336484 -0.0073024505 -0.0049425843 0.0067193666 -0.004475767 -0.0040904735 -0.0043621273
-0.0016539664 0.0031263873 -0.007439873 -0.0024052588 0.0049381377 -0.0031416337 -0.0019269529 -0.0024817423
-0.0051305373 0.006651248 -0.008520499 -0.006211595 0.007869984 -0.0053674993 -0.005352546 -0.0055426094
-0.0056318818 0.006958948 -0.008507701 -0.00653003 0.008205126 -0.0059976787 -0.0060462537 -0.006225688
-0.0071382625 0.008141112 -0.009256696 -0.0078122555 0.009628692 -0.0077524823 -0.0070305 -0.007713545
0.0006688585 -0.0015617671 0.0061582094 0.0025864707 -0.0047011725 0.0014780326 0.00060534896 0.001841608
-0.0056736884 0.006991976 -0.008545755 -0.0065743644 0.008227036 -0.0060561453 -0.0061460165 -0.006307735
-0.003692723 0.0036485272 -0.007582264 -0.0038628876 0.0054935766 -0.0032978116 -0.002666858 -0.003316995
-0.0018153136 0.0017695269 -0.0020831153 -0.0026499259 0.002362562 -0.000815494 -0.0010700255 -0.001728653
0.005701292 -0.0069657452 0.008331096 0.0065476084 -0.008219806 0.00613843 0.006268291 0.0064205183
-9.294689e-06 -0.0008576108 0.0004213849 -0.00058446283 -0.0021273869 0.0022093616 0.0011912998 0.0011178751
00000000: a711 9fbb d754 ce3b e599 0bbc 05cf c4bb
00000010: 7daa f93b c147 a3bb 8ce7 a1bb 4ab9 a8bb
00000020: 69b2 f8bb 9c7e 183c 2215 09bc 1fa5 ecbb
00000030: d388 1d3c 47d0 1fbc cd06 16bc ce7e 1abc
00000040: 1f62 aa3b aeab dbbb 2b53 0b3c 6959 cb3b
00000050: d0bf 00bc 697d b33b 937b b53b 7654 b93b
00000060: d0e5 b13b c4ea bbbb 4a6c 253b 18f1 1c3b
00000070: 247e 93bb a326 f03b 1a19 ec3b 3dda bf3b
00000080: cae3 d53b c7de b7bb b2da 253b 2a60 aa3b
00000090: f2a1 bcbb 3f1b e13b c76f de3b 2465 ec3b
000000a0: 15d5 b7bb 6e0c e43b 039f 0cbc c617 d6bb
000000b0: 521e 063c 6590 c3bb 009a c6bb fe8f cbbb
000000c0: b798 a1bb f498 a13b 8ecd cdb9 082f 2ebb
000000d0: 45be 583b 5f34 ecbb 332b ebbb bd32 d3bb
000000e0: 6285 143a 4c70 c7ba 15a4 19bb 73df df39
000000f0: 4ef9 a639 9f9b 093a e38f 1fb8 2907 473a
00000100: 3f02 d2bb 2bdb df3b 969c cbbb 5bf1 f7bb
00000110: d4a0 fa3b b5cb dcbb 1e30 c7bb b713 debb
00000120: eab3 62ba 8d91 8c3a dfb4 a03a f843 833a
00000130: 63ad e8b9 3207 45bb b643 45bb 26a4 0fbb
00000140: 8911 453b 8f3d f4ba 547c 0ebb 81b0 163b
00000150: f35a b4ba b68a f63a 51e6 2e3b 0318 2b3b
00000160: 8ab4 51bb bcc3 9e3b dfcd 15bc b416 b6bb
00000170: fcdb cc3b 910f 4cbb 3504 25bb be88 48bb
00000180: cc3d 473b e8a3 99bb 7ad6 e53b 08ef 963b
00000190: e6fd b6bb 47e3 583b a9f3 423b 3279 5b3b
000001a0: bdbc 703b 623a 97bb dde2 ed3b bd72 a33b
000001b0: 88a5 c5bb 08e4 723b c81b 763b e3b6 823b
000001c0: 7ef8 9ebb 3587 d33b 64b7 01bc 0d1a bfbb
000001d0: 1ecf f83b c294 afbb 9c0e acbb 2774 b1bb
000001e0: 683f c0bb 2627 db3b edb5 01bc ccd2 d3bb
000001f0: 6abc 023c 91b0 cdbb 2638 c7bb f5ec d4bb
00000200: 5f13 023b b8b5 b8ba f65d 87ba 8c5b 3aba
00000210: d798 d7ba 5e4d 4a3b 67e3 3c3b a10a 243b
00000220: 8c65 b73b 98af 12bc 386e 033c eed8 fa3b
00000230: fd99 19bc 7738 123c 8ea1 fa3b 9b86 0c3c
00000240: 441b b9bb be6e e43b 5955 0cbc 0913 d7bb
00000250: 21aa 063c df1b c5bb 0620 c7bb 05f2 ccbb
00000260: 76cb 9d3b ceee 99bb 5550 b63b 60b5 a33b
00000270: 27cb 8abb ce57 883b 62cb 983b b633 983b
00000280: 1982 ce3a adbe 0fbb a3d9 523a 7357 0f3b
00000290: c10c 58bb 3a6b 613b 734f 603b 6977 5e3b
000002a0: 8d03 87bb bf0c b23b 6549 efbb 67f5 a1bb
000002b0: 222e dc3b 74a9 92bb 6109 86bb 2df0 8ebb
000002c0: e7c9 d8ba 13e4 4c3b 2eca f3bb 8ca1 1dbb
000002d0: 1ad0 a13b dee3 4dbb cf91 fcba baa4 22bb
000002e0: 111e a8bb b6f2 d93b 9099 0bbc a38a cbbb
000002f0: 1bf1 003c d9e1 afbb 6964 afbb c79e b5bb
00000300: a68b b8bb e307 e43b e263 0bbc ddf9 d5bb
00000310: cb6e 063c 2d88 c4bb a71f c6bb db00 ccbb
00000320: 16e8 e9bb 4c62 053c 66a9 17bc f3fd ffbb
00000330: a9c1 1d3c 8908 febb 1c60 e6bb e8c1 fcbb
00000340: 5656 2f3a 35b4 ccba ceca c93b c781 293b
00000350: 4b0c 9abb 8bba c13a 48b0 1e3a 1c62 f13a
00000360: 59ea b9bb f21c e53b 7f03 0cbc c46d d7bb
00000370: b1ca 063c a172 c6bb 8664 c9bb 1eb1 cebb
00000380: 9d01 72bb 211c 6f3b a474 f8bb 8028 7dbb
00000390: 7603 b43b 1920 58bb 74c6 2ebb f161 59bb
000003a0: d1ef edba 78ef e73a e084 08bb 61aa 2dbb
000003b0: 37d5 1a3b e0c6 55ba 1940 8cba f893 e2ba
000003c0: e7d1 ba3b e840 e4bb 267f 083c 528d d63b
000003d0: 5dac 06bc e224 c93b 3c66 cd3b 3663 d23b
000003e0: 63f0 1bb7 49d1 60ba 53ed dc39 a336 19ba
000003f0: a16b 0bbb f0ca 103b 6325 9c3a aa85 923a

base_model.model.backbone.encoder.layer.0.attention.attention.query.lora_A.weight f4 [8, 384]
0.0001969507 -0.03332023 0.009869759 -0.0023062888 0.0005107828 0.042478006 -0.050806094 -0.006402936
0.02670446 -0.023578413 -0.0335109 0.020243686 0.022927713 0.027254177 0.033547454 -0.021468207
0.022189016 -0.013481889 -0.017373314 0.03063249 0.04548584 -0.037270144 0.043793418 -0.044439405
-0.012880563 -0.0031481774 0.04125736 -0.005140657 -0.044478856 0.015500717 0.030697113 -0.01305323
-0.011345733 -0.03192894 -0.014487769 -0.030884445 0.042540308 -0.034786753 0.010311795 0.03363163
0.028520059 0.012176449 0.028268613 0.04275217 -0.040385228 0.0040875124 -0.03316068 0.042357605
-0.021967715 0.03746943 0.00022698531 -0.0014283486 -0.04099836 -0.008693881 -0.03714007 -0.041758794
0.047253765 0.014569218 -0.03366409 -0.022656642 -0.00027873728 0.042029303 0.011944208 -0.00051833893
-0.032098994 0.0005062675 -0.0192028 -0.017374953 -0.02122158 -0.043366745 0.04073754 0.0088920295
-0.0047164597 0.027529893 0.03288161 0.04135041 -0.0010785455 0.030395646 -0.0058987862 -0.023637353
-0.04600753 -0.016095571 -0.013697234 0.021000173 0.011044041 0.0050018905 -0.03974185 -0.007132704
0.037325304 -0.01914609 -0.024189148 0.02018015 0.045861714 -0.028197255 0.02072729 -0.050102763
0.026109615 0.01705674 -0.011440981 -0.035136845 0.011476777 0.044093322 0.019687463 -0.033556983
0.03309774 0.018483428 0.03054127 0.015760882 0.021228662 0.015035022 0.016337797 0.010685511
-0.019860754 0.025244415 -0.026252434 0.015644165 0.019157015 0.0011581958 -0.03034385 -0.020122312
0.038206864 0.001556043 0.047757074 -0.009832198 0.005430942 -0.04686946 0.05149101 -0.037921593
0.035547357 -0.023767788 0.008634101 0.010916726 -0.04707999 -0.05087833 0.042716436 -0.04676653
0.02321871 0.040932585 0.0412826 -0.007862891 0.024655739 -0.041160364 0.015094491 0.01307615
0.014187225 -0.03944525 -0.03890732 -0.026532097 0.04341575 -0.020777637 0.010938324 -0.0033059244
-0.0037818986 -0.056626815 -0.037679877 0.025484465 -0.010243053 0.026385613 -0.040594373 0.037415087
0.018931823 0.012146212 -0.02109923 0.0071185012 0.02123092 -0.027728742 -0.031959243 0.047144663
-0.02861218 -0.0005085002 -0.0035148752 -0.030720998 0.047087967 -0.05002681 -0.05556463 0.011721009
0.029174367 0.049328934 -0.00916371 0.013353296 0.010066766 0.032658488 0.019153483 0.018579757
-0.04006942 0.04985506 0.039045278 -0.04029337 -0.03599711 0.0061591286 -0.042009883 -0.0492597
0.046213586 0.051852662 -0.0082992455 -0.010380428 0.03770345 -0.028789671 0.04359461 -0.03528105
0.053212203 0.01421491 0.030950531 0.0034412812 -0.039768647 -0.03982802 0.047298502 -0.0038537711
0.028094878 0.033798076 -0.025387255 -0.01906105 0.03385464 0.04645398 0.00786525 0.038995482
0.03703066 0.008642004 -0.006408879 -0.0077740364 0.035932027 0.016337223 0.023889245 -0.05046146
-0.035562173 -0.010332982 -0.023333104 -0.023778921 -0.040163115 0.045025676 -0.005604449 -0.051213767
-0.037535585 0.0028063704 0.013985935 0.050871678 -0.010081305 -0.014024806 0.0476725 0.027344313
0.024251102 -0.04838552 0.01611877 0.037317846 0.035382397 0.0098495865 -0.01653866 -0.0057804515
-0.038881157 -0.017059827 -0.017061975 0.017891046 0.02395788 0.04840579 0.028086225 0.029826537
00000000: 8d84 4e39 cb7a 08bd c5b4 213c 1b25 17bb
00000010: 0ee6 053a 6bfd 2d3d 0d1a 50bd b8cf d1bb
00000020: 50c3 da3c 8427 c1bc ba42 09bd 16d6 a53c
00000030: e6d2 bb3c 2744 df3c 0e69 093d 18de afbc
00000040: bdc5 b53c 24e3 5cbc 7b52 8ebc fdf0 fa3c
00000050: 5c4f 3a3d 94a8 18bd ba60 333d 1806 36bd
00000060: ff08 53bc a751 4ebb 7afd 283d f572 a8bb
00000070: 762f 36bd b8f6 7d3c 8378 fb3c 37dd 55bc
00000080: 74e3 39bc ecc7 02bd 1c5e 6dbc 6001 fdbc
00000090: bf3e 2e3d 8e7c 0ebd cef2 283c 52c1 093d
000000a0: e6a2 e93c bb7f 473c 9493 e73c e61c 2f3d
000000b0: fb6a 25bd 8af0 853b 7ed3 07bd 2b7f 2d3d
000000c0: a3f5 b3bc 8c79 193d e802 6e39 6d37 bbba
000000d0: e5ed 27bd c870 0ebc 3020 18bd 450b 2bbd
000000e0: 2a8d 413d bbb3 6e3c 5be3 09bd 6c9a b9bc
000000f0: 7c23 92b9 eb26 2c3d a4b1 433c 23e1 07ba
00000100: 3c7a 03bd 09b7 043a 314f 9dbc eb55 8ebc
00000110: e1d8 adbc 54a1 31bd 68dc 263d e0af 113c
00000120: 888c 9abb 5f86 e13c deae 063d 0c5f 293d
00000130: fb5d 8dba 4a00 f93c 9b4a c1bb 1fa3 c1bc
00000140: 6472 3cbd dcda 83bc 5d6a 60bc 8e08 ac3c
00000150: 11f2 343c e6e6 a33b 5ac8 22bd 75b9 e9bb
00000160: 6be2 183d 43d8 9cbc 5228 c6bc d850 a53c
00000170: 7ed9 3b3d eefd e6bc 47cc a93c 8e38 4dbd
00000180: d5e3 d53c 94ba 8b3c f472 3bbc a7eb 0fbd
00000190: 1709 3c3c 339b 343d 9a47 a13c 0c73 09bd
000001a0: 7f91 073d 8f6a 973c af31 fa3c f71c 813c
000001b0: bbe7 ad3c 7455 763c d8d6 853c 4812 2f3c
000001c0: 05b3 a2bc 60cd ce3c 580f d7bc 3128 803c
000001d0: 2cef 9c3c 9ace 973a aa93 f8bc 8cd7 a4bc
000001e0: cd7e 1c3d 24f4 cb3a ec9c 433d 3a17 21bc
000001f0: 0bf6 b13b 31fa 3fbd 3de8 523d ac53 1bbd
00000200: 1b9a 113d aab4 c2bc 0b76 0d3c 11dc 323c
00000210: f3d6 40bd cc65 50bd 6ef7 2e3d 438e 3fbd
00000220: 2a35 be3c eda8 273d f217 293d 5bd3 00bc
00000230: d5fa c93c c597 28bd e24e 773c 593d 563c
00000240: 8971 683c 5891 21bd 485d 1fbd d759 d9bc
00000250: b7d4 313d dd35 aabc a836 333c 35a8 58bb
00000260: bbd9 77bb 85f1 67bd 3756 1abd ccc4 d03c
00000270: 7ad2 27bc a426 d83c 4946 26bd 9040 193d
00000280: e916 9b3c e800 473c 4bd8 acbc 5142 e93b
00000290: 77ec ad3c 6327 e3bc b2e7 02bd c31a 413d
000002a0: 1764 eabc df4c 05ba d259 66bb 9aaa fbbc
000002b0: 50df 403d eae8 4cbd bd97 63bd 7a09 403c
000002c0: 15ff ee3c 230d 4a3d 6323 16bc c8c7 5a3c
000002d0: 14ef 243c e8c4 053d c4e7 9c3c 9334 983c
000002e0: d51f 24bd d234 4c3d f1ed 1f3d a90a 25bd
000002f0: b571 13bd 84d2 c93b 8e12 2cbd 8ac4 49bd
00000300: 754a 3d3d 7563 543d 8ff9 07bc ac12 2abc
00000310: ef6e 1a3d 51d8 ebbc 4390 323d dd82 10bd
00000320: 0af5 593d a7e5 683c f88b fd3c 1e87 613b
00000330: 73e4 22bd b522 23bd 13bc 413d 8d8f 7cbb
00000340: 3b27 e63c da6f 0a3d eff8 cfbc eb25 9cbc
00000350: 2aab 0a3d 8746 3e3d 40dd 003c bab9 1f3d
00000360: 76ad 173d 3197 0d3c 9301 d2bb 58bd febb
00000370: 762d 133d a4d5 853c 61b3 c33c adb0 4ebd
00000380: a4a9 11bd ab4b 29bc 1125 bfbc 03cc c2bc
00000390: 1482 24bd d86c 383d 87a5 b7bb 87c5 51bd
000003a0: eabe 19bd 15eb 373b 4325 653c d25e 503d
000003b0: 0f2c 25bc 4dc8 65bc 3d44 433d 2e01 e03c
000003c0: 3faa c63c e52f 46bd 830b 843c 99da 183d
000003d0: 22ed 103d 2960 213c 157c 87bc f169 bdbb
000003e0: d941 1fbd 0dc1 8bbc 8ec5 8bbc 3e90 923c
000003f0: 5143 c43c 2645 463d 1515 e63c c856 f43c

base_model.model.backbone.encoder.layer.0.attention.attention.query.lora_B.weight f4 [384, 8]
0.002048161 -0.0034134588 -0.0005732869 0.003265938 0.0026707137 0.0036548984 -0.0035645699 -0.006718982
0.001277191 0.004288983 0.006438777 0.0044021825 -0.0017815373 0.002392777 0.0041379775 0.0022692776
-0.0007411702 0.004614544 0.0040413504 0.0006124117 -0.0026853955 -0.0015505082 0.0037419428 0.0072631626
-9.3245246e-05 -0.00420299 -0.0025866425 0.0011663539 0.00026442233 0.0018630801 -0.005663177 -0.0028534846
0.0017707207 -0.0015425325 0.0016339243 0.0061691063 -0.0012068136 0.0068088872 -0.007467036 -0.00025019448
0.0007236308 -0.0050201626 -0.004782959 -0.0015519663 0.0027892573 0.0009292879 -0.0039018767 -0.0072440756
-0.00013340602 0.0039522224 0.003560121 -0.0008234299 0.00015720076 -0.0016008668 0.008372539 0.0020501483
0.0014318995 0.004777579 0.0055500544 0.0043549305 -0.0015892744 0.002489988 0.0033224588 0.005733065
0.0011018872 0.005098206 0.0074760932 0.0038640902 -0.0020517672 0.0014779514 0.004942392 0.0068720453
-5.5742046e-05 0.0017265627 0.0017112708 -0.0025460902 -0.00046077083 -0.0004142742 0.004434339 0.002341053
0.0012694793 -0.0011935633 0.0018694929 0.005553242 0.0009931499 0.0033905804 0.00020854919 -0.0059704036
0.0037342561 0.001439319 0.007852519 0.010245669 8.301687e-05 0.009813541 -0.0013162524 -0.0016387926
8.687489e-05 0.004466985 0.004475061 0.00094083743 -0.0015130441 -0.0016224977 0.00429273 0.0077841957
-0.001738998 -0.005368511 -0.0061649713 -0.0057101185 0.0024281922 -0.003923689 -0.0015000446 -0.0063400287
0.0018815468 -0.0028310332 0.00054678234 0.0043610875 0.002402565 0.0041339146 -0.003311434 -0.0057890555
0.0009277611 0.0065238997 0.0074418285 0.006197267 -0.002478891 0.002887934 0.0053783143 0.0055981735
0.00087024644 -0.0035825805 -0.0013268596 0.0015333036 0.0013351559 0.00352262 -0.0064789243 0.0005959818
-0.0013622094 -0.004457186 -0.006390897 -0.0032224376 0.0020958188 -0.0014672031 -0.004108401 -0.004870683
0.0010231013 -0.0049658795 -0.004333517 -0.0010012719 0.0029221985 0.0012484981 -0.0039605517 -0.0072676567
0.000985111 0.0007181493 0.0028417031 0.005456974 0.0011222322 0.0021599892 0.0036445884 -0.000949002
0.0011858038 -0.0055524176 0.0025498413 0.0038485145 0.00047397774 0.007977722 -0.011753146 -0.007453075
0.0025181526 0.00558734 0.0086113205 0.008424537 -7.918817e-05 0.005898845 0.003436593 0.0033301595
-0.0010905175 0.00046294986 -0.0019363919 0.0029829862 -0.0028503584 -0.0015623118 -0.00041484387 -0.009207402
0.0015395613 -0.004124648 -0.002323974 0.0013809443 0.002878425 0.0026585609 -0.003700011 -0.0070881383
0.0011240414 -0.004886994 -0.0039117374 -0.00052900886 0.002995432 0.0015226579 -0.0039651324 -0.007253247
0.001984999 0.0050914683 0.007800977 0.0086609805 -0.0006912487 0.005960973 0.0037135843 -0.001890981
-0.0015902611 -0.004298141 -0.005454727 -0.0062280684 0.0038699838 -0.004414904 -0.0002635857 -0.0033370922
0.00072113716 -0.0050846585 -0.00487941 -0.0016743961 0.0028290607 0.00080377556 -0.003934193 -0.0072176023
0.0006323798 0.003479552 0.005099009 0.0074609346 -0.0021205114 0.0032209791 0.0052634818 -0.0039159977
0.0017225156 0.001323504 0.00049222534 0.0036847305 -0.00284884 0.0012925619 -0.0021022195 0.0012415287
-0.00041353147 0.0051412457 0.00542251 0.0023072301 -0.002814443 -0.00013908991 0.003921348 0.0070135994
-0.002165685 -0.006219398 -0.0076449993 -0.0073291296 -0.00030537564 -0.0046509053 -0.006725198 -0.0015503932
00000000: 713a 063b 56b4 5fbb a248 16ba 5909 563b
00000010: 2407 2f3b 0587 6f3b 8f9b 69bb e82a dcbb
00000020: 6b67 a73a 998a 8c3b 60fc d23b 2f40 903b
00000030: 7982 e9ba 23d0 1c3b df97 873b 29b8 143b
00000040: 174b 42ba 9a35 973b 4e6d 843b 418a 203a
00000050: 76fd 2fbb 6c3a cbba 623b 753b d3ff ed3b
00000060: a98c c3b8 3cb9 89bb a984 29bb 58e0 983a
00000070: 2aa2 8a39 9832 f43a 2c92 b9bb 8701 3bbb
00000080: 8717 e83a cd2e caba 6729 d63a 3726 ca3b
00000090: f22d 9eba 161d df3b 0aae f4bb 892c 83b9
000000a0: 0ab2 3d3a 2d80 a4bb 5eba 9cbb 596b cbba
000000b0: f9cb 363b 759b 733a a1b6 7fbb b65f edbb
000000c0: e8e2 0bb9 a581 813b eb50 693b 72db 57ba
000000d0: 42d6 2439 2dd4 d1ba f92c 093c c85b 063b
000000e0: 93ae bb3a 3d8d 9c3b 3bdd b53b ceb3 8e3b
000000f0: 334f d0ba 112f 233b 9cbd 593b 6fdc bb3b
00000100: 336d 903a da0e a73b 04fa f43b ad3c 7d3b
00000110: f176 06bb d2b7 c13a caf3 a13b e52e e13b
00000120: 91cc 69b8 d54d e23a b84c e03a 4edc 26bb
00000130: 9d93 f1b9 f132 d9b9 ee4d 913b 5a6c 193b
00000140: a864 a63a 5771 9cba c609 f53a f8f7 b53b
00000150: 952c 823a 8034 5e3b ffad 5a39 60a3 c3bb
00000160: 6cba 743b 88a7 bc3a daa7 003c 73dd 273c
00000170: 5819 ae38 f9c8 203c 1a86 acba c1cc d6ba
00000180: 9a30 b638 c95f 923b 88a3 923b 88a2 763a
00000190: 5651 c6ba fda9 d4ba 07aa 8c3b 9112 ff3b
000001a0: 17ef e3ba 56ea afbb 8703 cabb f21b bbbb
000001b0: 4e22 1f3b 4a92 80bb 259d c4ba 04c0 cfbb
000001c0: 3c9e f63a db88 39bb f155 0f3a 74e7 8e3b
000001d0: 5a74 1d3b ca75 873b a504 59bb 1eb2 bdbb
000001e0: fe34 733a 70c6 d53b 95da f33b 7212 cb3b
000001f0: e474 22bb 7e43 3d3b 923c b03b e270 b73b
00000200: 4021 643a bac9 6abb 05ea adba 22f9 c83a
00000210: 6600 af3a c2db 663b 284d d4bb a93b 1c3a
00000220: 2a8c b2ba 960d 92bb bb6a d1bb 882f 53bb
00000230: 015a 093b 2b4f c0ba c49f 86bb 409a 9fbb
00000240: 9519 863a d1b8 a2bb 2d00 8ebb 1c3d 83ba
00000250: 5b82 3f3b a5a4 a33a 84c7 81bb 8625 eebb
00000260: d71e 813a 2f42 3c3a de3b 3a3b 6ad0 b23b
00000270: dd17 933a 9b8e 0d3b 0cda 6e3b 72c6 78ba
00000280: f96c 9b3a 0ef1 b5bb 3d1b 273b 5c37 7c3b
00000290: 3780 f839 feb4 023c 4490 40bc ed38 f4bb
000002a0: 9707 253b 0116 b73b 7f16 0d3c 1207 0a3c
000002b0: d311 a6b8 194b c13b 7738 613b ce3e 5a3b
000002c0: b2ef 8eba 14b8 f239 88ce fdba 347e 433b
000002d0: 14cd 3abb 7cc6 ccba 677f d9b9 a5da 16bc
000002e0: 1bcb c93a 0e28 87bb d04d 18bb cd00 b53a
000002f0: f5a3 3c3b 403b 2e3b e27b 72bb 9d43 e8bb
00000300: 9254 933a 1423 a0bb 082e 80bb 2fad 0aba
00000310: 024f 443b ec93 c73a f1ed 81bb a5ac edbb
00000320: c216 023b 55d6 a63b 579f ff3b c9e6 0d3c
00000330: ea34 35ba 4454 c33b 9b5f 733b cbda f7ba
00000340: 4f70 d0ba 6cd7 8cbb 91bd b2bb d314 ccbb
00000350: 8e9f 7d3b e6aa 90bb e031 8ab9 1eb3 5abb
00000360: b20a 3d3a 359d a6bb 75e3 9fbb 6977 dbba
00000370: c367 393b 77b4 523a 67ea 80bb a381 ecbb
00000380: 4ac6 253a 3209 643b 9615 a73b db7a f43b
00000390: 47f8 0abb 1017 533b 4979 ac3b c551 80bb
000003a0: 08c6 e13a 6d79 ad3a af08 013a 857b 713b
000003b0: 9bb3 3abb 2e6b a93a 64c5 09bb caba a23a
000003c0: 41cf d8b9 e577 a83b 50af b13b e634 173b
000003d0: 8572 38bb aad8 11b9 a77e 803b 56d2 e53b
000003e0: 2aee 0dbb 18cc cbbb e782 fabb 3229 f0bb
000003f0: d31a a0b9 9f66 98bb 0d5f dcbb 9036 cbba

base_model.model.backbone.encoder.layer.0.attention.attention.value.lora_A.weight f4 [8, 384]
-0.025317224 0.013999326 0.020892663 -0.029544197 -0.050297346 -0.03552745 0.024149671 0.015452131
-0.012147145 0.0021532164 -0.033653118 -0.008222199 -0.016033143 -0.005757223 -0.049438164 0.019526102
-0.033045452 -0.049866132 0.054659322 -0.024647268 0.041746452 0.0019103221 -0.00080844655 -0.042949226
-0.05999122 -0.01795696 0.008963053 0.034824472 0.05343137 0.03499804 0.0032296025 -0.035058346
-0.032362394 -0.037764672 0.023481557 -0.02121305 0.0070124967 -0.019032026 -0.013983837 0.008283758
0.0029967523 0.009550912 -0.034812726 0.029038657 -0.039514203 0.006235679 0.038792893 -0.037373707
0.0058263466 -0.008032102 -0.00207256 -0.029441698 0.04035699 0.00975014 -0.047143616 0.047041297
-0.04277293 0.03748341 0.018645836 -0.020240285 -0.048400618 -0.033353884 0.01563752 -0.018364552
0.021085925 -0.022991715 0.015624019 -0.05436513 0.04476217 0.015043851 -0.018635506 0.010648005
-0.035596788 -0.022645166 0.03347903 0.022922013 0.01923266 0.014860996 -0.024146436 -0.005444698
0.02070891 0.0019139657 0.006819701 0.040909894 0.02582987 -0.043646775 -0.039567214 -0.041799627
0.02002346 0.029792922 9.350831e-05 -0.018284975 0.02663704 0.03657945 0.010518573 -0.008959655
-0.04825855 -0.019600568 -0.0025351802 0.04290846 0.046008155 0.035440132 -0.042467814 -0.03608784
-0.042629987 0.02451589 -0.01988971 -0.04163694 0.020665754 -0.011883972 -0.009875268 0.00736507
-0.0071736183 0.050837047 0.008342393 -0.0039993506 -0.009596231 -0.024627088 -0.008351099 0.04376678
0.06239362 0.040343475 -0.013570043 -0.05715904 0.008478134 0.008053433 -0.015736198 -0.042477608
0.039349534 -0.041730292 -0.037819296 -0.030103624 -0.017422516 0.042103406 -0.023458133 -0.033390176
-0.022309083 -0.042671 -0.016490933 0.040356487 -0.018157173 -0.043738052 0.015324651 0.019479383
0.028179774 -0.049223196 -0.004904483 -0.034728833 -0.0059669004 -0.0075475005 0.0052701565 -0.012444743
-0.026599633 0.040915802 0.020154728 -0.025473673 0.028719662 0.012836984 0.026701318 0.03644906
-0.020263541 0.020878308 -0.02633537 -0.046680897 -0.010247424 0.043480027 -0.03269625 0.03378185
0.0044393437 8.8798944e-05 -0.01908539 -0.023577139 -0.0194126 -0.054239858 -0.040787503 0.019624528
0.012146073 -0.040814333 -0.0040033823 0.019850215 0.032842856 -0.037691504 0.00923411 -0.0461129
-0.026644988 -0.057096492 -0.020247411 0.032066286 0.039983097 -0.04072595 -0.015378172 -0.03214371
-0.017571157 0.03594253 -0.038824115 -0.044980913 -0.031331904 -0.0292484 0.02828652 0.005674963
0.040086504 -0.024037294 -0.03279699 -0.03085139 -0.041999765 -0.03885496 -0.051648304 0.02299667
0.04909018 0.009775104 -0.02117884 -0.04168531 -0.044232517 0.036985647 -0.05867496 -0.033377506
0.019325593 -0.01740124 0.012551727 0.025503876 -0.053016502 -0.02239965 0.02989849 -0.05295257
-0.051341504 0.014240123 0.01745035 0.011069044 -0.012048425 0.020975044 0.015113629 -0.011041356
-0.035225924 0.05087613 -0.042220425 0.060804907 0.0054106205 0.031853534 0.008484746 -0.051881216
0.02244971 0.04515103 0.014567896 -0.033238985 0.0016735648 0.05564107 -0.020827662 -0.015309212
0.02841278 -0.04054252 -0.017920485 -0.021229343 0.003913334 -0.019214535 0.023168845 0.038224835
00000000: 1166 cfbc 6e5d 653c 1727 ab3c ac06 f2bc
00000010: 9704 4ebd 3b85 11bd 88d5 c53c ef2a 7d3c
00000020: d204 47bc fa1c 0d3b dad7 09bd 67b6 06bc
00000030: f057 83bc 16a7 bcbb ac7f 4abd 34f5 9f3c
00000040: ab5a 07bd 6e40 4cbd 74e2 5f3d 11e9 c9bc
00000050: 54fe 2a3d c663 fa3a eeed 53ba 87eb 2fbd
00000060: 5ab9 75bd 791a 93bc c5d9 123c 1ba4 0e3d
00000070: dada 5a3d 1b5a 0f3d bda7 533b 5799 0fbd
00000080: 6e8e 04bd 21af 1abd 655c c03c fdc6 adbc
00000090: 16c9 e53b 0de9 9bbc 771c 65bc 99b8 073c
000000a0: 2965 443b 6e7b 1c3c ca97 0ebd 7ae2 ed3c
000000b0: a5d9 21bd ab54 cc3b 4ce5 1e3d 2c15 19bd
000000c0: f0ea be3b 1499 03bc c9d3 07bb b72f f1bc
000000d0: 5f4d 253d 0dbf 1f3c aa19 41bd 60ae 403d
000000e0: ab32 2fbd 3488 193d 27bf 983c f4ce a5bc
000000f0: ba3f 46bd 159e 08bd 421a 803c 4271 96bc
00000100: 64bc ac3c 1f59 bcbc e3fb 7f3c f8ad 5ebd
00000110: 8a58 373d 7c7a 763c 7da9 98bc f874 2e3c
00000120: f0cd 11bd 5b82 b9bc 4f21 093d f2c6 bb3c
00000130: d08d 9d3c 897b 733c bfce c5bc 7069 b2bb
00000140: bba5 a93c 08de fa3a cc77 df3b 2291 273d
00000150: 2a99 d33c f6c6 32bd 3b11 22bd 1636 2bbd
00000160: 3d08 a43c 4910 f43c e419 c438 5fca 95bc
00000170: ec35 da3c 55d4 153d 1856 2c3c 84cb 12bc
00000180: c2aa 45bd 5f91 a0bc 4425 26bb c8c0 2f3d
00000190: 0c73 3c3d ac29 113d bbf2 2dbd d8d0 13bd
000001a0: c89c 2ebd 8cd5 c83c bfef a2bc 7f8b 2abd
000001b0: 3a4b a93c feb4 42bc e0cb 21bc af56 f13b
000001c0: ac10 ebbb 823a 503d 88ae 083c fc0c 83bb
000001d0: 8339 1dbc bfbe c9bc 0cd3 08bc cc44 333d
000001e0: 7490 7f3d 333f 253d e354 5ebc 991f 6abd
000001f0: dfe7 0a3c 8cf2 033c 33e9 80bc 00fd 2dbd
00000200: fa2c 213d 62ed 2abd 68e8 1abd e09b f6bc
00000210: aab9 8ebc 9f74 2c3d 452b c0bc 23c4 08bd
00000220: 8ac1 b6bc c9c7 2ebd fe17 87bc d84c 253d
00000230: 5abe 94bc ac26 33bd 3f14 7b3c 3a93 9f3c
00000240: 45d9 e63c 439e 49bd c9b5 a0bb d23f 0ebd
00000250: fd85 c3bb 0651 f7bb 47b1 ac3b 09e5 4bbc
00000260: 79e7 d9bc 5497 273d 871b a53c 2aae d0bc
00000270: 7f45 eb3c 3752 523c b9bc da3c 9c4b 153d
00000280: baff a5bc fc08 ab3c 46bd d7bc 7834 3fbd
00000290: d0e4 27bc 1d18 323d 81ec 05bd d65e 0a3d
000002a0: ea77 913b 9239 ba38 f758 9cbc d824 c1bc
000002b0: 2c07 9fbc 9d2a 5ebd cc10 27bd 9ec3 a03c
000002c0: 5300 473c ee2c 27bd ce2e 83bb eb9c a23c
000002d0: 3b86 063d 6862 1abd aa4a 173c e1e0 3cbd
000002e0: 9746 dabc 03de 69bd e6dd a5bc f057 033d
000002f0: 51c5 233d 41d0 26bd baf4 7bbc 1fa9 03bd
00000300: 63f1 8fbc 7938 133d 0906 1fbd e83d 38bd
00000310: e255 00bd 579a efbc 22b9 e73c 0af5 b93b
00000320: bf31 243d dce9 c4bc 2356 06bd 0ebc fcbc
00000330: f207 2cbd 6126 1fbd 2c8d 53bd 8363 bc3c
00000340: c912 493d c227 203c 3f7f adbc 37be 2abd
00000350: 282d 35bd 437e 173d 2855 70bd dab6 08bd
00000360: b550 9e3c 0c8d 8ebc c2a5 4d3c 81ed d03c
00000370: d527 59bd 797f b7bc aeed f43c cbe4 58bd
00000380: 784b 52bd 684f 693c 09f4 8e3c ef5a 353c
00000390: c266 45bc dbd3 ab3c 289f 773c cee6 34bc
000003a0: 0f49 10bd 7d63 503d 53ef 2cbd 910e 793d
000003b0: 934b b13b da78 023d 9b03 0b3c 6681 54bd
000003c0: 74e8 b73c 49f0 383d 2fae 6e3c 9a25 08bd
000003d0: 845b db3a e4e7 633d c69e aabc 7dd3 7abc
000003e0: ebc1 e83c ea0f 26bd fbcd 92bc 29e9 adbc
000003f0: 6d3b 803b cd67 9dbc 97cc bd3c a591 1c3d

base_model.model.backbone.encoder.layer.0.attention.attention.value.lora_B.weight f4 [384, 8]
-0.0016752012 -0.0010407426 -0.0016903351 0.0017682929 -0.0013217825 0.0019698474 0.0015875768 0.00080086594
0.0033367646 0.00578778 0.004110444 -0.0038945097 0.004786047 -0.0038470856 -0.004323011 -0.0036777412
-0.0009513478 -0.0013926625 -0.0011737426 0.0009207457 -0.002457249 0.0015474758 0.0009627768 0.00095744367
0.003503015 0.004267503 0.00403322 -0.0038838119 0.0045125056 -0.0032410396 -0.0038068218 -0.0041686967
-0.0021081816 -0.0040450264 -0.0030920836 0.0023563802 -0.0028764778 0.0032058274 0.0034165222 0.002420961
-0.002597746 -0.0030004797 -0.0028639135 0.0028404882 -0.0030316217 0.0024972453 0.0030469745 0.0034838163
0.0015254137 0.0043623345 0.0019952517 -0.002142128 0.0020753772 -0.0022110217 -0.0025476415 -0.0023493748
-0.00014008285 -0.0012760769 0.0007099328 0.000710992 -0.00024244959 0.00027781547 0.00015652113 -0.00038749116
0.0010715768 0.0011596807 0.00135402 -0.0011212919 0.0016954427 -0.00078125607 -0.0011526656 -0.0019900906
-0.00059930724 -0.00074227084 -0.0003775803 -0.00016372954 -0.00047100993 0.0007731303 0.00014596684 0.00033130127
-0.0014133626 -0.0004062819 -0.0011958563 0.0016420947 -0.0014589544 0.0010170311 0.0012057953 0.0013784223
0.008420739 0.009044872 0.009373134 -0.0076838015 0.0071684406 -0.00797867 -0.008052354 -0.009584702
0.0007797559 0.0015153864 0.0012367998 -0.00036694852 -0.00031115708 -0.00032489133 -0.00029114587 -0.0015486587
-0.0044613886 -0.0021073527 -0.003438606 0.0035863505 -0.005668268 0.0041267467 0.0036900209 0.004091488
-0.0017830961 -0.0038829988 -0.0027538508 0.0030602824 -0.0022442231 0.0032992985 0.0033986962 0.002385109
-0.0014774498 -0.0016467449 -0.0017350873 0.0016919128 -0.0015525327 0.0019340656 0.0017738093 0.001677366
0.0001107495 0.003505017 0.0017898557 -0.0007473701 0.0003438819 -0.0014198887 -0.0018701206 -0.0011798578
-0.0052647945 -0.0030319358 -0.005088395 0.004614276 -0.005211375 0.0039045443 0.0045179673 0.006507329
0.0067331223 0.005885269 0.0063011986 -0.006231378 0.006138204 -0.00633084 -0.0064702816 -0.007082632
-0.0024638923 -0.0028847947 -0.0032184809 0.0029202139 -0.0018830489 0.002781803 0.0030431105 0.0027430085
-0.002577345 -0.0015334738 -0.0027944543 0.0027664062 -0.0024148067 0.0024081836 0.002572553 0.0026607153
-0.0031296732 -0.0012571306 -0.0024462757 0.0024025303 -0.0034254787 0.0016534596 0.0019696234 0.003538932
0.001008821 0.0032678486 0.0020975948 -0.0019678145 0.0018313195 -0.002414709 -0.002647397 -0.0014477494
-0.0008323059 -0.00046418086 -0.00025479405 -0.00027848777 -0.00015176188 0.0011735538 0.00029894046 0.0001309855
-0.0029692862 -0.0034294121 -0.0031648406 0.0023424681 -0.0030874538 0.0028833523 0.002589347 0.003116775
-0.004528542 -0.005066093 -0.0046625105 0.004155514 -0.0051290845 0.0046047876 0.0046441574 0.004941946
-0.00078262144 -0.0021334847 -0.0011637385 0.00037450035 -0.0005962036 0.00068007695 0.0008924395 0.0009112209
0.0029564886 0.0018128845 0.0013891194 -0.0031564476 0.0045887902 -0.0026066839 -0.0021358477 -0.0019125945
-0.0066919127 -0.0056639016 -0.0060905633 0.0064559514 -0.0072283493 0.005836515 0.006095184 0.007188577
0.0006387365 0.00015227363 -9.424658e-05 -0.001069674 0.0008474931 -0.0005355934 -6.935039e-05 0.0004741339
0.007966559 0.008243653 0.008031522 -0.0074703805 0.008994045 -0.007882666 -0.0079364125 -0.008405127
-0.0013893002 0.000493382 -0.00046661645 0.001323945 -0.0027677554 0.0007714471 0.00062268414 0.0016246462
00000000: 6d92 dbba 8769 88ba 3c8e ddba 10c6 e73a
00000010: a93f adba 8e18 013b 3d16 d03a 34f1 513a
00000020: 9fad 5a3b 6ba7 bd3b e7b0 863b 083b 7fbb
00000030: 46d4 9c3b 631f 7cbb 0ba8 8dbb 4206 71bb
00000040: df63 79ba 008a b6ba 44d8 99ba 335e 713a
00000050: cc09 21bb acd4 ca3a db62 7c3a f5fc 7a3a
00000060: d792 653b 69d6 8b3b 1a29 843b 8d87 7ebb
00000070: a4dd 933b 9f67 54bb df7b 79bb 9099 88bb
00000080: 6b29 0abb 248c 84bb 8ea4 4abb 806d 1a3b
00000090: 4a83 3cbb dc18 523b bbe7 5f3b fca8 1e3b
000000a0: f23e 2abb b2a3 44bb 7fb0 3bbb 7c27 3a3b
000000b0: 2cae 46bb d3a8 233b c0af 473b bd50 643b
000000c0: 64f0 c73a eaf1 8e3b c5c2 023b f262 0cbb
000000d0: 0d03 083b cae6 10bb 55f6 26bb f8f7 19bb
000000e0: 34e3 12b9 0942 a7ba c91a 3a3a de61 3a3a
000000f0: 113a 7eb9 c3a7 9139 d21f 2439 2f28 cbb9
00000100: 2774 8c3a 6d00 983a 5f79 b13a 50f8 92ba
00000110: 9e39 de3a 35cd 4cba 0a15 97ba 2e6c 02bb
00000120: d41a 1dba f494 42ba f8f5 c5b9 d0ae 2bb9
00000130: e2f1 f6b9 e5ab 4a3a ad0e 1939 81b2 ad39
00000140: 9440 b9ba 3c02 d5b9 47be 9cba 8e3b d73a
00000150: 633a bfba e74d 853a c70b 9e3a 2dac b43a
00000160: 24f7 093c f130 143c c691 193c 66c8 fbbb
00000170: 3de5 ea3b f8b8 02bc 05ee 03bc 2709 1dbc
00000180: 8868 4c3a ee9f c63a 1d1c a23a ff62 c0b9
00000190: cc22 a3b9 2d56 aab9 f0a4 98b9 5dfc caba
000001a0: d730 92bb 831b 0abb 3c5a 61bb fa08 6b3b
000001b0: e1bc b9bb a939 873b 47d4 713b e411 863b
000001c0: c7b6 e9ba e979 7ebb f379 34bb 058f 483b
000001d0: d113 13bb 0b39 583b a9bc 5e3b 7d4f 1c3b
000001e0: fda6 c1ba 97d7 d7ba de6b e3ba 2cc3 dd3a
000001f0: 5a7e cbba 7980 fd3a 2a7f e83a 10db db3a
00000200: 2f42 e838 6db4 653b 9799 ea3a 29eb 43ba
00000210: 0c4b b439 8f1b baba d61e f5ba 75a5 9aba
00000220: 4c84 acbb 71b3 46bb 8dbc a6bb 5a33 973b
00000230: 2fc4 aabb 62e3 7f3b 750b 943b 6f3b d53b
00000240: 86a1 dc3b 37d9 c03b 497a ce3b 9630 ccbb
00000250: fd22 c93b ef72 cfbb a804 d4bb 6c15 e8bb
00000260: 4179 21bb d30e 3dbb 26ed 52bb 0f61 3f3b
00000270: a3d0 f6ba e94e 363b ec6e 473b 0cc4 333b
00000280: ace8 28bb d8fe c8ba 2a23 37bb 984c 353b
00000290: bc41 1ebb 9ed2 1d3b 4798 283b 655f 2e3b
000002a0: 341b 4dbb 4ec6 a4ba b251 20bb c573 1d3b
000002b0: ff7d 60bb e6b8 d83a cc14 013b 6ded 673b
000002c0: 6a3a 843a 6729 563b cd77 093b 73f6 00bb
000002d0: e308 f03a 1840 1ebb f47f 2dbb 69c2 bdba
000002e0: 1a2f 5aba 4d5d f3b9 e195 85b9 ff01 92b9
000002f0: 4522 1fb9 eed1 993a 1cbb 9c39 2759 0939
00000300: 5b98 42bb fdbf 60bb 3769 4fbb 1884 193b
00000310: e156 4abb a0f6 3c3b 09b2 293b cf42 4c3b
00000320: 2a64 94bb 7801 a6bb f9c7 98bb fa2a 883b
00000330: e111 a8bb c2e3 963b 042e 983b 0cf0 a13b
00000340: d628 4dba efd1 0bbb 9688 98ba 9658 c439
00000350: 8c4a 1cba 3147 323a 9af2 693a 00df 6e3a
00000360: a6c1 413b 4f9e ed3a 1d13 b63a 67dc 4ebb
00000370: 905d 963b e6d4 2abb 94f9 0bbb 06b0 faba
00000380: d547 dbbb 4098 b9bb 5993 c7bb 728c d33b
00000390: cadb ecbb 3d40 bf3b 1cba c73b 288e eb3b
000003a0: e270 273a a4ab 1f39 3fa6 c5b8 4e34 8cba
000003b0: 4d2a 5e3a 1167 0cba 3570 91b8 2d95 f839
000003c0: 2c86 023c 6310 073c a596 033c 18ca f4bb
000003d0: c25b 133c 4c26 01bc ba07 02bc a8b5 09bc
000003e0: 2e19 b6ba 4e56 013a 33a4 f4b9 3988 ad3a
000003f0: 3b63 35bb f03a 4a3a a03b 233a 15f2 d43a

base_model.model.backbone.encoder.layer.1.attention.attention.key.lora_A.weight f4 [8, 384]
0.006864794 0.036020447 -0.016830226 -0.0042800386 0.042499434 0.019923456 -0.012938857 -0.026914066
-0.004506695 0.04930964 -0.03651248 0.019166643 -0.023042476 -0.013927604 -0.0116411075 -0.047914475
0.012784723 -0.00405833 -0.0013789159 -0.014849978 -0.009743869 -0.016865717 -0.041681122 0.008837827
-0.0134182805 0.054974858 -0.005727865 0.025562465 -0.04285292 0.0126246745 -0.03335137 -0.040992714
0.0062313653 -0.039348155 -0.05075191 -0.006182389 -0.009673883 0.0035865358 0.051400393 -0.02493087
-0.005290007 -0.005811452 0.04046007 -0.022647263 0.053313486 -0.053802144 -0.044868726 -0.019637896
0.0035490736 -0.048025545 -0.008576818 0.042480804 0.056397647 -0.0022602496 -0.0329566 0.017260103
0.027774433 -0.043765277 0.024019264 0.029333169 0.036946274 0.046718076 -0.0002652983 -0.0051960954
-0.03184649 -0.025285937 -0.047638074 -0.036285404 0.034615222 -0.042617723 0.05116031 0.007833299
-0.056762416 -0.044525407 0.035131402 0.03163941 0.013820237 -0.043201547 0.03294708 -0.035173032
0.03936058 -0.022254309 0.0032606705 0.035989486 -0.0096593015 0.046390258 -0.021665022 -0.03379822
-0.040747456 -0.03395256 -0.0207495 0.028069768 -0.04482029 0.04213089 0.008107223 0.044146538
0.029680148 0.006216966 0.02869019 0.03529967 0.030507086 0.028154137 -0.03028068 -0.041660283
0.004528967 -0.028270656 -0.036175728 0.025949668 0.05374185 -0.015151413 0.02371876 -0.033911128
0.0014757224 -0.03185008 0.04997276 -0.023655338 0.03216343 0.018916354 0.026238378 0.04911117
0.016113952 0.0028909624 -0.05779831 0.03706125 -0.021386439 -0.017537693 -0.037387516 0.022561312
-0.023806447 0.0047237305 0.03102376 -0.035745226 -0.03225979 -0.02887967 0.042470228 -0.02335173
-0.04420434 -0.0010669228 0.043242402 -0.034711007 -0.0023458935 0.044481847 0.00761761 0.027947823
-0.027954204 -0.004643028 0.013902638 0.03737172 0.004419181 0.00749443 -0.032029625 -0.054318015
-0.031161644 -0.036071885 0.006854595 0.009451045 0.034393 0.0056384234 0.057402387 -0.014756276
-0.04179554 -0.05819389 -0.049766865 0.032668434 -0.03254401 0.048451852 -0.010897687 0.048751257
0.019974148 -0.009248256 0.032932863 0.02872521 -0.0012928523 2.6997572e-05 -0.0023279113 -0.011161953
0.04423246 -0.0035567475 -0.007509915 -0.015619788 0.02374758 -0.00089664146 -0.040584087 -0.007850414
0.019554676 0.010760371 -0.03580803 0.0070438157 -0.009525203 0.04344995 0.035091683 0.004396699
0.014144675 0.010074676 -0.0110889375 0.029761905 -0.047644395 0.011470723 0.035008814 -0.041216936
0.05277332 -0.012155798 -0.04989206 -0.007771588 -0.0024990633 0.032693367 -0.013348817 -0.051941063
-0.04723825 -0.016439963 0.032067306 -0.030952364 0.03268168 -0.015084308 -0.004027225 0.033729043
0.02001658 0.055443708 0.032633886 0.012026289 -0.0038294294 -0.021037843 -0.025478074 -0.043068074
-0.03583087 0.00025335554 -0.034351412 0.021350084 0.0458678 -0.0028131553 -0.037571143 -0.015422281
-0.011139326 -0.0057593086 0.023025194 0.01111295 0.0023939735 -0.04220835 0.03640149 -0.03558285
0.028903577 0.033203483 0.02433433 -0.056467846 0.004251591 -0.032051962 0.018098107 -0.042665076
0.025038274 -0.046835545 0.025026053 -0.045433477 0.047638737 -0.040708397 -0.009630129 0.05259404
00000000: 11f2 e03b 2d8a 133d 8bdf 89bc 913f 8cbb
00000010: e313 2e3d 8436 a33c 80fd 53bc e37a dcbc
00000020: e6ac 93bb e8f8 493d 1c8e 15bd 5d03 9d3c
00000030: 93c3 bcbc 9b30 64bc 58ba 3ebc f841 44bd
00000040: 0477 513c bdfb 84bb bdbc b4ba 524d 73bc
00000050: c0a4 1fbc f929 8abc d3b9 2abd 88cc 103c
00000060: 59d8 5bbc 512d 613d d0b0 bbbb 6068 d13c
00000070: 8b86 2fbd b9d7 4e3c 729b 08bd fae7 27bd
00000080: 7b30 cc3b 882b 21bd 3ce1 4fbd a395 cabb
00000090: 357f 1ebc 160c 6b3b 3889 523d d33b ccbc
000000a0: cc57 adbb fe6d bebb 75b9 253d c186 b9bc
000000b0: 3e5f 5a3d a35f 5cbd 45c8 37bd a7df a0bc
000000c0: 9397 683b 6fb6 44bd c885 0cbc 5a00 2e3d
000000d0: 3801 673d b220 14bb 80fd 06bd 0f65 8d3c
000000e0: 3587 e33c 3843 33bd 0cc4 c43c 1d4c f03c
000000f0: fa54 173d 745b 3f3d bc17 8bb9 0244 aabb
00000100: 7771 02bd 7424 cfbc 2420 43bd 01a0 14bd
00000110: b1c8 0d3d ec8f 2ebd 798d 513d 3d57 003c
00000120: b57f 68bd 4660 36bd f2e5 0f3d 5398 013d
00000130: 466e 623c 1bf4 30bd 84f3 063d 9911 10bd
00000140: 8f38 213d ab4e b6bc f9b0 553b b669 133d
00000150: 0c42 1ebc b603 3e3d d87a b1bc 0170 0abd
00000160: cee6 26bd d711 0bbd dbfa a9bc 92f2 e53c
00000170: 7b95 37bd 7191 2c3d 28d4 043c 00d3 343d
00000180: c823 f33c b1b7 cb3b b007 eb3c 6396 103d
00000190: ffe9 f93c 81a3 e63c 300f f8bc f9a3 2abd
000001a0: bb67 943b dd97 e7bc 002d 14bd 6694 d43c
000001b0: 6a20 5c3d a23d 78bc d84d c23c 65e6 0abd
000001c0: 076d c13a 3b75 02bd 3db0 4c3d d7c8 c1bc
000001d0: cdbd 033d 78f6 9a3c def1 d63c cb28 493d
000001e0: 6801 843c 4d76 3d3b ecbd 6cbd 8acd 173d
000001f0: 9d32 afbc 35ab 8fbc a723 19bd 80d2 b83c
00000200: bd05 c3bc 86c9 9a3b 8a25 fe3c 9669 12bd
00000210: d722 04bd 0f95 ecbc 43f5 2d3d 214c bfbc
00000220: 9c0f 35bd fdd7 8bba f21e 313d 212d 0ebd
00000230: 90bd 19bb 9932 363d 259d f93b d5f2 e43c
00000240: 3700 e5bc 8b24 98bb e4c7 633c 1713 193d
00000250: c7ce 903b d693 f53b 7f31 03bd 917c 5ebd
00000260: b446 ffbc 1dc0 13bd 839c e03b 8ed8 1a3c
00000270: addf 0c3d 86c2 b83b c41e 6b3d 4fc4 71bc
00000280: cd31 2bbd b75c 6ebd 57d8 4bbd 56cf 053d
00000290: de4c 05bd 7375 463d 368c 32bc 66af 473d
000002a0: d3a0 a33c ff85 17bc 9ce4 063d 2251 eb3c
000002b0: ed74 a9ba d878 e237 df8f 18bb a0e0 36bc
000002c0: 192d 353d 5218 69bb bc15 f6bb 24ea 7fbc
000002d0: 498a c23c 970c 6bba 803b 26bd 069f 00bc
000002e0: 2131 a03c 444c 303c 71ab 12bd cfcf e63b
000002f0: 990f 1cbc 93f8 313d 4cbc 0f3d 2f12 903b
00000300: 11bf 673c 4110 253c 60ae 35bc 3dcf f33c
00000310: c526 43bd b3ef 3b3c 6765 0f3d 17d3 28bd
00000320: d628 583d 1d29 47bc 9e5b 4cbd cea8 febb
00000330: 53c7 23bb 7be9 053d ffb4 5abc 27c0 54bd
00000340: e57c 41bd 1aad 86bc 0259 033d d08f fdbc
00000350: 3add 053d 2c24 77bc d0f6 83bb 7727 0a3d
00000360: d0f9 a33c f118 633d 1cab 053d e909 453c
00000370: 2af7 7abb 8e57 acbc 65b7 d0bc 2668 30bd
00000380: 64c3 12bd ced4 8439 11b4 0cbd 5fe6 ae3c
00000390: e0df 3b3d ea5c 38bb 33e4 19bd bcad 7cbc
000003a0: b881 36bc 95b8 bcbb 559f bc3c 1713 363c
000003b0: 36e4 1c3b aae2 2cbd bb19 153d 53bf 11bd
000003c0: 32c7 ec3c 6000 083d ca58 c73c d44a 67bd
000003d0: ee50 8b3b eb48 03bd 7b42 943c 93c1 2ebd
000003e0: 111d cd3c a1d6 3fbd 7003 cd3c 7418 3abd
000003f0: d620 433d d9bd 26bd b0c7 1dbc d96c 573d
