outputs/depth_lora/checkpoints/epoch_70/adapter_model.safetensors (safetensors, 895304 bytes, 72 tensors)

base_model.model.backbone.encoder.layer.0.attention.attention.key.lora_A.weight f4 [8, 384]
0.041628838 -0.022157766 0.0294534 -0.017311154 -0.02057091 0.02517021 -0.003353069 0.026074616
0.05411947 0.05365158 -0.052043334 -0.053032577 -0.023262482 0.028576776 0.014463188 -0.0031137946
-0.00760291 0.019266976 -0.027210549 0.04216763 -0.032397635 0.01859016 0.046646614 -0.041682545
-0.018212186 0.041875165 0.050044894 0.007108221 -0.0012505495 0.034202255 -0.047222074 -0.005866574
0.04173092 0.043275613 0.014791344 0.037588056 -0.04481256 0.027406204 0.0048710653 -0.0017165331
0.0028907624 0.004096115 0.012204315 -0.037331745 -0.010155476 0.0010771103 -0.021692151 0.04845722
0.036630522 0.028753135 0.0072578057 -0.004736491 -0.027460035 0.01954653 -0.014144779 0.054727074
-0.0029529778 0.046488266 0.015013082 0.041000072 -0.037033748 -0.03664505 0.025980247 0.014558501
0.03476681 0.017221255 0.01839857 -0.01302755 0.0047748247 -0.03488082 0.008368299 -0.029858988
0.009752742 -0.010699433 -0.012836768 -0.00048288988 -0.030427963 0.019505616 0.020462986 -0.04742434
-0.0178408 -0.04255539 -0.019254547 -0.00081710867 0.04607728 0.026619434 0.025354566 0.04173568
-0.021716362 0.0043306113 -0.04989638 -0.0058778916 0.02095555 -0.015447175 0.017887563 -0.029459614
-0.040750653 -0.009150806 0.030080702 0.042609025 0.039438147 -0.008802464 -0.010643967 0.04491274
0.0009321884 0.021342084 0.048082434 -0.008117067 0.03257558 -0.027414653 -0.017441742 0.033293433
0.05422573 -0.003909332 -0.017911624 0.04625208 -0.02321084 -0.008244861 -0.028792564 0.02005218
-0.020253938 -0.01112639 0.03766081 -0.0042376136 0.024657756 -0.028211871 0.045207348 0.029173238
0.010561342 -0.029100677 -0.049593557 0.0366869 0.026789354 -0.021695094 -0.013743744 -0.0074938536
-0.026579665 -0.019634778 -0.028140685 0.004785642 0.034378685 -0.016858023 0.002366628 -0.0044781435
0.030752668 -0.043135647 -0.05013134 -0.01788759 -0.0054147765 -0.055075023 -0.004283678 -0.03489182
0.01863736 -0.019802982 -0.033618946 0.0054753753 -0.011705858 0.04875878 -0.015669359 0.04324873
0.015514337 -0.007576906 -0.0042605973 0.03926972 0.01929651 0.029492706 -0.04397145 0.017600866
0.030266726 -0.047300305 -0.009983885 -0.027580775 -0.023673669 0.039141834 0.0042104297 0.040873293
0.047152866 -0.035027616 -0.03408257 0.040031638 0.04317382 0.014117148 0.016981088 0.024532437
0.01169872 0.047209922 0.039079033 -0.04472204 0.0030748802 0.02970686 -0.021347355 -0.0024371822
0.027768277 0.04675811 0.03632922 -0.026455713 -0.03927079 -0.051494464 -0.03876504 0.00456797
-0.022412185 0.036743913 0.029834159 0.009017358 -0.043683473 -0.02525578 -0.021662895 -0.008141577
0.015347206 -0.009637378 -0.008689931 -0.034019493 -0.052820634 -0.021628853 -0.023080945 -0.02861843
-0.050047804 -0.033629484 -0.033864304 -0.04834837 0.051687054 0.006026588 0.023829512 0.052684486
-0.019500582 0.023280464 0.03348676 0.019222021 -0.04506817 0.020392876 0.035592332 -0.035226222
0.03460985 0.028230676 0.030179823 0.021422453 0.0407676 -0.032285247 0.043427307 -0.020244446
-0.036634862 -0.0051604905 -0.043865677 -0.017284118 -0.0009122471 -0.030521898 0.040337443 -0.017451689
0.0035188994 -0.042921945 0.0026077232 0.024674293 0.028221767 -0.03879292 -0.044924527 -0.030056175
00000000: 0083 2a3d 3484 b5bc 4248 f13c 1fd0 8dbc
00000010: 5384 a8bc c231 ce3c 2abf 5bbb 6f9a d53c
00000020: 61ac 5d3d c2c1 5b3d 642b 55bd b038 59bd
00000030: f690 bebc d819 ea3c 02f7 6c3c ce10 4cbb
00000040: d521 f9bb c7d5 9d3c a8e8 debc f7b7 2c3d
00000050: 62b3 04bd 644a 983c 8510 3f3d 51bb 2abd
00000060: b931 95bc 4b85 2b3d e0fb 4c3d 14ec e83b
00000070: 7ae9 a3ba aa17 0c3d ef6b 41bd 643c c0bb
00000080: 0bee 2a3d c541 313d 6557 723c eff5 193d
00000090: 608d 37bd fa82 e03c 759d 9f3b 4bfd e0ba
000000a0: f272 3d3b b438 863b 9bf4 473c 2ce9 18bd
000000b0: 2763 26bc d32d 8d3a bdb3 b1bc 147b 463d
000000c0: e309 163d b28b eb3c e3d2 ed3b 9134 9bbb
000000d0: def3 e0bc 0b20 a03c 81bf 67bc 7f29 603d
000000e0: bf86 41bb 7b6a 3e3d 6ef9 753c b1ef 273d
000000f0: b3b0 17bd 1f19 16bd 87d4 d43c c786 6e3c
00000100: a467 0e3d 9713 8d3c 99b8 963c 8171 55bc
00000110: 2276 9c3b 31df 0ebd 311b 093c d69a f4bc
00000120: f7c9 1f3c ad4c 2fbc 4f51 52bc 622c fdb9
00000130: 1044 f9bc 3eca 9f3c fea1 a73c 0640 42bd
00000140: df26 92bc 904e 2ebd b6bb 9dbc 3c33 56ba
00000150: 88bb 3c3d 0011 da3c 61b4 cf3c 08f3 2a3d
00000160: 83e6 b1bc cde7 8d3b 2660 4cbd 549b c0bb
00000170: f9aa ab3c 2616 7dbc f088 923c 4a55 f1bc
00000180: 28ea 26bd 43ed 15bc ce6b f63c cd86 2e3d
00000190: e589 213d 3638 10bc 0964 2ebc 6cf6 373d
000001a0: 1b5e 743a 98d5 ae3c 16f2 443d 72fd 04bc
000001b0: f96d 053d b294 e0bc fce1 8ebc b25e 083d
000001c0: cd1b 5e3d db19 80bb 66bb 92bc d272 3d3d
000001d0: a924 bebc 7415 07bc 62de ebbc 7844 a43c
000001e0: 96eb a5bc 764b 36bc 3942 1a3d aedb 8abb
000001f0: 10ff c93c 951c e7bc 572b 393d b7fc ee3c
00000200: 7b09 2d3c 8b64 eebc 9d22 4bbd 0145 163d
00000210: 5975 db3c e9b9 b1bc 712d 61bc 008f f5bb
00000220: 99bd d9bc 1dd9 a0bc 4b87 e6bc e0d0 9c3b
00000230: aad0 0c3d d619 8abc 6e19 1b3b 64bd 92bb
00000240: 05ed fb3c 01af 30bd 8556 4dbd ff88 92bc
00000250: 706e b1bb 5996 61bd 185e 8cbb baea 0ebd
00000260: 60ad 983c dd39 a2bc 05b4 09bd c76a b33b
00000270: edc9 3fbc 49b7 473d 075d 80bc 9525 313d
00000280: d92f 7e3c b247 f8bb 7b9c 8bbb 49d9 203d
00000290: b713 9e3c b09a f13c 681b 34bd b12f 903c
000002a0: edf1 f73c f7bd 41bd 7393 23bc 14f1 e1bc
000002b0: 48ef c1bc 3053 203d a5f7 893b c16a 273d
000002c0: 5d23 413d 1e79 0fbd 2a9a 0bbd 37f8 233d
000002d0: 08d7 303d 9c4b 673c ec1b 8b3c 40f8 c83c
000002e0: fdab 3f3c 315f 413d 5611 203d 752e 37bd
000002f0: ee83 493b cd5b f33c a6e0 aebc 22b9 1fbb
00000300: 4c7a e33c 6f85 3f3d f3cd 143d a7b9 d8bc
00000310: 68da 20bd dceb 52bd 17c8 1ebd e9ae 953b
00000320: c299 b7bc c980 163d c466 f43c 8abd 133c
00000330: 71ed 32bd 36e5 cebc 6276 b1bc 4064 05bc
00000340: d972 7b3c 18e6 1dbc 3660 0ebc 0658 0bbd
00000350: 735a 58bd fe2e b1bc 4014 bdbc 3371 eabc
00000360: edfe 4cbd 12bf 09bd 4cb5 0abd f108 46bd
00000370: ceb5 533d af7a c53b 1c36 c33c b0cb 573d
00000380: afbf 9fbc acb6 be3c 6a29 093d 8077 9d3c
00000390: 6799 38bd f60e a73c 44c9 113d 5f49 10bd
000003a0: 0fc3 0d3d 0544 e73c ad3b f73c 247e af3c
000003b0: edfb 263d 893d 04bd d5e0 313d aed7 a5bc
000003c0: 700e 16bd 5519 a9bb 7fac 33bd 6c97 8dbc
000003d0: de23 6fba 0f09 fabc e038 253d d8f6 8ebc
000003e0: 569d 663b ecce 2fbd 56e6 2a3b be21 ca3c
000003f0: 5631 e73c 53e5 1ebd c802 38bd 5e38 f6bc

base_model.model.backbone.encoder.layer.0.attention.attention.key.lora_B.weight f4 [384, 8]
-0.0048260735 0.0062834504 -0.008503505 -0.005989421 0.00760309 -0.0049602147 -0.0049239015 -0.005132428
-0.007568386 0.0092993695 -0.00835143 -0.0072146785 0.009598376 -0.009731514 -0.009142083 -0.009414403
0.0051727192 -0.006691604 0.008487947 0.006190892 -0.00784423 0.0054561957 0.0055230344 0.0056408555
0.00541213 -0.0057283086 0.0025253922 0.0023943293 -0.004491869 0.007311971 0.0071905153 0.0058446373
0.0065108496 -0.005602921 0.0025162566 0.005190676 -0.005744246 0.0068534994 0.0067778877 0.0072036968
-0.0055828746 0.0069466326 -0.008566423 -0.006518589 0.008172022 -0.0059462204 -0.0060452884 -0.0061971075
-0.004942983 0.004935809 -0.0004064136 -0.0026737985 0.0033089442 -0.0072077466 -0.0071778656 -0.0064477115
0.00057227554 -0.0015214492 -0.0023376564 0.000430052 0.00030365435 0.0005354404 -3.2345804e-05 0.0007655951
-0.006387267 0.00680941 -0.0061936723 -0.007548145 0.007633022 -0.006715461 -0.0060613933 -0.006759222
-0.0008774444 0.0010765372 0.0012143975 0.0009819774 -0.0004290375 -0.0030088744 -0.003010474 -0.0021990323
0.0029939255 -0.0018533507 -0.0021898719 0.00228919 -0.0013729454 0.0018733088 0.002665285 0.002607223
-0.0031680104 0.004826789 -0.0091242455 -0.005533492 0.0062336037 -0.0030897227 -0.0024947752 -0.0030377952
0.0030209736 -0.0046838606 0.0069987783 0.004594535 -0.005576079 0.0032957895 0.0029608493 0.0033375083
0.0036516155 -0.0046060057 0.007241394 0.004973358 -0.0060134633 0.003686418 0.003742918 0.003975475
-0.004826295 0.0064442875 -0.007902652 -0.005818144 0.0075774323 -0.005337263 -0.0052363183 -0.005400643
-0.005841253 0.006674704 -0.007897019 -0.006447174 0.007958187 -0.0062544607 -0.0060632834 -0.006479985
0.0019799792 -0.0014178153 -0.0010286005 -0.0007040012 -0.0016530276 0.003086792 0.002881047 0.0025080205
0.005606056 -0.008955521 0.008019997 0.0076692733 -0.009378305 0.008918633 0.007652739 0.008582156
-0.0056217327 0.0069581657 -0.008548786 -0.0065484243 0.008204989 -0.0059931795 -0.006061196 -0.0062391725
0.0048027267 -0.0046909656 0.00554809 0.004989469 -0.0042320592 0.004150996 0.0046541328 0.004638512
0.0015714883 -0.0021932125 0.0007971636 0.0021842595 -0.0032862518 0.00343016 0.0034217325 0.0033910028
-0.0040987805 0.0054240166 -0.007289608 -0.004930073 0.0067017735 -0.0044565853 -0.0040776986 -0.0043485705
-0.0016588187 0.003145412 -0.0074481308 -0.0024207106 0.0049455706 -0.0031439348 -0.0019329055 -0.0024916949
-0.005102184 0.0066377595 -0.0085041765 -0.0061954055 0.007854786 -0.005344924 -0.0053358707 -0.005526309
-0.005604916 0.006946146 -0.0084915655 -0.0065151947 0.008190843 -0.0059758103 -0.006030947 -0.0062106308
-0.0071091577 0.0081276065 -0.009242209 -0.007797299 0.009604051 -0.007727178 -0.0070051923 -0.0076892367
0.00066650263 -0.0015708581 0.0061526485 0.0025881557 -0.004696695 0.0014738993 0.000605676 0.0018415337
-0.005646564 0.0069791097 -0.008529375 -0.0065594576 0.008213127 -0.0060342364 -0.0061305705 -0.006292678
-0.0036773602 0.0036465547 -0.0075708563 -0.0038552529 0.005483486 -0.003286692 -0.0026539138 -0.003306957
-0.0017855226 0.0017577849 -0.002066426 -0.0026297001 0.0023463683 -0.0007966542 -0.0010536292 -0.0017100363
0.005674541 -0.006953193 0.008315175 0.0065332097 -0.008206284 0.006116785 0.0062532453 0.006405761
-8.95636e-06 -0.0008602767 0.00042854363 -0.00058178103 -0.0021158163 0.0022040058 0.0011884241 0.0011129394
00000000: 0a24 9ebb 67e5 cd3b 4952 0bbc e842 c4bb
00000010: 5723 f93b 4c89 a2bb ae58 a1bb ed2d a8bb
00000020: 3900 f8bb 625c 183c 70d4 08bc 1c69 ecbb
00000030: 8242 1d3c ee70 1fbc adc8 15bc de3e 1abc
00000040: ea7f a93b 3e45 dbbb 0811 0b3c f7dc ca3b
00000050: 1685 00bc e3c9 b23b 92fa b43b edd6 b83b
00000060: 3d58 b13b 89b4 bbbb 0d81 253b 2eea 1c3b
00000070: 8730 93bb 4299 ef3b 6a9e eb3b 5f84 bf3b
00000080: f758 d53b b598 b7bb c8e7 243b 8c16 aa3b
00000090: 3a3a bcbb 5293 e03b 0b19 de3b fd0c ec3b
000000a0: 8cf0 b6bb 94a0 e33b 2f5a 0cbc e399 d5bb
000000b0: f2e3 053c 83d8 c2bb 8e17 c6bb 1b11 cbbb
000000c0: bff8 a1bb 91bc a13b e913 d5b9 e53a 2fbb
000000d0: dfda 583b f62e ecbb 4d34 ebbb 5347 d3bb
000000e0: c304 163a 5d6b c7ba 5e33 19bb 9a78 e139
000000f0: cc33 9f39 cc5c 0c3a 0bab 07b8 38b2 483a
00000100: 474c d1bb 7921 df3b 4af4 cabb 6e56 f7bb
00000110: 6e1e fa3b 5f0d dcbb a79e c6bb 777c ddbb
00000120: 4c04 66ba 981a 8d3a 6b2c 9f3a b2b5 803a
00000130: 70f0 e0b9 8930 45bb 5f4b 45bb a41d 10bb
00000140: bc35 443b 21ec f2ba f483 0fbb 3c06 163b
00000150: 67f4 b3ba d089 f53a 10ac 2e3b f2dd 2a3b
00000160: 659e 4fbb 0a2a 9e3b dc7d 15bc 4c52 b5bb
00000170: 4243 cc3b f27c 4abb 627f 23bb bf15 47bb
00000180: 87fb 453b 127b 99bb 0256 e53b c18d 963b
00000190: 8ab7 b6bb 2cfe 573b cf0a 423b 19ba 5a3b
000001a0: f14f 6f3b faed 96bb 3749 ed3b 8df7 a23b
000001b0: 960c c5bb d597 713b be4b 753b b444 823b
000001c0: e625 9ebb 9a2a d33b 207a 01bc 21a6 bebb
000001d0: 1c4c f83b 35e4 aebb 6c95 abbb e1f7 b0bb
000001e0: fb67 bfbb 7ab7 da3b 8062 01bc d142 d3bb
000001f0: 0e63 023c 38f2 ccbb 82ae c6bb 0e56 d4bb
00000200: 8ac2 013b fdd5 b9ba 1bd2 86ba b98c 38ba
00000210: 67aa d8ba c74b 4a3b f3cf 3c3b 9a5d 243b
00000220: 02b3 b73b 2dba 12bc 4e66 033c 874e fb3b
00000230: 76a7 19bc 751f 123c d4c3 fa3b 2c9c 0c3c
00000240: 8336 b8bb 5301 e43b 3510 0cbc 2a94 d6bb
00000250: 386e 063c 6f62 c4bb ff9c c6bb f971 ccbb
00000260: 3160 9d3b acb6 99bb c1cc b53b b37e a33b
00000270: 16ad 8abb 1405 883b b281 983b a9fe 973b
00000280: 66fa cd3a 00bc 0fbb bef8 503a cb25 0f3b
00000290: 285e 57bb 89cc 603b 253f 603b 963b 5e3b
000002a0: 104f 86bb f3bb b13b aadd eebb 738c a1bb
000002b0: 8d9a db3b 8c08 92bb 379e 85bb 747e 8ebb
000002c0: b86c d9ba 4223 4e3b 730f f4bb c9a4 1ebb
000002d0: 740e a23b 790a 4ebb 8c59 fdba b44b 23bb
000002e0: 3930 a7bb 9081 d93b 1a55 0bbc d402 cbbb
000002f0: 5cb1 003c 7924 afbb 87d8 aebb 0a16 b5bb
00000300: 71a9 b7bb 7f9c e33b 3520 0bbc 6a7d d5bb
00000310: e332 063c bbd0 c3bb 409f c5bb 8c82 cbbb
00000320: f0f3 e8bb a729 053c a26c 17bc 7c80 ffbb
00000330: 4f5a 1d3c 4434 fdbb d08b e5bb fef5 fbbb
00000340: 3cb8 2e3a 40e5 cdba 289c c93b 0c9e 293b
00000350: bce6 99bb db2f c13a 3ac6 1e3a 9e5f f13a
00000360: d006 b9bb 04b1 e43b cbbe 0bbc b8f0 d6bb
00000370: 5a90 063c d8ba c5bb f4e2 c8bb cf32 cebb
00000380: deff 70bb 09fb 6e3b f214 f8bb 69a8 7cbb
00000390: d1ae b33b 8b65 57bb 49ed 2dbb 88b9 58bb
000003a0: 3208 eaba 7965 e63a e06c 07bb 0c57 2cbb
000003b0: 87c5 193b 8fd6 50ba ee19 8aba 4c23 e0ba
000003c0: 80f1 b93b 9cd7 e3bb 5f3c 083c 8914 d63b
000003d0: a673 06bc 506f c83b 06e8 cc3b 6be7 d13b
000003e0: 4643 16b7 3184 61ba 27ae e039 aa82 18ba
000003f0: 82a9 0abb 1571 103b e5c4 9b3a 0de0 913a

base_model.model.backbone.encoder.layer.0.attention.attention.query.lora_A.weight f4 [8, 384]
0.00019504692 -0.03331634 0.009838595 -0.0023373028 0.00048756818 0.042416748 -0.05082173 -0.006391331
0.026699036 -0.023542585 -0.033501163 0.020240914 0.022942662 0.02722403 0.033522107 -0.021474347
0.022173796 -0.013455444 -0.017367035 0.030675018 0.04548146 -0.037278302 0.043797977 -0.044438172
-0.012870991 -0.0031443818 0.04127937 -0.0051531726 -0.044469565 0.015468423 0.03066453 -0.013104574
-0.011340854 -0.031896863 -0.014481819 -0.030878684 0.04249777 -0.034790672 0.010332835 0.03360769
0.028523913 0.01215511 0.028268535 0.042730127 -0.040398378 0.004077958 -0.03312621 0.04235423
-0.02199273 0.037487224 0.00024981843 -0.0014458516 -0.040961046 -0.00869778 -0.03710797 -0.04172911
0.047220934 0.014580868 -0.033661798 -0.02266458 -0.00024006347 0.042027272 0.011951326 -0.0005281415
-0.03212999 0.00052641006 -0.01916995 -0.017378401 -0.021202963 -0.043350708 0.040703468 0.008917984
-0.0046778684 0.027537873 0.032884903 0.04134361 -0.0010753955 0.03038688 -0.0059293713 -0.02359657
-0.04601744 -0.016119193 -0.013663137 0.02102124 0.011053774 0.0049863453 -0.0397744 -0.0071141804
0.037325285 -0.019160185 -0.024168916 0.020160772 0.045864828 -0.028208816 0.02073945 -0.050081566
0.026099047 0.017028378 -0.011460372 -0.03512348 0.011486004 0.044112094 0.019691862 -0.033531718
0.033081483 0.01848261 0.03054881 0.01578798 0.021190125 0.0150312735 0.016289648 0.010692359
-0.019875655 0.025243742 -0.026254516 0.01566051 0.019196883 0.001160718 -0.030330615 -0.020132603
0.038218245 0.0015546734 0.04776466 -0.009841767 0.0054080915 -0.046852306 0.05150666 -0.037859444
0.03554786 -0.023774398 0.008647933 0.0109137185 -0.04705938 -0.050854515 0.04275714 -0.0468003
0.023201868 0.04094862 0.041272666 -0.007857919 0.024644004 -0.041167513 0.015094119 0.013113311
0.014218054 -0.039444588 -0.038893774 -0.026517563 0.04342559 -0.02076666 0.010935241 -0.003301477
-0.0037884188 -0.05661866 -0.037711166 0.025449103 -0.010245959 0.026403004 -0.04060825 0.037411146
0.018949341 0.012162761 -0.021089667 0.007107711 0.021235881 -0.0277249 -0.0319725 0.047131807
-0.028608713 -0.0005230252 -0.0035031145 -0.030705545 0.047087546 -0.050034005 -0.055575535 0.011743255
0.029170621 0.049308382 -0.009182343 0.01334666 0.010045921 0.032662142 0.019143574 0.018599028
-0.040016875 0.04986071 0.03906608 -0.04035155 -0.03596016 0.006136313 -0.042028364 -0.049267843
0.046218432 0.051842626 -0.00831425 -0.010343529 0.037696946 -0.02877668 0.04361365 -0.03528944
0.053189684 0.014238431 0.030898629 0.0034328003 -0.039771162 -0.039836973 0.047313873 -0.0038532119
0.028125327 0.033767316 -0.025397463 -0.019070351 0.033803668 0.046452243 0.007849455 0.03899079
0.037030358 0.00867398 -0.006438828 -0.007756006 0.0359452 0.016317187 0.023901207 -0.05044195
-0.03555505 -0.010332101 -0.023380129 -0.023781862 -0.04013962 0.04507339 -0.0056297895 -0.051181372
-0.037506685 0.0028449025 0.014005595 0.050896365 -0.010082409 -0.01401227 0.04768949 0.027329298
0.024267908 -0.048365556 0.016126314 0.03735657 0.03534836 0.009856449 -0.01653417 -0.0057542357
-0.038886335 -0.017065965 -0.017054023 0.017871177 0.023942199 0.04842568 0.028122503 0.029819636
00000000: 8285 4c39 b776 08bd 0f32 213c 6f2d 19bb
00000010: 4ba0 ff39 2fbd 2d3d 722a 50bd 5f6e d1bb
00000020: f0b7 da3c 61dc c0bc 8438 09bd 46d0 a53c
00000030: 40f2 bb3c ee04 df3c 7a4e 093d f8ea afbc
00000040: d2a5 b53c 3974 5cbc 5045 8ebc 2d4a fb3c
00000050: c44a 3a3d 22b1 18bd 8265 333d cd04 36bd
00000060: d9e0 52bc f911 4ebb 8f14 293d f2db a8bb
00000070: b825 36bd 456f 7d3c 2e34 fb3c 91b4 56bc
00000080: fdce 39bc 49a6 02bd 2745 6dbc 4bf5 fcbc
00000090: 2412 2e3d aa80 0ebd 0d4b 293c 38a8 093d
000000a0: fbaa e93c 3a26 473c 6a93 e73c c905 2f3d
000000b0: c578 25bd 64a0 853b 59af 07bd a17b 2d3d
000000c0: 192a b4bc 348c 193d 10fa 8239 bb82 bdba
000000d0: c5c6 27bd 2281 0ebc 87fe 17bd 25ec 2abd
000000e0: bd6a 413d 98e4 6e3c f4e0 09bd 12ab b9bc
000000f0: 8cb9 7bb9 ca24 2c3d 7fcf 433c fa72 0aba
00000100: bd9a 03bd c8fe 093a 4d0a 9dbc 265d 8ebc
00000110: d6b1 adbc 8390 31bd aeb8 263d bc1c 123c
00000120: ce48 99bb 1b97 e13c 52b2 063d eb57 293d
00000130: 49f4 8cba e8ed f83c 2c4b c2bb 984d c1bc
00000140: c87c 3cbd 660c 84bc 5adb 5fbc bc34 ac3c
00000150: e31a 353c 7f64 a33b 7bea 22bd 121e e9bb
00000160: 66e2 183d d2f5 9cbc e4fd c5bc 3428 a53c
00000170: c2dc 3b3d 2d16 e7bc c7e5 a93c 5422 4dbd
00000180: abcd d53c 197f 8b3c 49c4 3bbc a3dd 0fbd
00000190: cb2f 3c3c e2ae 343d d450 a13c 8e58 09bd
000001a0: 7380 073d d868 973c 7f41 fa3c cb55 813c
000001b0: ea96 ad3c bb45 763c de71 853c 012f 2f3c
000001c0: 45d2 a2bc f7cb ce3c b613 d7bc 784a 803c
000001d0: c842 9d3c 3c23 983a e977 f8bc 21ed a4bc
000001e0: bc8a 1c3d 2fc6 cb3a e0a4 433d 5d3f 21bc
000001f0: 5c36 b13b 34e8 3fbd a6f8 523d 8112 1bbd
00000200: a29a 113d 87c2 c2bc 0fb0 0d3c 74cf 323c
00000210: 56c1 40bd d34c 50bd 1c22 2f3d acb1 3fbd
00000220: d811 be3c bdb9 273d 870d 293d 80be 00bc
00000230: 39e2 c93c 449f 28bd 534d 773c 36d9 563c
00000240: d7f2 683c a690 21bd 144f 1fbd 5c3b d9bc
00000250: 08df 313d d81e aabc ba29 333c 985d 58bb
00000260: 1f47 78bb f8e8 67bd 0677 1abd a37a d03c
00000270: abde 27bc 1d4b d83c d654 26bd 6e3c 193d
00000280: a63b 9b3c 5146 473c 3dc4 acbc cde7 e83b
00000290: dff6 ad3c 541f e3bc 99f5 02bd 480d 413d
000002a0: d25c eabc a11b 09ba 8294 65bb 328a fbbc
000002b0: dfde 403d 75f0 4cbd 2ca3 63bd c866 403c
000002c0: 3af7 ee3c 96f7 493d 8a71 16bc f3ab 5a3c
000002d0: a697 243c bdc8 053d fcd2 9c3c fd5c 983c
000002e0: bce8 23bd be3a 4c3d c103 203d ab47 25bd
000002f0: f64a 13bd 2013 c93b ef25 2cbd 14cd 49bd
00000300: 8a4f 3d3d ef58 543d 7e38 08bc e877 29bc
00000310: 1d68 1a3d 12bd ebbc 3aa4 323d a98b 10bd
00000320: 6ddd 593d 4f48 693c 1f1f fd3c d5f8 603b
00000330: 16e7 22bd 182c 23bd 31cc 413d 2b86 7cbb
00000340: 1667 e63c 994f 0a3d 570e d0bc 6d39 9cbc
00000350: b775 0a3d b544 3e3d 009b 003c ceb4 1f3d
00000360: 25ad 173d 4f1d 0e3c cefc d2bb 1826 febb
00000370: 463b 133d 9fab 853c 77cc c33c 389c 4ebd
00000380: 2ca2 11bd f947 29bc af87 bfbc 2ed2 c2bc
00000390: 7169 24bd e09e 383d 197a b8bb 8fa3 51bd
000003a0: 9ca0 19bd 8b71 3a3b b977 653c b578 503d
000003b0: b030 25bc b893 65bc 0e56 433d b1e1 df3c
000003c0: 7ecd c63c f61a 46bd 551b 843c 3403 193d
000003d0: 71c9 103d f27c 213c ab72 87bc 078e bcbb
000003e0: 4747 1fbd eccd 8bbc e1b4 8bbc 9366 923c
000003f0: 6e22 c43c 015a 463d 2a61 e63c 4f48 f43c

base_model.model.backbone.encoder.layer.0.attention.attention.query.lora_B.weight f4 [384, 8]
0.0020302678 -0.0034081195 -0.0005820554 0.0032778094 0.0026542938 0.0036504578 -0.003547653 -0.0067034313
0.0012831254 0.0042794757 0.0064239143 0.00437032 -0.001782562 0.0023924077 0.0041139964 0.0022610556
-0.0007315385 0.0046063326 0.004041424 0.000593377 -0.0026759233 -0.0015479699 0.0037224113 0.0072447215
-0.00010845408 -0.0041908454 -0.0025796236 0.0012015444 0.00026620275 0.0018603096 -0.0056384443 -0.00284678
0.0017425217 -0.0015479692 0.0016174514 0.0061967075 -0.0011927794 0.006814734 -0.007441825 -0.00025714174
0.00071612746 -0.005009904 -0.0047818115 -0.0015342406 0.0027808277 0.0009264879 -0.0038808144 -0.0072228923
-0.0001122017 0.0039437055 0.0035517719 -0.00086190365 0.00014341832 -0.0016033094 0.008339549 0.0020440551
0.0014196725 0.0047623497 0.005529507 0.004346844 -0.0015883143 0.0024902269 0.0033076096 0.005703734
0.0011018565 0.005083048 0.0074684336 0.0038389747 -0.002047684 0.0014774653 0.0049124816 0.0068540773
-4.0262275e-05 0.0017252554 0.0016918599 -0.0025819705 -0.00046406785 -0.00042114913 0.0044182083 0.0023414039
0.0012579324 -0.0011922659 0.0018734954 0.0055720606 0.0009767787 0.0033891029 0.00020922624 -0.005963411
0.0037087295 0.001434364 0.007834782 0.010236198 6.916231e-05 0.009808796 -0.00132136 -0.0016319782
9.537312e-05 0.0044585466 0.004455952 0.0009153963 -0.0015150552 -0.0016239109 0.004275723 0.0077605476
-0.0017183113 -0.005350002 -0.006145225 -0.0056983624 0.0024239416 -0.0039241393 -0.001492046 -0.006311014
0.001864045 -0.002828689 0.0005335142 0.0043744436 0.0023853 0.0041299644 -0.00329582 -0.005780689
0.0009231406 0.00650467 0.007442522 0.006176314 -0.0024782121 0.0028911598 0.005343772 0.0055786045
0.0008496771 -0.00357688 -0.001336904 0.0015741172 0.0013394875 0.0035269493 -0.006451036 0.00058090943
-0.0013638278 -0.0044473284 -0.006371925 -0.0031880487 0.0020990234 -0.0014631225 -0.0040904377 -0.0048562586
0.0010141836 -0.0049554547 -0.0043352786 -0.0009856243 0.0029116448 0.0012448466 -0.003939071 -0.0072462764
0.0009680161 0.0007076699 0.0028296497 0.0054751425 0.0011006092 0.0021558718 0.0036402824 -0.0009695904
0.0011859245 -0.0055211782 0.0025546998 0.0038472242 0.00048334 0.007975509 -0.0117311785 -0.0074004675
0.002502481 0.005573578 0.008582227 0.008406673 -0.000102967366 0.005888853 0.0034223306 0.0033092047
-0.0010858427 0.00047998465 -0.0019125871 0.0029650917 -0.0028607196 -0.0015690407 -0.0003950171 -0.009181995
0.0015256902 -0.0041176635 -0.002330989 0.0013954084 0.0028640407 0.0026546721 -0.0036813258 -0.007070989
0.0011144155 -0.0048768367 -0.003915903 -0.0005140093 0.0029832425 0.0015185245 -0.0039437376 -0.007232723
0.0019820223 0.0050884527 0.0078114173 0.008637634 -0.0007073234 0.005961881 0.0036832439 -0.0018828203
-0.0015753475 -0.0042910688 -0.005444821 -0.006215145 0.0038617717 -0.0044163433 -0.0002555378 -0.0033253878
0.0007141688 -0.005073762 -0.004878292 -0.0016571549 0.0028204313 0.0008007632 -0.0039126603 -0.0071959286
0.0006303215 0.0034783757 0.0051354514 0.007453913 -0.0021287596 0.0032243852 0.0052294875 -0.0038926823
0.0017017229 0.0013242291 0.0005198575 0.0037199962 -0.0028304458 0.0012981716 -0.0021023555 0.0012447275
-0.00040934535 0.0051289583 0.005418767 0.0022893227 -0.0028065857 -0.00013650206 0.0038990278 0.00699158
-0.0021546585 -0.006199176 -0.00761779 -0.0073183924 -0.00027750694 -0.0046446044 -0.006702926 -0.0015211764
00000000: 3e0e 053b c25a 5fbb 1495 18ba 84d0 563b
00000010: a9f3 2d3b 853c 6f3b be7f 68bb 75a8 dbbb
00000020: 8b2e a83a d83a 8c3b b37f d23b e734 8f3b
00000030: dba4 e9ba f1c9 1c3b b4ce 863b 382e 143b
00000040: b8c4 3fba b8f0 963b ec6d 843b db8c 1b3a
00000050: 8b5e 2fbb 40e5 caba b3f3 733b 2165 ed3b
00000060: d771 e3b8 5c53 89bb e70e 29bb 247d 9d3a
00000070: 2191 8b39 a2d5 f33a b3c2 b8bb 0b91 3abb
00000080: 5365 e43a 3ae5 caba aa00 d43a c00d cb3b
00000090: 0957 9cba 224e df3b 8dda f3bb fbd0 86b9
000000a0: 80ba 3b3a 1f2a a4bb beb0 9cbb 9218 c9ba
000000b0: 8c3e 363b 8ddf 723a 4355 7ebb 03ae ecbb
000000c0: d44d ebb8 333a 813b d8c4 683b 60f1 61ba
000000d0: 9062 1639 2326 d2ba 9ba2 083c 8ef5 053b
000000e0: 4e14 ba3a 7c0d 9c3b de30 b53b f86f 8e3b
000000f0: fc2e d0ba 1333 233b 7bc4 583b 63e6 ba3b
00000100: 2b6c 903a b28f a63b c3b9 f43b 4f97 7b3b
00000110: 7032 06bb 82a7 c13a e2f8 a03b 2b98 e03b
00000120: 4adf 28b8 f721 e23a 66c1 dd3a 4736 29bb
00000130: 224e f3b9 aecd dcb9 9ec6 903b 3d72 193b
00000140: 35e1 a43a ce45 9cba 1390 f53a d595 b63b
00000150: 4107 803a b61b 5e3b be63 5b39 b868 c3bb
00000160: 280e 733b 4501 bc3a 755d 003c bab5 273c
00000170: 3c0b 9138 13b5 203c 7c31 adba 1ae8 d5ba
00000180: 0e03 c838 0019 923b 3c03 923b 35f7 6f3a
00000190: d194 c6ba 68d9 d4ba 5d1b 8c3b 314c fe3b
000001a0: f638 e1ba 124f afbb e25d c9bb 54b9 babb
000001b0: feda 1e3b 1196 80bb c290 c3ba 9fcc cebb
000001c0: f952 f43a 8761 39bb 88db 0b3a 7e57 8f3b
000001d0: b152 1c3b a754 873b affe 57bb ef6b bdbb
000001e0: ebfe 713a 2025 d53b 66e0 f33b ad62 ca3b
000001f0: 8069 22bb 9d79 3d3b cf1a af3b bacc b63b
00000200: ddbc 5e3a 176a 6abb 0e3b afba 9c52 ce3a
00000210: be91 af3a 6424 673b 3663 d3bb 2c48 183a
00000220: 78c2 b2ba e5ba 91bb 95cb d0bb 95ee 50bb
00000230: c58f 093b 3fc6 bfba 1409 86bb 4021 9fbb
00000240: 5bee 843a 5e61 a2bb f40e 8ebb 1030 81ba
00000250: 4bd1 3e3b 1f2a a33a 5313 81bb 2c72 edbb
00000260: 76c2 7d3a ec82 393a a571 393b d368 b33b
00000270: 5142 903a 8749 0d3b ce91 6e3b 1c2c 7eba
00000280: 0671 9b3a 00eb b4bb c06c 273b b621 7c3b
00000290: cc68 fd39 b6ab 023c 2134 40bc 9f7f f2bb
000002a0: aa00 243b 90a2 b63b 789c 0c3c 24bc 093c
000002b0: 2ff0 d7b8 48f7 c03b 2e49 603b 3edf 583b
000002c0: d652 8eba 73a6 fb39 c6af faba fc51 423b
000002d0: e97a 3bbb 45a8 cdba 4c1a cfb9 1470 16bc
000002e0: abf9 c73a 77ed 86bb 82c3 18bb 23e6 b63a
000002f0: a1b2 3b3b 02fa 2d3b 6642 71bb c1b3 e7bb
00000300: 9411 923a dfcd 9fbb fa50 80bb 95be 06ba
00000310: 8182 433b 3a09 c73a 783a 81bb 7a00 edbb
00000320: d1e4 013b 09bd a63b ebf6 ff3b dd84 0d3c
00000330: ab6b 39ba e25b c33b 9462 713b f7c8 f6ba
00000340: e47b ceba 189c 8cbb 786a b2bb 6aa8 cbbb
00000350: c715 7d3b f9b6 90bb b4f9 85b9 c0ee 59bb
00000360: 0f37 3b3a cd41 a6bb 14da 9fbb e434 d9ba
00000370: fcd6 383b 4fea 513a c635 80bb d3cb ebbb
00000380: 293c 253a 76f5 633b 4a47 a83b f43f f43b
00000390: a982 0bbb 3550 533b 1f5c ab3b 5f1c 7fbb
000003a0: 580c df3a c191 ad3a 0c47 083a 2ecb 733b
000003b0: 007f 39bb 6927 aa3a acc7 09bb 2026 a33a
000003c0: 679d d6b9 d210 a83b ea8f b13b 7608 163b
000003d0: b2ee 37bb fe21 0fb9 d586 7f3b a019 e53b
000003e0: 2c35 0dbb 7522 cbbb a79e f9bb 20cf efbb
000003f0: 5a7e 91b9 c431 98bb 38a4 dbbb 3662 c7ba

base_model.model.backbone.encoder.layer.0.attention.attention.value.lora_A.weight f4 [8, 384]
-0.025282344 0.013957118 0.020874063 -0.029517788 -0.050267946 -0.03551737 0.02419086 0.015434479
-0.012166256 0.0021427977 -0.033630546 -0.008194152 -0.01600751 -0.005732593 -0.049400307 0.019548567
-0.033011436 -0.049856454 0.05463864 -0.024681421 0.04175339 0.0019288663 -0.00084501127 -0.042932622
-0.059943993 -0.017932434 0.008995133 0.034785073 0.053403884 0.035021227 0.003274963 -0.03505189
-0.0323254 -0.0377973 0.023449259 -0.021242088 0.006981506 -0.01904706 -0.013938586 0.008312103
0.003019596 0.009585442 -0.034842562 0.029041598 -0.03947996 0.006206346 0.03881133 -0.037325807
0.0058595063 -0.008018096 -0.0020379585 -0.029409211 0.040346045 0.009716202 -0.047130026 0.047005143
-0.042756267 0.037463132 0.01861215 -0.020201843 -0.048372947 -0.033326354 0.015599703 -0.018391706
0.02109962 -0.02297374 0.015614252 -0.054333888 0.044729277 0.015018257 -0.018599825 0.0106360465
-0.03563886 -0.022635464 0.033433642 0.022904227 0.019265832 0.014829935 -0.024117032 -0.005439525
0.020701658 0.0019489822 0.006788128 0.040871974 0.025794126 -0.043659512 -0.03953212 -0.041796066
0.019990927 0.02976282 8.155059e-05 -0.018295426 0.026647972 0.03654069 0.010486082 -0.008965318
-0.04824758 -0.01957774 -0.0025139553 0.042910125 0.04597126 0.03541053 -0.042461444 -0.036109198
-0.042652447 0.024524307 -0.019859845 -0.041636493 0.02065062 -0.011908271 -0.00989338 0.007387274
-0.00720476 0.050817683 0.008318743 -0.004028612 -0.009625553 -0.024664322 -0.008382095 0.043765754
0.062351126 0.04032214 -0.013611854 -0.05711979 0.008496097 0.008025907 -0.015766047 -0.042499006
0.039329484 -0.041694976 -0.03785555 -0.030120969 -0.017454067 0.04206805 -0.023478042 -0.03336119
-0.022294775 -0.042652268 -0.016505672 0.040357593 -0.018189482 -0.04374352 0.015303337 0.01945118
0.028199995 -0.04919092 -0.004904383 -0.034752212 -0.00594549 -0.007528958 0.0052370797 -0.012484633
-0.02656725 0.040940683 0.02016473 -0.025447972 0.028685957 0.012856107 0.026722338 0.036402617
-0.020292016 0.020884028 -0.02636727 -0.046670765 -0.010252253 0.043443028 -0.032671712 0.033822577
0.00443445 6.1317456e-05 -0.019052826 -0.023535429 -0.01939814 -0.054209143 -0.04078931 0.01961673
0.012162441 -0.04079237 -0.003960279 0.019880246 0.03280815 -0.037723918 0.009230134 -0.046125956
-0.02668306 -0.057082452 -0.020269461 0.03208731 0.039940305 -0.0407272 -0.015420176 -0.03215062
-0.01753087 0.035908498 -0.038784806 -0.044971086 -0.031305186 -0.0292726 0.02825267 0.0057094274
0.04002853 -0.024006099 -0.032790788 -0.03082228 -0.042012893 -0.038855392 -0.051616892 0.02298771
0.04903778 0.009798071 -0.021158291 -0.04169407 -0.044221524 0.036951363 -0.058655106 -0.033345662
0.019279547 -0.017397346 0.012543132 0.025535282 -0.05297949 -0.022435246 0.029903812 -0.052929208
-0.05131366 0.014208933 0.017472636 0.011070383 -0.012012542 0.020936899 0.015100545 -0.011052746
-0.03520602 0.050849907 -0.042249803 0.06076205 0.00540136 0.031824376 0.008486274 -0.051853675
0.022426901 0.04515089 0.014559196 -0.033236597 0.0016897193 0.055595536 -0.020835567 -0.015318341
0.028398301 -0.040557552 -0.017955497 -0.02127067 0.0039289743 -0.019248901 0.023138747 0.03824861
00000000: eb1c cfbc 65ac 643c 1500 ab3c 4acf f1bc
00000010: c3e5 4dbd a97a 11bd e92b c63c e6e0 7c3c
00000020: fa54 47bc 2e6e 0c3b 2fc0 09bd c440 06bc
00000030: 2e22 83bc 7ad8 bbbb fa57 4abd 5124 a03c
00000040: 0037 07bd 4836 4cbd c4cc 5f3d b130 cabc
00000050: 9a05 2b3d 03d2 fc3a bf83 5dba 1eda 2fbd
00000060: d587 75bd 0ae7 92bc 5360 133c cb7a 0e3d
00000070: 08be 5a3d 6b72 0f3d c3a0 563b 9292 0fbd
00000080: a367 04bd 57d1 1abd a918 c03c e303 aebc
00000090: 1ec5 e43b 9408 9cbc ab5e 64bc 7d2f 083c
000000a0: 6ae4 453b 420c 1d3c 13b7 0ebd a5e8 ed3c
000000b0: bdb5 21bd 9b5e cb3b a1f8 1e3d f2e2 18bd
000000c0: 1a01 c03b 555e 03bc 458f 05bb 96eb f0bc
000000d0: e541 253d b430 1f3c 6a0b 41bd 7788 403d
000000e0: 3221 2fbd f172 193d 8278 983c 567e a5bc
000000f0: b622 46bd 3781 08bd e695 7f3c 34aa 96bc
00000100: 1cd9 ac3c 6d33 bcbc ebd2 7f3c 368d 5ebd
00000110: 0c36 373d 230f 763c a95e 98bc d042 2e3c
00000120: 0efa 11bd 026e b9bc b7f1 083d a5a1 bb3c
00000130: 61d3 9d3c 41f9 723c 1591 c5bc 0b3e b2bb
00000140: 8696 a93c fe74 ff3a f26e de3b 5f69 273d
00000150: 344e d33c 51d4 32bd 6fec 21bd 5a32 2bbd
00000160: 03c4 a33c 28d1 f33c 2406 ab38 4ae0 95bc
00000170: d94c da3c b1ab 153d d1cd 2b3c 45e3 12bc
00000180: 419f 45bd 7f61 a0bc 2cc1 24bb 87c2 2f3d
00000190: 5c4c 3c3d a20a 113d 0dec 2dbd 3de7 13bd
000001a0: 55b4 2ebd 33e7 c83c 1db1 a2bc 078b 2abd
000001b0: 7d2b a93c e91a 43bc d817 22bc f210 f23b
000001c0: e815 ecbb 3426 503d 564b 083c 7202 84bb
000001d0: 7fb4 1dbc d50c cabc 0e55 09bc b843 333d
000001e0: e563 7f3d d428 253d 4104 5fbc 71f6 69bd
000001f0: 3733 0b3c 187f 033c cc27 81bc 7013 2ebd
00000200: f417 213d 5ac8 2abd 6c0e 1bbd 40c0 f6bc
00000210: d5fb 8ebc 8c4f 2c3d 0655 c0bc bea5 08bd
00000220: 88a3 b6bc 25b4 2ebd e736 87bc 014e 253d
00000230: 1c02 95bc 682c 33bd d9ba 7a3c 1558 9f3c
00000240: ad03 e73c 6b7c 49bd f2b4 a0bb 5658 0ebd
00000250: 63d2 c2bb 7ab5 f6bb cf9b ab3b 598c 4cbc
00000260: 90a3 d9bc 6bb1 273d 8130 a53c 4478 d0bc
00000270: d0fe ea3c 6ca2 523c cee8 da3c e91a 153d
00000280: 713b a6bc fb14 ab3c 2c00 d8bc d829 3fbd
00000290: 11f9 27bc 51f1 313d c6d2 05bd 8b89 0a3d
000002a0: dd4e 913b 8f97 8038 ac14 9cbc 5fcd c0bc
000002b0: d9e8 9ebc 680a 5ebd b112 27bd 44b3 a03c
000002c0: fa44 473c e615 27bd 3ac5 81bb e6db a23c
000002d0: d761 063d 6584 1abd fd39 173c 92ee 3cbd
000002e0: 6f96 dabc 4acf 69bd 240c a6bc fc6d 033d
000002f0: 7298 233d 91d1 26bd e8a4 7cbc 5eb0 03bd
00000300: e69c 8fbc ca14 133d d1dc 1ebd 9a33 38bd
00000310: de39 00bd 17cd efbc 2572 e73c 2616 bb3b
00000320: f5f4 233d 70a8 c4bc a24f 06bd 027f fcbc
00000330: b615 2cbd d526 1fbd 3c6c 53bd b950 bc3c
00000340: d7db 483d 1788 203c 2754 adbc 67c7 2abd
00000350: a121 35bd 505a 173d 5640 70bd 7695 08bd
00000360: 24f0 9d3c e184 8ebc b581 4d3c 5e2f d13c
00000370: 0601 59bd 1fca b7bc d7f8 f43c 4ccc 58bd
00000380: 462e 52bd 96cc 683c c622 8f3c 8d60 353c
00000390: 41d0 44bc dc83 ab3c 4768 773c 9416 35bc
000003a0: 3034 10bd fe47 503d 210e 2dbd a1e1 783d
000003b0: e4fd b03b 475a 023d 030a 0b3c 8564 54bd
000003c0: 9fb8 b73c 24f0 383d b289 6e3c 1923 08bd
000003d0: 9279 dd3a 25b8 633d 5aaf aabc c7f9 7abc
000003e0: 8ea3 e83c ad1f 26bd 6817 93bc d43f aebc
000003f0: a0be 803b dfaf 9dbc 788d bd3c 93aa 1c3d

base_model.model.backbone.encoder.layer.0.attention.attention.value.lora_B.weight f4 [384, 8]
-0.0016805824 -0.0010514983 -0.0016970158 0.0017743182 -0.0013264451 0.0019743317 0.001595654 0.00080783945
0.0033541406 0.0058044232 0.004129191 -0.0039134827 0.004804348 -0.0038642224 -0.0043404833 -0.0036978233
-0.00095192576 -0.0013860182 -0.0011717341 0.00092095 -0.0024564962 0.0015460708 0.0009612292 0.00095570425
0.0034811252 0.004252463 0.0040134173 -0.003863501 0.0044907928 -0.0032234443 -0.0037886898 -0.004145447
-0.0021233843 -0.0040635606 -0.00310686 0.0023711855 -0.0028913077 0.0032215014 0.003431828 0.0024356705
-0.0026220127 -0.0030280456 -0.0028878737 0.0028667913 -0.0030593514 0.0025239342 0.0030723445 0.0035080416
0.001521598 0.0043547815 0.0019907635 -0.0021392282 0.0020727846 -0.0022058047 -0.002541031 -0.002344795
-0.00013556602 -0.0012733393 0.00070942024 0.0007056346 -0.00023874662 0.00027583452 0.000154208 -0.000389589
0.0010655964 0.0011477127 0.001346335 -0.0011147833 0.0016897739 -0.00077647297 -0.001145366 -0.0019830747
-0.0006136739 -0.0007581591 -0.0003948927 -0.00014777479 -0.0004886273 0.0007857588 0.0001618214 0.00034874058
-0.0013904843 -0.00037576022 -0.0011700826 0.0016196942 -0.0014345087 0.0009926936 0.001180129 0.0013530543
0.008382254 0.009011647 0.009335652 -0.0076471833 0.0071307295 -0.007939698 -0.008015147 -0.009547926
0.00076234207 0.0014946808 0.0012183951 -0.00034897737 -0.00032685927 -0.0003083616 -0.00027212006 -0.0015305706
-0.0044543105 -0.0021049452 -0.0034349111 0.003580249 -0.005662044 0.0041199033 0.003685454 0.0040861815
-0.0017793763 -0.0038656117 -0.0027446374 0.0030543252 -0.0022404194 0.003288882 0.0033864134 0.0023782705
-0.0014843813 -0.0016553038 -0.0017417606 0.001701287 -0.0015613119 0.0019411568 0.0017821981 0.0016827885
0.00011955952 0.0035073988 0.0017945005 -0.00075580535 0.00035277058 -0.0014265382 -0.0018746073 -0.001185693
-0.0052504255 -0.0030108576 -0.005069347 0.004601101 -0.0051976596 0.0038897123 0.004499151 0.00648814
0.006723067 0.0058737784 0.0062879478 -0.0062223366 0.006127922 -0.0063189166 -0.006457303 -0.007071117
-0.0024673631 -0.00288531 -0.003216858 0.0029229475 -0.0018847851 0.0027853525 0.0030452318 0.0027428037
-0.002592995 -0.0015544532 -0.0028103846 0.002783669 -0.0024328714 0.0024265042 0.002589866 0.002676423
-0.0031254094 -0.0012553693 -0.0024414596 0.0023982862 -0.0034210864 0.0016520392 0.0019666338 0.0035327286
0.001013024 0.00326431 0.0020991247 -0.0019692848 0.0018332838 -0.0024161604 -0.0026464008 -0.0014504656
-0.0008307845 -0.00046331013 -0.00025524356 -0.00027967204 -0.00015242108 0.0011710497 0.00029824872 0.00013109867
-0.002982959 -0.0034587192 -0.003185898 0.0023591002 -0.0031053734 0.0029052212 0.0026121826 0.0031336762
-0.0045089037 -0.005044894 -0.00464246 0.004136781 -0.005108929 0.0045856326 0.0046243924 0.0049226186
-0.0008091126 -0.0021614248 -0.0011933903 0.00040084348 -0.0006258904 0.0007058677 0.00091922673 0.0009410667
0.0029750662 0.0018367007 0.0014129531 -0.003174837 0.0046109436 -0.0026268843 -0.0021581247 -0.0019352696
-0.006698045 -0.005668506 -0.006093391 0.006463024 -0.007236455 0.00584281 0.0060994197 0.007191729
0.00065499835 0.00016255809 -7.921865e-05 -0.0010843704 0.00086408306 -0.00054698467 -8.3448664e-05 0.00045641026
0.007958814 0.008238043 0.008023824 -0.0074627753 0.008988051 -0.007874169 -0.007928543 -0.008398246
-0.0013884002 0.00048695266 -0.00046975265 0.0013228174 -0.0027681205 0.0007747979 0.0006276418 0.0016258913
00000000: fd46 dcba 6ed2 89ba 676e deba 3d90 e83a
00000010: 1ddc adba ca63 013b 4325 d13a 30c5 533a
00000020: 24d1 5b3b 0833 be3b 2a4e 873b ac3c 80bb
00000030: cb6d 9d3b e53e 7dbb 9d3a 8ebb 2e57 72bb
00000040: a88a 79ba 0eab b5ba df94 99ba e96b 713a
00000050: 2bfd 20bb 87a5 ca3a 00fb 7b3a 3a88 7a3a
00000060: 9723 643b 3f58 8b3b fc82 833b ca32 7dbb
00000070: 8027 933b 6c40 53bb ab4b 78bb 88d6 87bb
00000080: 7a28 0bbb 9e27 85bb 769c 4bbb e465 1b3b
00000090: 187c 3dbb d31f 533b 85e8 603b c59f 1f3b
000000a0: 13d6 2bbb 2d72 46bb 7b42 3dbb c7e0 3b3b
000000b0: 667f 48bb 9768 253b 6359 493b 2ce7 653b
000000c0: 5b70 c73a 8eb2 8e3b 7877 023b 4b32 0cbb
000000d0: 8ed7 073b 438f 10bb 6d87 26bb 22ab 19bb
000000e0: ba26 0eb9 2de6 a6ba 63f8 393a 56fa 383a
000000f0: 0f58 7ab9 e29d 9039 e5b2 2139 c041 ccb9
00000100: 7bab 8b3a d96e 963a 8277 b03a ec1d 92ba
00000110: 677b dd3a 388c 4bba 1b20 96ba 79f6 01bb
00000120: f5de 20ba 32bf 46ba 9a09 cfb9 fef3 1ab9
00000130: 3917 00ba 61fb 4d3a 9aae 2939 2bd7 b639
00000140: e940 b6ba af01 c5b9 755d 99ba eb4b d43a
00000150: 2006 bcba 451d 823a 8fae 9a3a f858 b13a
00000160: b955 093c 96a5 133c 90f4 183c 3995 fabb
00000170: e5a8 e93b 8215 02bc f751 03bc e76e 1cbc
00000180: e9d7 473a 2ae9 c33a 8eb2 9f3a f3f6 b6b9
00000190: 4f5e abb9 98ab a1b9 56ab 8eb9 6d9d c8ba
000001a0: 77f5 91bb 1ff3 09bb 3f1c 61bb 9ca2 6a3b
000001b0: ab88 b9bb 4100 873b a887 713b 60e5 853b
000001c0: f639 e9ba 3456 7dbb 60df 33bb 132b 483b
000001d0: 00d4 12bb 498a 573b 97ee 5d3b c2dc 1b3b
000001e0: 928f c2ba c7f6 d8ba ca4b e4ba b8fd de3a
000001f0: efa4 ccba 6a6e fe3a a598 e93a 0391 dc3a
00000200: 07bc fa38 63dc 653b 7235 eb3a 3d21 46ba
00000210: 11f4 b839 aefa baba 62b5 f5ba 4169 9bba
00000220: c30b acbb cf51 45bb c41c a6bb d5c4 963b
00000230: 2151 aabb 8bea 7e3b 9d6d 933b 779a d43b
00000240: 2c4d dc3b d378 c03b 210b ce3b bee4 cbbb
00000250: bccc c83b ea0e cfbb c997 d3bb d4b4 e7bb
00000260: 7cb3 21bb 7817 3dbb ecd1 52bb ec8e 3f3b
00000270: e50a f7ba 768a 363b 8392 473b 9cc0 333b
00000280: 3def 29bb cbbe cbba 6e2e 38bb 376e 363b
00000290: cf70 1fbb fc05 1f3b beba 293b ed66 2f3b
000002a0: abd3 4cbb 348b a4ba e500 20bb 912c 1d3b
000002b0: 4e34 60bb 3d89 d83a a4e2 003b 5a85 673b
000002c0: 72c7 843a 09ee 553b 7891 093b 1e0f 01bb
000002d0: cc4a f03a 7258 1ebb 3d6f 2dbb 8d1d beba
000002e0: 01c9 59ba 6fe8 f2b9 36d2 85b9 f2a0 92b9
000002f0: 39d3 1fb9 e87d 993a 445e 9c39 8877 0939
00000300: bf7d 43bb aeab 62bb 80ca 50bb 229b 1a3b
00000310: 8583 4bbb 8665 3e3b 2731 2b3b 5d5e 4d3b
00000320: 6dbf 93bb a34f a5bb c71f 98bb d68d 873b
00000330: cd68 a7bb 1343 963b 3788 973b eb4d a13b
00000340: a11a 54ba b1a6 0dbb 896b 9cba 4d28 d239
00000350: cb12 24ba fb09 393a 43f8 703a ebb1 763a
00000360: 54f9 423b 73bd f03a d732 b93a ed10 50bb
00000370: 6617 973b ce27 2cbb 536f 0dbb dfa8 fdba
00000380: 467b dbbb e0be b9bb 12ab c7bb c6c7 d33b
00000390: c91f edbb 0b75 bf3b a4dd c73b 98a8 eb3b
000003a0: 32b4 2b3a 5b74 2a39 3022 a6b8 6f21 8eba
000003b0: a283 623a 8563 0fba 2901 afb8 594a ef39
000003c0: af65 023c dbf8 063c 5b76 033c 4c8a f4bb
000003d0: 9e42 133c a902 01bc b8e6 01bc cc98 09bc
000003e0: fbfa b5ba ae4d ff39 2249 f6b9 6362 ad3a
000003f0: 5b69 35bb cf1b 4b3a 5488 243a dc1b d53a

base_model.model.backbone.encoder.layer.1.attention.attention.key.lora_A.weight f4 [8, 384]
0.0068721306 0.03604523 -0.016829826 -0.004306464 0.042479135 0.019937536 -0.012960269 -0.026939064
-0.0045399587 0.04929172 -0.036499783 0.019170769 -0.023060646 -0.01393094 -0.011609801 -0.047924444
0.0127547365 -0.0040552616 -0.001349861 -0.014823443 -0.009738874 -0.0168268 -0.04167948 0.008828057
-0.013416583 0.05493127 -0.0057603363 0.02555842 -0.04289179 0.012630169 -0.033335336 -0.040993746
0.0062062116 -0.03933297 -0.050715793 -0.006176617 -0.009703531 0.0035642916 0.05136194 -0.024939649
-0.0052743317 -0.005853461 0.04044973 -0.022643339 0.05328838 -0.05378 -0.044862382 -0.01965961
0.0035100025 -0.048019115 -0.008570377 0.042528085 0.056365613 -0.0022956857 -0.032955516 0.017227083
0.027778458 -0.043709904 0.023971014 0.029330015 0.036901396 0.04669873 -0.00028071032 -0.005131412
-0.031872213 -0.025270356 -0.047599625 -0.036313273 0.034643773 -0.04263257 0.05113918 0.007852707
-0.056741554 -0.04449246 0.03512387 0.031651065 0.013793667 -0.043174952 0.032909628 -0.035149816
0.039328277 -0.022275135 0.003294608 0.03600396 -0.009638285 0.046356667 -0.021686276 -0.033804905
-0.04074108 -0.033999898 -0.020730663 0.02804621 -0.044809077 0.042092923 0.008133734 0.044143166
0.029704152 0.006194049 0.028708959 0.035297677 0.030528508 0.028155623 -0.03029907 -0.041693266
0.0045135785 -0.02826378 -0.036171403 0.02597062 0.053718798 -0.015153522 0.023743084 -0.033922326
0.0015112465 -0.0318275 0.049966004 -0.023662755 0.032183964 0.018940402 0.026262997 0.049106203
0.016116854 0.002873466 -0.057758745 0.03709396 -0.021339327 -0.017518323 -0.037426688 0.022569798
-0.023783239 0.004686734 0.031057484 -0.035753705 -0.032263912 -0.028852 0.042470355 -0.023376454
-0.044190053 -0.001062992 0.043214485 -0.034714546 -0.002346967 0.0445223 0.0076008784 0.027964659
-0.02791127 -0.004668409 0.013882757 0.037378434 0.004388762 0.007512779 -0.031994145 -0.05431436
-0.03113731 -0.03607143 0.006830411 0.009444127 0.034381423 0.005595617 0.057372153 -0.014715445
-0.041747678 -0.05816169 -0.049763504 0.032692853 -0.03252744 0.048415735 -0.010922715 0.04871745
0.01994469 -0.009230934 0.032921907 0.028708415 -0.0013297166 3.8763724e-06 -0.0023484624 -0.011158362
0.044235088 -0.003537575 -0.0075299847 -0.015620902 0.023746833 -0.0008668856 -0.04058 -0.007854186
0.019537605 0.010754961 -0.035820194 0.00705019 -0.009504943 0.04346085 0.0351031 0.004400011
0.014164139 0.010022355 -0.01111908 0.029707508 -0.047618408 0.011503786 0.035039786 -0.041191563
0.05277278 -0.012156736 -0.049863715 -0.0077701015 -0.0024738465 0.03265598 -0.013380712 -0.051899087
-0.047246218 -0.016423317 0.032088164 -0.030979343 0.03270729 -0.0150955245 -0.004050554 0.033723187
0.020035591 0.055414893 0.032635286 0.011999036 -0.003827657 -0.021036414 -0.025477473 -0.04309023
-0.035823856 0.00026164134 -0.03433359 0.021313176 0.045811296 -0.0028218024 -0.037541572 -0.015435765
-0.011123722 -0.005755876 0.023041474 0.011138626 0.0023681668 -0.042170927 0.036448367 -0.035610117
0.028906144 0.033205863 0.024335101 -0.05646613 0.0042771734 -0.0320375 0.018095907 -0.04264068
0.025077881 -0.046843488 0.025012938 -0.045433927 0.047629382 -0.040688965 -0.009608458 0.052573662
00000000: 9c2f e13b 2aa4 133d b4de 89bc 3d1d 8dbb
00000010: 9afe 2d3d 0b54 a33c 4f57 54bc 50af dcbc
00000020: efc3 94bb 1de6 493d cc80 15bd 040c 9d3c
00000030: aee9 bcbc 993e 64bc 0937 3ebc 6c4c 44bd
00000040: 3ef9 503c 00e2 84bb d2ed b0ba 07de 72bc
00000050: cc8f 1fbc 5bd8 89bc 1ab8 2abd 8ea3 103c
00000060: 3ad1 5bbc 9dff 603d 34c1 bcbb e45f d13c
00000070: 4daf 2fbd c5ee 4e3c a28a 08bd 0fe9 27bd
00000080: 7a5d cb3b 9c1b 21bd 5dbb 4fbd 3865 cabb
00000090: 8ffb 1ebc e496 693b e660 523d 3c4e ccbc
000000a0: 4dd4 acbb 64ce bfbb 9eae 253d 867e b9bc
000000b0: eb44 5a3d 6b48 5cbd 9ec1 37bd 310d a1bc
000000c0: 1208 663b b1af 44bd c46a 0cbc ee31 2e3d
000000d0: a1df 663d 3773 16bb 5dfc 06bd d01f 8d3c
000000e0: a68f e33c 2809 33bd dc5e c43c 8045 f03c
000000f0: eb25 173d 2b47 3f3d 4d2c 93b9 6725 a8bb
00000100: 708c 02bd c703 cfbc d3f7 42bd 3abd 14bd
00000110: a1e6 0d3d 7d9f 2ebd 5177 513d a4a8 003c
00000120: d569 68bd ba3d 36bd 0cde 0f3d 8ca4 013d
00000130: d5fe 613c 38d8 30bd 3fcc 063d 41f9 0fbd
00000140: b016 213d 587a b6bc 5aea 573b e378 133d
00000150: e6e9 1dbc 7de0 3d3d 6ba7 b1bc 0377 0abd
00000160: 1ee0 26bd 7a43 0bbd 5ad3 a9bc 2ac1 e53c
00000170: b989 37bd a169 2c3d 5a43 053c 77cf 343d
00000180: 1f56 f33c 73f7 ca3b 0d2f eb3c 4c94 103d
00000190: ec16 fa3c 9fa6 e63c c135 f8bc 8fc6 2abd
000001a0: a4e6 933b 7189 e7bc 7728 14bd 56c0 d43c
000001b0: 3e08 5c3d 7a46 78bc db80 c23c 23f2 0abd
000001c0: 0515 c63a 8d5d 02bd 27a9 4c3d 65d8 c1bc
000001d0: 55d3 033d e728 9b3c 7f25 d73c 9623 493d
000001e0: 7e07 843c c250 3c3b 6f94 6cbd d6ef 173d
000001f0: d0cf aebc 9682 8fbc ba4c 19bd 4ce4 b83c
00000200: 11d5 c2bc 2d93 993b 446c fe3c 7a72 12bd
00000210: 2a27 04bd 085b ecbc 65f5 2d3d fa7f bfbc
00000220: a100 35bd 1854 8bba ac01 313d d730 0ebd
00000230: 93cf 19bb 045d 363d ca10 f93b 2416 e53c
00000240: 2da6 e4bc 74f9 98bb 8174 633c 211a 193d
00000250: 9bcf 8f3b c22d f63b 4b0c 03bd bc78 5ebd
00000260: ac13 ffbc a3bf 13bd a4d1 df3b 8abb 1a3c
00000270: 89d3 0c3d 705b b73b 10ff 6a3d 0d19 71bc
00000280: 9dff 2abd f43a 6ebd d1d4 4bbd f1e8 053d
00000290: 7e3b 05bd 944f 463d 30f5 32bc f38b 473d
000002a0: 0c63 a33c 583d 17bc 1fd9 063d e92d eb3c
000002b0: e349 aeba c911 8236 a9e8 19bb 90d1 36bc
000002c0: da2f 353d a9d6 67bb 17be f6bb d0ee 7fbc
000002d0: b888 c23c b53f 63ba 3737 26bd d8ae 00bc
000002e0: 540d a03c 9335 303c 32b8 12bd 4805 e73b
000002f0: 9fba 1bbc 0104 323d 45c8 0f3d f82d 903b
00000300: b410 683c ce34 243c cd2c 36bc 295d f33c
00000310: 850b 43bd 607a 3c3c e185 0f3d 7cb8 28bd
00000320: 4528 583d 0c2d 47bc e53d 4cbd 569c febb
00000330: 4220 22bb 47c2 053d c63a 5bbc 2394 54bd
00000340: 4085 41bd 318a 86bc e16e 033d 64c8 fdbc
00000350: 14f8 053d 3853 77bc 82ba 84bb 5321 0a3d
00000360: ae21 a43c bafa 623d 94ac 053d 9b97 443c
00000370: 6ed9 7abb 8f54 acbc 22b6 d0bc 627f 30bd
00000380: 09bc 12bd e82c 8939 61a1 0cbd f898 ae3c
00000390: a0a4 3b3d fded 38bb 31c5 19bd 4ae6 7cbc
000003a0: 4640 36bc ca9b bcbb 79c1 bc3c c97e 363c
000003b0: 3f33 1b3b 6cbb 2cbd e24a 153d eadb 11bd
000003c0: 94cc ec3c df02 083d 685a c73c 0749 67bd
000003d0: 8827 8c3b c139 03bd de3d 943c fea7 2ebd
000003e0: 2170 cd3c f5de 3fbd efe7 cc3c ed18 3abd
000003f0: 0717 433d 79a9 26bd cb6c 1dbc 7b57 573d
